prep/g0504-233203_gcas_gcas_outT/models/model350000.onnx (onnx, 8665 bytes, 6 tensors)

linear_list.0.weight f4 [32, 14]
0.020278284 -0.002678015 -0.30482084 0.028911712 -0.044675812 -0.017021695 -0.0046609244 -0.0037762339
-0.05505343 0.00018740035 0.0021655173 0.0036768082 -0.0136669 -2.1800923 -0.032883495 0.01693603
0.5696951 0.10523918 0.034351908 0.034531128 0.0055022887 -0.00019436484 0.019574657 0.0055774776
0.0037385384 0.008372585 0.0010223449 -1.3011327 -0.050424613 0.013628289 0.5075217 0.0016394965
0.2620697 0.28515196 0.001555489 0.0073867203 -0.028939491 0.004353024 -0.0014655864 0.014027852
0.017673977 0.50636256 0.05547034 0.019372748 0.11899778 0.096278295 -0.2032281 0.016255336
-0.006405502 -0.004954737 0.09218144 -0.010164844 -0.0011836005 0.016925294 -0.006587302 -0.92702097
0.21566273 -0.019252693 0.15516448 -0.16698849 0.19208054 -0.10795894 -0.0080461 -0.005716463
-0.009503999 -1.4954686e-05 0.0023783874 0.0098030735 -0.006236137 0.79589754 -0.30604357 -0.05473716
-0.034061607 0.0670243 0.18188429 -0.007602553 0.0023204018 -0.0008508389 0.16779311 -0.007216641
-0.004630258 0.036890533 -0.008613353 0.4117127 0.006212253 -0.0004925647 -0.036708638 0.025455408
-0.0026789706 0.0025149498 0.0008242616 0.00057528657 -0.000747153 -0.0003534664 1.8896989e-06 -0.00067422376
0.00031143284 3.2207212 0.028463254 -0.003586262 0.15374468 -0.5082754 -0.1612108 0.009296303
0.010469501 0.011847824 -0.044019047 -0.020901209 -0.026969828 0.0028400992 -0.0008645953 -0.527352
0.18318026 -0.019140225 -0.27567688 0.2117687 -0.35737997 0.057393443 0.0030102746 0.010226357
0.14174187 0.00015237005 -0.0045368397 0.0589225 0.012524989 0.47058943 -0.10461252 0.013024697
0.31812352 -0.17159656 -0.60269314 0.056513958 -0.00602628 -0.0021749455 0.020456724 0.0038535676
-0.005220412 -0.051794596 0.03530435 0.37424767 -0.10450673 -0.05173963 0.04692966 0.056190394
-0.095163904 -0.20528693 0.0035807744 0.0021272476 -0.2898063 0.004517976 -0.007650348 0.048830915
0.022076888 0.54714733 0.10439853 0.030814406 -0.33403698 0.14906418 0.03768743 -0.034544375
-0.021954922 -0.0062483265 0.13063712 0.025407882 0.017611034 -0.07499861 -0.13419373 -0.40760967
0.04094308 0.05785448 -0.1914876 0.15409763 0.049065776 0.074743934 -0.00926401 -0.0016734997
-0.071072266 0.00790417 0.0019387098 0.018424703 0.1134647 0.044519562 -0.108218655 0.09564133
0.10054373 -0.018585514 -0.27404818 -0.004831641 -0.021801623 -0.004479124 0.13655613 0.0025944118
0.020150438 0.06776094 -0.02747563 0.46754622 -0.003297852 0.0063833543 0.022657253 1.405513
-0.022093598 0.008520532 -9.108475e-05 -0.0083757555 -0.014337668 0.0050633163 0.00014904777 0.0055995574
0.0040431125 -0.74649924 -0.08194929 0.017711693 0.020626929 0.19217722 0.11061925 0.06375154
0.0010623814 -0.0032095993 -0.09939172 0.0044625467 0.006391018 0.01948411 -0.014143556 1.1662973
-0.019918881 0.0027421394 0.1249212 -0.04919973 -0.00222757 0.012444238 -0.00045383826 -0.0012067195
-0.018492172 0.0027225793 0.0036327527 0.0030170581 -0.018188946 -1.2636536 -0.003769613 0.00621454
0.04097981 0.67011535 0.039277054 -0.029196244 0.0008822933 -0.005824786 0.036838394 0.01142041
0.010994527 0.03548542 -0.030533578 0.044002995 -0.014469734 -0.00094438874 0.018176954 -1.0017755
00000000: a51e a63c a381 2fbb 7a11 9cbe 41d8 ec3c
00000010: fcfd 36bd 1571 8bbc abba 98bb b17a 77bb
00000020: b57f 61bd e680 4439 5aeb 0d3b 9bf6 703b
00000030: 22eb 5fbc a286 0bc0 d8b0 06bd 6ebd 8a3c
00000040: 8ad7 113f a487 d73d 96b4 0c3d 8370 0d3d
00000050: 8b4c b43b 6ace 4bb9 085b a03c 46c3 b63b
00000060: 4402 753b 2b2d 093c 3400 863a 848b a6bf
00000070: 0a8a 4ebd 3049 5f3c f1ec 013f 60e4 d63a
00000080: 002e 863e 70ff 913e 8de1 cb3a 4d0c f23b
00000090: 8312 edbc d0a3 8e3b eb18 c0ba 13d5 653c
000000a0: 04c9 903c faa0 013f de34 633d 99b3 9e3c
000000b0: 1cb5 f33d 8e2d c53d 071b 50be e929 853c
000000c0: 3fe5 d1bb 595b a2bb 9fc9 bc3d 728a 26bc
000000d0: 0b23 9bba eaa6 8a3c 4bda d7bb 3f51 6dbf
000000e0: b1d6 5c3e d3b7 9dbc 70e3 1e3e 08ff 2abe
000000f0: c3b0 443e 9419 ddbd cad3 03bc 2b51 bbbb
00000100: a9b6 1bbc e3e5 7ab7 b8de 1b3b 129d 203c
00000110: 8258 ccbb f1bf 4b3f beb1 9cbe 1334 60bd
00000120: 2f84 0bbd 0944 893d e03f 3a3e d61e f9bb
00000130: e211 183b d50a 5fba f5d1 2b3e 9379 ecbb
00000140: 6bb9 97bb 871a 173d 051f 0dbc 02cc d23e
00000150: 2890 cb3b 751f 01ba cc5b 16bd dc87 d03c
00000160: ab91 2fbb dbd1 243b 4213 583a d4ce 163a
00000170: 97dc 43ba 7551 b9b9 8fa1 fd35 64be 30ba
00000180: cf47 a339 4c20 4e40 c52b e93c 7e07 6bbb
00000190: 3f6f 1d3e 561e 02bf 7214 25be 854f 183c
000001a0: 4588 2b3c 601d 423c 514d 34bd 0339 abbc
000001b0: d4ef dcbc f520 3a3b 02a6 62ba 8a00 07bf
000001c0: 9b93 3b3e f6cb 9cbc 8525 8dbe e5d9 583e
000001d0: 82fa b6be 6315 6b3d 0748 453b 738c 273c
000001e0: c824 113e 86c5 1f39 c5a9 94bb b858 713d
000001f0: 9d35 4d3c 19f1 f03e 173f d6bd 8a65 553c
00000200: 16e1 a23e 02b7 2fbe 194a 1abf 2e7b 673d
00000210: 1a78 c5bb 8889 0ebb dc94 a73c 238c 7c3b
00000220: fd0f abbb 9226 54bd 4b9b 103d 649d bf3e
00000230: a007 d6bd efec 53bd 5139 403d e627 663d
00000240: 4be5 c2bd bd36 52be 6dab 6a3b 4b69 0b3b
00000250: 7e61 94be 880b 943b c5af fabb ed02 483d
00000260: 97da b43c d911 0c3f e6ce d53d 7e6e fc3c
00000270: e506 abbe 48a4 183e 225e 1a3d 677e 0dbd
00000280: cfda b3bc c3be ccbb bdc5 053e 3124 d03c
00000290: 0445 903c df98 99bd 156a 09be 37b2 d0be
000002a0: eeb3 273d d2f8 6c3d 5315 44be c5cb 1d3e
000002b0: 32f9 483d 5913 993d 13c8 17bc 5559 dbba
000002c0: 568e 91bd 7e80 013c 4e1c fe3a 67ef 963c
000002d0: 2e60 e83d 255a 363d bea1 ddbd 9adf c33d
000002e0: dfe9 cd3d a640 98bc 0b50 8cbe be52 9ebb
000002f0: 5199 b2bc 9ec5 92bb 5fd5 0b3e 0207 2a3b
00000300: 8812 a53c 3fc6 8a3d 9314 e1bc 3862 ef3e
00000310: c620 58bb 752b d13b b49b b93c dae7 b33f
00000320: a2fd b4bc b499 0b3c c104 bfb8 773a 09bc
00000330: 8ae8 6abc 2dea a53b b549 1c39 7e7c b73b
00000340: 167c 843b 931a 3fbf 08d5 a7bd 1d18 913c
00000350: cef9 a83c 1bca 443e 588c e23d 2b90 823d
00000360: 9b3f 8b3a 2458 52bb e38d cbbd 8e3a 923b
00000370: bf6b d13b 249d 9f3c 60ba 67bc 3b49 953f
00000380: ec2c a3bc 77b5 333b b0d6 ff3d a885 49bd
00000390: 6cfc 11bb ebe2 4b3c 24f1 edb9 ca2a 9eba
000003a0: e57c 97bc 4d6d 323b 7a13 6e3b d6b9 453b
000003b0: fc00 95bc 67bf a1bf 9d0b 77bb 57a3 cb3b
000003c0: 72da 273d ae8c 2b3f fae0 203d f62c efbc
000003d0: b349 673a d9dd bebb dbe3 163d ac1c 3b3c
000003e0: 6322 343c 2959 113d 8e21 fabc 7c3c 343d
000003f0: 7712 6dbc db90 77ba d6e7 943c 2e3a 80bf

linear_list.0.bias f4 [32]
1.0108888 1.2963755 -0.14324968 0.62719554 0.6712622 0.65514183 -0.3480922 0.16645885
1.489183 1.3194733 0.6793475 0.051494054 0.62623 0.38268062 0.28879482 0.6419814
1.5185118 0.16033714 0.5062448 -0.14833176 -0.171269 0.8293094 -0.5576137 -0.1493539
1.0465375 -0.3471912 0.8914831 0.019150654 0.39830628 0.96663314 0.1455409 -0.16897503
00000000: ce64 813f a2ef a53f 0bb0 12be e38f 203f
00000010: d7d7 2b3f 60b7 273f 2439 b2be 3074 2a3e
00000020: 8c9d be3f 80e4 a83f b8e9 2d3f 6eeb 523d
00000030: 9c50 203f b7ee c33e eadc 933e e558 243f
00000040: 985e c23f 6b2f 243e 4299 013f 48e4 17be
00000050: 2461 2fbe 9f4d 543f c5bf 0ebf 3bf0 18be
00000060: f1f4 853f 0cc3 b1be 3d38 643f d5e1 9c3c
00000070: cdee cb3e 4575 773f ac08 153e ca07 2dbe

linear_list.1.weight f4 [32, 32]
-0.24085073 0.6382725 0.06901602 0.4482742 -0.013015859 -0.10666955 -0.71935695 0.13982992
-0.15487395 0.0047079353 0.07636058 -0.04880851 -0.027778849 -0.10226159 0.09360281 -0.12423394
0.18946803 0.060098268 0.039089676 -0.80184823 -0.7702035 0.07412982 -0.13009608 -0.83087385
-0.08505224 -0.13385165 -0.11773879 0.03041585 0.29140863 -0.10361003 0.007934214 -0.04477774
-0.09737097 -0.19076055 -0.43140483 -0.019938398 -0.013244145 -0.19731015 -0.014627357 -0.21074551
-0.099571675 -0.06518169 0.032931764 -0.13774432 -0.10707237 0.009879274 -0.036099967 -0.15091622
-0.27700734 0.108594604 -0.2661454 0.2658062 -0.19366395 -0.2909311 0.20722307 0.19721837
-0.012954828 0.41030478 -0.1105276 -0.063825995 0.00948069 -0.07865398 -0.091308594 0.21707162
-0.19396068 0.023135995 0.03937776 -0.14254978 0.1368675 0.05507402 0.42334625 -0.1358801
-0.457427 -0.3922194 -0.12264241 0.018274618 -0.16411859 -0.09556913 -0.045842092 0.061126612
-0.032272942 0.10373406 -0.30961636 -0.2637937 0.23536594 -0.34208047 0.21068871 0.086672515
-0.03303283 0.14628766 -0.4278143 -0.12665372 0.16937122 -0.12611282 0.07035687 -0.015492748
0.24001849 -0.08458605 0.15582424 -0.028123533 0.19014336 -0.19564858 0.098994404 0.2525858
-0.08137385 0.33015004 -0.2578269 -0.024725243 0.027216801 -0.111027256 0.016573748 0.1962342
0.37801564 0.05528366 -0.15844288 0.07402679 0.00091460056 -0.095531926 -0.22169307 -0.11475958
0.07017712 -0.15113379 0.1649434 -0.006137439 0.21231054 -0.011334206 0.15881874 -0.37863526
-0.27647248 -0.2745484 -0.028036216 -0.19406107 0.15425435 0.07393301 -0.4738807 0.030002302
0.21515243 0.3302475 0.018822199 -0.029298685 0.18899648 0.10190593 -0.10260205 0.063896075
-0.18743837 0.13428842 0.021023812 0.1594768 -0.23856232 -0.15577771 0.07620972 0.09323514
0.12617746 0.16604088 0.16388051 0.11942822 0.017696701 -0.11491872 0.018912582 0.16759057
-0.24308877 -0.023191176 -0.06421668 -0.09217549 -0.09899737 -0.011978666 -0.24129218 -0.13597175
0.29460412 0.28854194 -0.089500375 0.10340915 -0.10785901 0.106106125 0.0816262 -0.109885484
-0.2462913 0.016047643 -0.023165563 0.10402258 -0.1746622 0.05009856 0.04056549 0.17754753
0.23381203 0.1761472 -0.045225974 0.207378 -0.19419064 0.4608711 -0.080173455 -0.07811247
-0.24512783 0.19972824 -0.08108396 0.17218621 0.086452544 0.083775826 0.038132727 0.12000106
-0.09184567 0.12710899 -0.10183157 0.06359932 -0.029469308 -0.05930449 0.021388473 0.058754187
-0.040565725 0.25335515 -0.26321092 -0.13264383 0.16793053 -0.2169855 -0.16810326 0.13225672
0.25140715 0.16176692 -0.022173388 0.030737415 -0.34278828 -0.36361995 0.06576429 -0.12856452
-0.159517 0.04365429 0.15173699 0.045108974 -0.19510327 0.41483936 -0.22394377 -0.024637599
0.1861153 0.21114872 -0.1632095 0.002363333 0.13518834 0.14702566 0.029323045 0.36177585
0.19080022 -0.1441007 0.30414855 -0.05046364 0.08608726 0.18441902 0.0876418 0.007703226
-0.04746392 -0.13930272 -0.056052368 0.11382296 -0.13093151 0.08499697 -0.14479917 -0.32404625
00000000: 93a1 76be d465 233f 4558 8d3d 3284 e53e
00000010: 7840 55bc 9175 dabd c727 38bf 932f 0f3e
00000020: 4797 1ebe 0645 9a3b f062 9c3d 6feb 47bd
00000030: 7890 e3bc 866e d1bd d4b2 bf3d 5d6e febd
00000040: e803 423e 9a29 763d 7f1c 203d ed45 4dbf
00000050: 0e2c 45bf 60d1 973d e837 05be 26b4 54bf
00000060: de2f aebd 6810 09be 0921 f1bd a92a f93c
00000070: 8333 953e 7f31 d4bd 81fe 013c dd68 37bd
00000080: 6e6a c7bd bc56 43be 18e1 dcbe da55 a3bc
00000090: f8fd 58bc ac0b 4abe 95a7 6fbc accd 57be
000000a0: 3cec cbbd fa7d 85bd 75e3 063d d90c 0dbe
000000b0: c248 dbbd aedc 213c 8fdd 13bd c889 1abe
000000c0: e8d3 8dbe d966 de3d 3644 88be c017 883e
000000d0: d84f 46be ecf4 94be 4932 543e 9df3 493e
000000e0: 7d40 54bc 7813 d23e 4b5c e2bd 34b7 82bd
000000f0: e554 1b3c 5615 a1bd 0000 bbbd 0648 5e3e
00000100: a19d 46be b387 bd3c 934a 213d 92f8 11be
00000110: fe26 0c3e 4c95 613d d7c0 d83e 2724 0bbe
00000120: df33 eabe fbd0 c8be f22b fbbd a7b4 953c
00000130: b40e 28be bfb9 c3bd ebc4 3bbd e65f 7a3d
00000140: a230 04bd 8672 d43d 0986 9ebe f80f 87be
00000150: c503 713e 2c25 afbe c8be 573e 5c81 b13d
00000160: 6f4d 07bd 6fcc 153e 7a0a dbbe 83b1 01be
00000170: a66f 2d3e b823 01be 4317 903d 4bd5 7dbc
00000180: 68c7 753e 733b adbd 6490 1f3e 5363 e6bc
00000190: f1b4 423e 1a58 48be 94bd ca3d ed52 813e
000001a0: 55a7 a6bd 6d09 a93e e301 84be 988c cabc
000001b0: c5f5 de3c 4262 e3bd abc5 873c 9ef1 483e
000001c0: 448b c13e 1e71 623d da3e 22be 5c9b 973d
000001d0: cec1 6f3a 3ea6 c3bd 8203 63be 1207 ebbd
000001e0: 06b9 8f3d d1c2 1abe ece6 283e 921c c9bb
000001f0: ef67 593e 1bb3 39bc 61a1 223e 7bdc c1be
00000200: cd8d 8dbe 9c91 8cbe 35ac e5bc f2b7 46be
00000210: daf4 1d3e 316a 973d 7ea0 f2be 63c7 f53c
00000220: eb50 5c3e 3316 a93e 0331 9a3c cc03 f0bc
00000230: 4b88 413e 0eb4 d03d 0621 d2bd f2db 823d
00000240: d8ef 3fbe e782 093e 213a ac3c e34d 233e
00000250: ae49 74be 3184 1fbe d713 9c3d 11f2 be3d
00000260: aa34 013e 9f06 2a3e 4bd0 273e c896 f43d
00000270: acf8 903c 825a ebbd 8fee 9a3c dd9c 2b3e
00000280: 43ec 78be 6cfb bdbc 0984 83bd 81c6 bcbd
00000290: 22bf cabd 2b42 44bc 4c15 77be 2e3c 0bbe
000002a0: 5ad6 963e c5bb 933e f94b b7bd 2dc8 d33d
000002b0: 2fe5 dcbd 2b4e d93d a32b a73d a40b e1bd
000002c0: c933 7cbe 5976 833c b5c5 bdbc ca09 d53d
000002d0: a6da 32be 2634 4d3d 0028 263d 05cf 353e
000002e0: 6c6c 6f3e ee5f 343e df3e 39bd e65a 543e
000002f0: e9d9 46be 4cf7 eb3e fb31 a4bd 6ef9 9fbd
00000300: ca02 7bbe 8f85 4c3e 590f a6bd 9551 303e
00000310: 080e b13d a992 ab3d 1031 1c3d 1ec3 f53d
00000320: 9519 bcbd dc28 023e 128d d0bd 5c40 823d
00000330: 9e69 f1bc 44e9 72bd e136 af3c 3ba8 703d
00000340: 3f28 26bd c4b7 813e 95c3 86be c9d3 07be
00000350: fbf5 2b3e 7231 5ebe 4323 2cbe 4e6e 073e
00000360: 70b8 803e 3aa6 253e f7a4 b5bc 08cd fb3c
00000370: f281 afbe 652c babe 6eaf 863d 6ba6 03be
00000380: 6d58 23be d7ce 323d f160 1b3e 30c4 383d
00000390: 27c9 47be d365 d43e 8451 65be cad4 c9bc
000003a0: 0295 3e3e 5f37 583e 6420 27be 26e2 1a3b
000003b0: d06e 0a3e e58d 163e e236 f03c af3a b93e
000003c0: 2261 433e 228f 13be 5cb9 9b3e f6b2 4ebd
000003d0: 844e b03d 57d8 3c3e 8b7d b33d 586b fc3b
000003e0: 8769 42bd 5fa5 0ebe 2b97 65bd 031c e93d
000003f0: e912 06be e412 ae3d 3c46 14be 64e9 a5be

linear_list.1.bias f4 [32]
0.27321672 -0.29764155 -0.29598522 0.1665344 0.26470587 0.25446984 -0.23381203 0.2899441
0.16115746 -0.16220053 0.26041272 -0.15483958 0.041938964 0.26244858 -0.06540463 -0.033548653
-0.061626356 0.28457624 -0.1250873 0.49396715 0.34251857 -0.41541222 0.116149254 0.07530568
0.09460197 -0.2083741 0.10331042 0.23647404 0.76231045 0.5806836 -0.28816438 -1.4695401
00000000: 10e3 8b3e 7964 98be 608b 97be fe87 2a3e
00000010: 8787 873e df49 823e 6c6c 6fbe 8e73 943e
00000020: 7606 253e e517 26be d154 853e 448e 1ebe
00000030: 31c8 2b3d a95f 863e ddf2 85bd 506a 09bd
00000040: eb6b 7cbd fab3 913e e316 00be 43e9 fc3e
00000050: 985e af3e e9b0 d4be a9df ed3d dd39 9a3d
00000060: adbe c13d 0560 55be 6a94 d33d 4026 723e
00000070: c726 433f aea7 143f 488a 93be e419 bcbf

linear_list.2.weight f4 [14, 32]
8.880298e-05 0.0014769547 -0.0015960378 0.0009937198 0.0055387006 0.0011295432 -0.0008271109 -0.00159739
-0.0044062515 -0.0006210524 -0.00042378725 0.15613131 -0.13988866 0.012161297 -0.0021940367 -0.0016157038
-0.0009120666 -0.0014920483 -0.0004329649 0.00076895824 -0.0035687403 0.0016986401 -0.0034004713 -0.00028403223
0.00020206976 -0.1601639 0.00010413461 0.0004630652 -0.00033047932 0.0002206422 0.004379041 -0.0005610567
0.021418815 0.07412242 -0.6701485 0.12587786 0.22842577 0.013704172 -0.28267196 -0.33881277
0.06664099 -0.012845406 -0.10586886 -0.019002596 0.3908467 0.68523306 -0.050579425 -0.43778366
0.08916571 0.24262233 -0.01859143 0.2861447 -0.413652 0.00940427 -0.2514651 -0.07503796
0.120898366 -0.0075646066 -0.18819457 0.20190376 -0.059972145 -0.024223883 0.10133652 0.16397177
0.30103457 -0.02368078 0.47723585 -0.18744987 -0.26262632 0.064133726 0.35175177 0.056170546
0.20535117 0.285071 -0.5754928 0.08474323 -0.23983894 -0.037674442 0.40719974 0.15432718
0.36187762 -0.09400128 0.06441865 -0.18009432 0.051150486 -0.45544314 -0.011965225 -0.2725274
0.20556043 -0.054534387 -0.007632304 -0.100710526 -0.16362584 0.20143986 -0.30372077 -2.0280304
1.3596478 0.29877427 -0.02401753 0.20702244 -0.17817886 -0.40419364 -0.7830636 -0.14102124
0.14011365 -1.0385977 -0.71866995 0.073903106 -0.009163948 -0.15818527 0.9447818 0.2137029
-0.29408762 -0.20020509 -0.37830374 0.20817165 -0.2349882 -0.0066744974 0.07820918 -0.5272335
-1.3914604 0.16848928 0.43984208 0.30294052 1.1757756 -0.027823452 -0.39921242 0.034124892
-0.10584714 0.11787706 -0.37544933 -0.7064596 -0.049088065 -0.092390165 -0.4386363 0.059124254
0.09185489 -0.08178834 -0.12137556 0.05702688 0.29705715 0.1698853 0.44588605 0.44185847
-0.39458248 0.09955659 0.14873207 -0.24413604 -0.27402392 0.23736708 0.33004043 -0.080626085
-0.010472776 0.06615459 -0.21909185 0.1579301 -0.030303644 0.0011404348 0.53003585 0.08520115
-0.009774797 0.046469945 0.19561349 0.118593864 -0.31797865 -0.19660713 0.31220943 -0.055970225
-0.21878502 0.016815329 -0.046976686 -0.0414328 -0.09690433 -0.15177728 0.29488546 0.16950053
0.113324165 0.005110218 -0.063252814 -0.03012264 0.1710162 0.15180033 -0.32508317 -0.12353903
0.07520837 -0.06624441 -0.27930567 0.11079897 -0.007040127 0.06586676 -0.10371511 -0.517989
-0.10983602 0.12199044 -0.3387336 0.20181437 -0.30691302 -0.22677472 -0.31765127 0.66179895
0.0045261434 0.123772174 0.081482105 -0.15923202 0.08998079 0.20353486 -0.43376064 -0.017285407
-0.25178617 0.41421473 -0.027540179 -0.18934132 -0.22083154 -0.17244123 -0.012730459 0.17992704
0.043497026 -0.14534785 -0.025523126 -0.022954639 0.009689047 -0.12189497 0.28103068 0.43553856
0.5517092 0.08824718 0.020636637 -0.26586038 0.34429747 0.022280138 0.40958714 0.16712363
-0.15591107 -0.22429757 -0.11805753 -0.0844586 -0.04869482 -0.12899902 -0.34229657 -0.15489264
0.15848851 0.299964 -0.68816596 -0.23608282 -0.6429359 0.1762181 0.17555936 0.021224884
0.5837624 0.1667575 0.12438314 0.044477213 0.12749527 4.6237364 -0.1151456 -0.047754813
00000000: bd3b ba38 6096 c13a 2432 d1ba b43f 823a
00000010: fd7d b53b 2e0d 943a 79d2 58ba 845f d1ba
00000020: 5162 90bb 1fce 22ba c32f deb9 e3e0 1f3e
00000030: f93e 0fbe 2d40 473c d4c9 0fbb 06c6 d3ba
00000040: c117 6fba d590 c3ba 91ff e2b9 ea93 493a
00000050: 87e1 69bb e7a4 de3a 71da 5ebb 29ea 94b9
00000060: b0e2 5339 0102 24be d862 da38 8fc7 f239
00000070: 2f44 adb9 315c 6739 0f7e 8f3b e113 13ba
00000080: 8376 af3c 7fcd 973d da8e 2bbf 20e6 003e
00000090: 72e8 693e 7787 603c 61ba 90be de78 adbe
000000a0: 127b 883d 8a75 52bc c6d1 d8bd 55ab 9bbc
000000b0: 0f1d c83e 6f6b 2f3f 5f2c 4fbd 2e25 e0be
000000c0: 839c b63d fd71 783e 0e4d 98bc 8f81 923e
000000d0: 32ca d3be 5e14 1a3c 09c0 80be 81ad 99bd
000000e0: 9099 f73d 85e0 f7bb 14b6 40be dcbf 4e3e
000000f0: 5aa5 75bd 2a71 c6bc 8589 cf3d 37e8 273e
00000100: 3421 9a3e 32fe c1bc 4258 f43e dcf2 3fbe
00000110: f576 86be 8b58 833d cf18 b43e 1613 663d
00000120: 9447 523e d3f4 913e 7f53 13bf dc8d ad3d
00000130: 5798 75be 8450 1abd 7c7c d03e f207 1e3e
00000140: 0648 b93e be83 c0bd eded 833d a56a 38be
00000150: 2c83 513d d82f e9be cb09 44bc b688 8bbe
00000160: 6f7e 523e 735f 5fbd 6818 fabb 5241 cebd
00000170: 888d 27be 4046 4e3e 4a81 9bbe 40cb 01c0
00000180: f008 ae3f f1f8 983e 69c0 c4bc b1fd 533e
00000190: 8574 36be 78f2 cebe db76 48bf df67 10be
000001a0: f479 0f3e c5f0 84bf c1fa 37bf 835a 973d
000001b0: 6224 16bc 52fb 21be 38dd 713f efd4 5a3e
000001c0: a792 96be 9002 4dbe 07b1 c1be f32a 553e
000001d0: bfa0 70be beb5 dabb 222c a03d c6f8 06bf
000001e0: 601b b2bf 7488 2c3e fb32 e13e 051b 9b3e
000001f0: d17f 963f 02ee e3bc 9265 ccbe 8bc6 0b3d
00000200: 63c6 d8bd 8769 f13d e53a c0be 89da 34bf
00000210: 9110 49bd 0e37 bdbd f094 e0be 462c 723d
00000220: 6b1e bc3d a580 a7bd c093 f8bd 0595 693d
00000230: e017 983e 69f6 2d3e 2d4b e43e 463b e23e
00000240: b706 cabe 53e4 cb3d 384d 183e ccfe 79be
00000250: dd4c 8cbe 5b10 733e 0ffb a83e 4a1f a5bd
00000260: 0296 2bbc 0f7c 873d 9d59 60be 6eb8 213e
00000270: 593f f8bc a47a 953a 6eb0 073f f17d ae3d
00000280: 7826 20bc 4557 3e3d e74e 483e 57e1 f23d
00000290: 19ce a2be 6153 49be ead9 9f3e 0941 65bd
000002a0: 2e09 60be 4dc0 893c a06a 40bd 71b5 29bd
000002b0: c775 c6bd 816b 1bbe 3afb 963e 8c91 2d3e
000002c0: 8016 e83d 9e73 a73b b18a 81bd c1c3 f6bc
000002d0: df1e 2f3e 8c71 1b3e 4d71 a6be 0802 fdbd
000002e0: d906 9a3d 26ab 87bd 2701 8fbe 92ea e23d
000002f0: deb0 e6bb 27e5 863d 9668 d4bd ed9a 04bf
00000300: b5f1 e0bd 20d6 f93d 7e6e adbe 6da8 4e3e
00000310: b423 9dbe a237 68be 30a3 a2be a86b 293f
00000320: 0b50 943b 447c fd3d 17e0 a63d b80d 23be
00000330: d947 b83d 716b 503e e015 debe 209a 8dbc
00000340: 1eea 80be f413 d43e f19b e1bc b1e2 41be
00000350: aa21 62be 6f94 30be 6a93 50bc cb3e 383e
00000360: f029 323d 11d6 14be e015 d1bc 5e0b bcbc
00000370: cfbe 1e3c 12a4 f9bd 41e3 8f3e e9fe de3e
00000380: d03c 0d3f f0ba b43d 2a0e a93c da1e 88be
00000390: c247 b03e d684 b63c 68b5 d13e 7522 2b3e
000003a0: 27a7 1fbe 43ae 65be 25c8 f1bd a1f8 acbd
000003b0: 3874 47bd 5218 04be 7f41 afbe 2d9c 1ebe
000003c0: d04a 223e e294 993e a52b 30bf b2bf 71be
000003d0: 7297 24bf 8572 343e d5c5 333e cfdf ad3c
000003e0: 7471 153f 7ac2 2a3e 96bc fe3d bd2d 363d
000003f0: 1f8e 023e a6f5 9340 75d1 ebbd 8d9a 43bd

linear_list.2.bias f4 [14]
0.26477084 0.2470612 0.08029605 -0.16482186 -0.22389893 -0.05592054 0.35676023 0.009507308
0.18929549 0.15528113 -0.58302283 0.46352437 0.71346104 -0.16225094
00000000: 0b90 873e 9cfd 7c3e 4172 a43d 10c7 28be
00000010: c345 65be f00c 65bd 47a9 b63e 8ac4 1b3c
00000020: add6 413e 0402 1f3e fc40 15bf 1153 ed3e
00000030: 62a5 363f 1c25 26be
