prep/g0504-233203_gcas_gcas_outT/models/model250000.onnx (onnx, 8665 bytes, 6 tensors)

linear_list.0.weight f4 [32, 14]
0.016221954 -0.004363533 -0.3065114 0.021053417 -0.0325733 -0.013954412 -0.0044941357 -0.00344526
-0.06318613 0.0011867126 0.0020422481 0.002848644 -0.013018844 -2.1693647 -0.02942608 0.017542575
0.55800503 0.09870066 0.029834123 0.038301617 0.005190304 -5.912967e-05 0.016069425 0.0060436665
0.0036718103 0.008235149 0.0004924835 -1.2894893 -0.043488845 0.0110701565 0.5019977 -0.0048030107
0.26177636 0.29202127 0.0017604032 0.009541465 -0.023351815 0.004774676 -0.0013511467 0.017378533
0.021833159 0.506292 0.052593518 0.018758133 0.12925488 0.11203912 -0.1860298 0.020835515
-0.007588678 -0.0059019816 0.0895738 -0.0095788995 -0.0012492156 0.020216007 -0.004404393 -0.92182314
0.2257781 -0.020833338 0.15658958 -0.15828589 0.19697961 -0.10762712 -0.009092956 -0.0050463956
-0.021145659 -0.0005085288 0.0031102847 0.009118578 -0.0050965664 0.78056574 -0.3190836 -0.055229038
-0.05984724 0.06809574 0.17943764 -0.0012893948 0.0019010872 -0.0015913674 0.18610895 -0.0085128425
-0.0056250067 0.036718164 -0.010939256 0.4111415 0.005642923 -0.0006079675 -0.04126279 0.033426102
0.000107779444 0.0025498483 0.0011462056 0.0010998803 -0.0037789627 -0.0005025908 5.663363e-05 -9.5460955e-06
0.00030389155 3.202183 0.031569477 -0.006924638 0.17099576 -0.5017269 -0.16282736 0.0088334605
0.011815655 0.012022338 -0.04915287 -0.023191692 -0.027535329 0.0024961499 -0.0021592188 -0.52201366
0.18500476 -0.01987978 -0.29139373 0.20718707 -0.35502785 0.06539365 0.002241175 0.010596624
0.14078552 0.00037048245 -0.0045824773 0.06268274 0.010626071 0.46310413 -0.105154596 0.0109786205
0.33079347 -0.1679563 -0.5981298 0.050182335 -0.0064347913 -0.0012604174 0.027998125 0.0041272575
-0.005209275 -0.053438146 0.040248394 0.37117046 -0.11210974 -0.05252597 0.076131046 0.05897705
-0.084999636 -0.21208233 0.0026709125 0.0020254895 -0.32003802 0.0040564057 -0.007864978 0.048647545
0.022477506 0.5288745 0.1052775 0.030897316 -0.3353587 0.15006194 0.04327311 -0.03733712
-0.021729548 -0.007666093 0.12750724 0.027253943 0.018775444 -0.07684762 -0.13611138 -0.4066196
0.053896178 0.059091706 -0.19512393 0.15277512 0.05195218 0.07033299 -0.011193135 -4.095916e-05
-0.052891232 0.008275785 0.0027203225 0.018727567 0.11924711 0.045337472 -0.105422914 0.09831888
0.0722196 -0.018335683 -0.30292788 0.004230778 -0.022343557 -0.0027427536 0.15015967 0.0016731204
0.022641432 0.075185806 -0.028633239 0.471929 -0.0034112018 0.007090873 0.025634902 1.3868127
-0.021395812 0.007509038 0.00044746033 -0.009229033 -0.01510589 0.00532581 0.0002762044 0.0063428697
0.002969705 -0.7471839 -0.07894137 0.015269771 0.05641186 0.1780281 0.13988021 0.065118104
0.002167093 -0.0029106457 -0.124394044 0.0056214062 0.0067306506 0.01905086 -0.01388168 1.1397473
-0.008810088 0.004351754 0.122878626 -0.056522436 -0.011997039 0.012110301 -0.0005221937 -0.0005620935
-0.017602537 0.001996375 0.003850309 0.002947395 -0.019800859 -1.2751579 0.0027349356 0.0030088667
0.066175915 0.62200665 0.06700899 -0.049143936 0.0049665566 -0.00046977235 0.05253318 0.013114718
0.013172138 0.04679157 -0.04257971 0.04325293 -0.012810936 -0.0012916808 0.008664449 -1.0026376
00000000: e7e3 843c f8fb 8ebb 10ef 9cbe 3778 ac3c
00000010: 956b 05bd 0ca1 64bc 8b43 93bb dfc9 61bb
00000020: bb67 81bd 788b 9b3a 3dd7 053b 51b0 3a3b
00000030: fd4c 55bc dfd6 0ac0 f60e f1bc 72b5 8f3c
00000040: 6bd9 0e3f 9223 ca3d b166 f43c 28e2 1c3d
00000050: 6d13 aa3b 0002 78b8 07a4 833c f309 c63b
00000060: c1a2 703b b8ec 063c 021a 013a fc0d a5bf
00000070: 5c21 32bd 9a5f 353c ec82 003f 9362 9dbb
00000080: 8d07 863e d083 953e 54bd e63a ce53 1c3c
00000090: 4e4c bfbc e374 9c3b f618 b1ba 6d5d 8e3c
000000a0: 74db b23c 5a9c 013f 4d6c 573d a8aa 993c
000000b0: 645b 043e c474 e53d 997e 3ebe 3eaf aa3c
000000c0: 72aa f8bb 6965 c1bb 7872 b73d d1f0 1cbc
000000d0: b8bc a3ba 0a9c a53c ba52 90bb 9afc 6bbf
000000e0: 6032 673e adaa aabc 0559 203e b215 22be
000000f0: 06b5 493e 9c6b dcbd 9ffa 14bc 3c5c a5bb
00000100: a939 adbc ca4e 05ba ebd5 4b3b 1766 153c
00000110: 1901 a7bb 28d3 473f ed5e a3be d837 62bd
00000120: 6122 75bd c875 8b3d 80be 373e e900 a9ba
00000130: e72d f93a 6e95 d0ba 5893 3e3e 7379 0bbc
00000140: fa51 b8bb c965 163d 913a 33bc 2481 d23e
00000150: 45e8 b83b 0260 1fba 2c03 29bd cfe9 083d
00000160: a607 e238 5b1b 273b 473c 963a dc29 903a
00000170: 79a8 77bb 4cc0 03ba e689 6d38 2b28 20b7
00000180: a253 9f39 91f0 4c40 ff4e 013d 13e8 e2bb
00000190: 8319 2f3e 2d71 00bf 37bc 26be 38ba 103c
000001a0: 7396 413c 57f9 443c 8554 49bd 81fc bdbc
000001b0: c591 e1bc 7296 233b ae81 0dbb b0a2 05bf
000001c0: e371 3d3e ecda a2bc 8f31 95be d928 543e
000001d0: 36c6 b5be 1bed 853d ade0 123b 769d 2d3c
000001e0: 142a 103e 503d c239 9b28 96bb cf5f 803d
000001f0: f918 2e3c fc1b ed3e 4b5b d7bd acdf 333c
00000200: c35d a93e bcfc 2bbe 091f 19bf fe8b 4d3d
00000210: f1da d2bb 9734 a5ba 535c e53c f23d 873b
00000220: 91b2 aabb f5e1 5abd 80db 243d 0e0a be3e
00000230: cb99 e5bd 7925 57bd 98ea 9b3d eb91 713d
00000240: 4a14 aebd 1c2c 59be 7a0a 2f3b 13be 043b
00000250: 06dc a3be 99eb 843b 1cdc 00bc a642 473d
00000260: bf22 b83c 5264 073f bb9b d73d 5e1c fd3c
00000270: 23b4 abbe d6a9 193e 253f 313d cfee 18bd
00000280: 2a02 b2bc d933 fbbb 4291 023e a943 df3c
00000290: f6ce 993c 4962 9dbd c860 0bbe 7230 d0be
000002a0: 3dc2 5c3d 250a 723d 91ce 47be 1571 1c3e
000002b0: cfcb 543d be0a 903d 6963 37bc 90cb 2bb8
000002c0: 7aa4 58bd 2897 073c 7047 323b 8e6a 993c
000002d0: d437 f43d c9b3 393d f8e7 d7bd 695b c93d
000002e0: dfe7 933d b734 96bc 5d19 9bbe 57a2 8a3b
000002f0: d609 b7bc c5bf 33bb 75c3 193e 9b4c db3a
00000300: 867a b93c 04fb 993d 4190 eabc aea0 f13e
00000310: 788e 5fbb 8e5a e83b 4900 d23c 1483 b13f
00000320: 4546 afbc 600e f63b 1c99 ea39 5f35 17bc
00000330: b27e 77bc 2284 ae3b 87cf 9039 d9d7 cf3b
00000340: 629f 423b 7247 3fbf 03ac a1bd 102e 7a3c
00000350: 1f10 673d 004d 363e c23c 0f3e a45c 853d
00000360: ca05 0e3b 88c0 3ebb 4ec2 febd c633 b83b
00000370: ca8c dc3b 8d10 9c3c fc6f 63bc 3de3 913f
00000380: 3058 10bc 2999 8e3b caa7 fb3d 1284 67bd
00000390: 3b8f 44bc 496a 463c d3e3 08ba 7559 13ba
000003a0: 3233 90bc 9dd5 023b 7755 7c3b 1529 413b
000003b0: 6935 a2bc 6038 a3bf 9b3c 333b 6830 453b
000003c0: 3d87 873d d43b 1f3f 023c 893d 274b 49bd
000003d0: 7fbe a23b c74b f6b9 082d 573d 1ddf 563c
000003e0: f3cf 573c 84a8 3f3d 1068 2ebd fc29 313d
000003f0: f6e4 51bc 9e4d a9ba 55f5 0d3c 6e56 80bf

linear_list.0.bias f4 [32]
1.0059807 1.2941518 -0.14296503 0.60559994 0.67597574 0.6490191 -0.33645368 0.17202486
1.4936671 1.3143607 0.7081029 0.049760215 0.6271976 0.3579884 0.2959879 0.67327136
1.4891835 0.1443786 0.51109684 -0.15001193 -0.16377324 0.851966 -0.56047624 -0.15043253
1.0518959 -0.33592516 0.8614139 0.018887978 0.40451664 0.943767 0.14048098 -0.16516069
00000000: fac3 803f c4a6 a53f 6d65 12be 9908 1b3f
00000010: bf0c 2d3f 1e26 263f a843 acbe 4927 303e
00000020: 7c30 bf3f f93c a83f 3b46 353f 5ed1 4b3d
00000030: 0690 203f 414a b73e ba8b 973e 835b 2c3f
00000040: 919d be3f fcd7 133e 3ed7 023f ba9c 19be
00000050: 2cb4 27be 721a 5a3f 5f7b 0fbf fc0a 1abe
00000060: 86a4 863f 62fe abbe 9f85 5c3f f6ba 9a3c
00000070: ce1c cf3e b79a 713f 3fda 0f3e e21f 29be

linear_list.1.weight f4 [32, 32]
-0.2564753 0.61056024 0.06480256 0.4391019 -0.027612776 -0.11513426 -0.7163767 0.13399701
-0.1668377 -0.00863662 0.06496889 -0.052716855 -0.03410946 -0.1044429 0.086231925 -0.13208562
0.1639129 0.05603724 0.026963087 -0.7964143 -0.76722324 0.06581084 -0.13009608 -0.82525486
-0.101363234 -0.13310659 -0.12773238 0.02615505 0.2816129 -0.115462326 0.003874895 -0.046876583
-0.09737097 -0.19076055 -0.42464414 -0.019938398 -0.024843426 -0.20178173 -0.0024785046 -0.21074551
-0.111974046 -0.078760356 0.02274288 -0.13848938 -0.11021639 0.007155654 -0.038686622 -0.15187627
-0.27700734 0.09817456 -0.26734397 0.27260432 -0.18606168 -0.29315415 0.21631871 0.20361389
-0.02156776 0.4189784 -0.120752074 -0.06612196 0.00948069 -0.07931262 -0.091308594 0.21773922
-0.19396068 0.022670334 0.04293542 -0.14254978 0.1385838 0.04885549 0.4394446 -0.1358801
-0.46658817 -0.41242665 -0.13258484 0.018099269 -0.16832443 -0.10070796 -0.048721135 0.058859855
-0.032272942 0.07609653 -0.31959078 -0.25447938 0.24579547 -0.35246068 0.21693453 0.09540408
-0.039281372 0.15525159 -0.43123358 -0.1301465 0.16937122 -0.12611282 0.07035687 -0.014902922
0.24222119 -0.07445578 0.1635554 -0.021714889 0.18782629 -0.20828705 0.13434339 0.25854626
-0.11712625 0.29377577 -0.27972335 -0.030761166 0.0072941747 -0.11807458 0.01569795 0.18705125
0.38396057 0.025914066 -0.1659093 0.09383945 0.022119787 -0.12218954 -0.1978375 -0.09533829
0.04058597 -0.12864983 0.15652068 -0.02084644 0.21513356 -0.019911807 0.16027384 -0.3806161
-0.27721477 -0.28861284 -0.024363166 -0.20083335 0.16256534 0.06393543 -0.46661183 0.031076197
0.21235254 0.31279275 0.015493447 -0.030451465 0.19088495 0.09247132 -0.117214285 0.060292706
-0.19698744 0.13025177 0.010990043 0.16388087 -0.23304297 -0.16379856 0.06815713 0.09703977
0.113647655 0.16779658 0.16840646 0.11801205 0.017179677 -0.11805349 0.020278774 0.16945471
-0.24984604 -0.021877015 -0.06268207 -0.10077988 -0.09825903 -0.004288889 -0.24551985 -0.13421084
0.29743868 0.29703978 -0.08408476 0.10146136 -0.102506675 0.1073317 0.08772586 -0.10235107
-0.24604325 -0.0023373554 -0.009822236 0.09932759 -0.17832996 0.057464097 0.033833608 0.17321254
0.24838 0.17285916 -0.048479635 0.20405053 -0.1929725 0.44713894 -0.08432321 -0.08068966
-0.24373494 0.21727687 -0.065873526 0.17750365 0.06430742 0.058878742 0.13763046 0.11540922
-0.13509312 0.114433326 -0.15177265 0.054092526 -0.07168535 -0.03369115 0.03662082 0.038204037
-0.041459173 0.20219968 -0.274088 -0.07021448 0.23291771 -0.26550305 -0.0968256 0.18988453
0.18416783 0.21515109 -0.018137682 0.012603877 -0.33486614 -0.38337183 0.06676981 -0.09658006
-0.15861239 0.03123894 0.14633282 0.046264198 -0.20812885 0.40497458 -0.20798273 -0.029442817
0.17520659 0.19944681 -0.17112301 0.0023970052 0.13190141 0.14318871 0.0023006825 0.35625035
0.17590249 -0.12974748 0.27754578 -0.04314797 0.09509608 0.18059431 0.09391613 0.014180597
-0.05654489 -0.12624569 -0.06655742 0.10875853 -0.13259694 0.08197749 -0.14412418 -0.32227305
00000000: bb50 83be ad4d 1c3f 34b7 843d f7d1 e03e
00000010: 3034 e2bc 83cb ebbd 7764 37bf 8336 093e
00000020: 81d7 2abe 9c80 0dbc 690e 853d a1ed 57bd
00000030: 5cb6 0bbd 29e6 d5bd 5d9a b03d 7441 07be
00000040: c9d8 273e 4e87 653d b1e1 dc3c cfe1 4bbf
00000050: be68 44bf d5c7 863d e837 05be e743 53bf
00000060: 8797 cfbd 184d 08be 47cc 02be 1e43 d63c
00000070: 912f 903e 8377 ecbd f3f1 7d3b a901 40bd
00000080: 6e6a c7bd bc56 43be f56a d9be da55 a3bc
00000090: 7184 cbbc df9f 4ebe 686e 22bb accd 57be
000000a0: a652 e5bd 1c4d a1bd 474f ba3c 29d0 0dbe
000000b0: 21b9 e1bd fa79 ea3b dd75 1ebd 7485 1bbe
000000c0: e8d3 8dbe be0f c93d 4fe1 88be cb92 8b3e
000000d0: f486 3ebe 4d18 96be a782 5d3e 2980 503e
000000e0: dfae b0bc 5684 d63e dd4c f7bd f36a 87bd
000000f0: e554 1b3c a86e a2bd 0000 bbbd 08f7 5e3e
00000100: a19d 46be 23b7 b93c 0ddd 2f3d 92f8 11be
00000110: e9e8 0d3e b21c 483d e2fe e03e 2724 0bbe
00000120: a5e4 eebe 9629 d3be 52c4 07be eb44 943c
00000130: 3d5d 2cbe fa3f cebd d08f 47bd 0817 713d
00000140: a230 04bd 7fd8 9b3d 67a1 a3be 1f4b 82be
00000150: cfb1 7b3e ba75 b4be 1624 5e3e 3763 c33d
00000160: 81e5 20bd 46fa 1e3e a6ca dcbe 2045 05be
00000170: a66f 2d3e b823 01be 4317 903d 632b 74bc
00000180: d508 783e 467c 98bd 117b 273e 6ce3 b1bc
00000190: 8955 403e 3349 55be 5091 093e 2d60 843e
000001a0: e3df efbd c769 963e e637 8fbe d7fe fbbc
000001b0: f903 ef3b 16d1 f1bd fd98 803c 5d8a 3f3e
000001c0: 7b96 c43e bc49 d43c 21e4 29be e62e c03d
000001d0: 8e34 b53c 823e fabd ea95 4abe b940 c3bd
000001e0: 793d 263d c8bc 03be f546 203e 27c6 aabc
000001f0: f94b 5c3e 161e a3bc d31e 243e 1de0 c2be
00000200: 18ef 8dbe 10c5 93be 4395 c7bc 42a7 4dbe
00000210: 8777 263e 94f0 823d bfe7 eebe 8293 fe3c
00000220: f272 593e 5f26 a03e 3ad8 7d3c 5a75 f9bc
00000230: 5877 433e 9a61 bd3d 0b0e f0bd 7cf5 763d
00000240: 13b7 49be b860 053e 950f 343c 63d0 273e
00000250: d1a2 6ebe cfba 27be f795 8b3d c9bc c63d
00000260: 1ac0 e83d ded2 2b3e be72 2c3e 4db0 f13d
00000270: 65bc 8c3c 07c6 f1bd ac1f a63c 8985 2d3e
00000280: a4d7 7fbe 6d37 b3bc 755f 80bd af65 cebd
00000290: 083c c9bd cf89 8cbb 8e69 7bbe 916e 09be
000002a0: e249 983e 9915 983e a134 acbd f9ca cf3d
000002b0: 05ef d1bd b9d0 db3d 9ea9 b33d 709d d1bd
000002c0: c3f2 7bbe 512e 19bb 72ed 20bc 436c cb3d
000002d0: 219c 36be 795f 6b3d 1c95 0a3d a15e 313e
000002e0: 5457 7e3e fe01 313e 9592 46bd 9ff2 503e
000002f0: 959a 45be 65ef e43e a6b1 acbd 9f40 a5bd
00000300: a795 79be d47d 5e3e b3e8 86bd 84c3 353e
00000310: 9cb3 833d d62a 713d 00ef 0c3e ab5b ec3d
00000320: da55 0abe 055c ea3d 4a6a 1bbe 2090 5d3d
00000330: c5cf 92bd bbff 09bd b7ff 153d d67b 1c3d
00000340: 18d1 29bd 6f0d 4f3e 4355 8cbe 9ccc 8fbd
00000350: fb81 6e3e 04f0 87be 804c c6bd 1771 423e
00000360: 7e96 3c3e 9150 5c3e 7a95 94bc 7e80 4e3c
00000370: 9373 abbe 5049 c4be 9cbe 883d c4cb c5bd
00000380: 496b 22be cee8 ff3c 45d8 153e 877f 3d3d
00000390: bb1f 55be d458 cf3e 6df9 54be 1032 f1bc
000003a0: 5b69 333e c93b 4c3e df3a 2fbe 1317 1d3b
000003b0: 2a11 073e 10a0 123e 0cc7 163b 7266 b63e
000003c0: c81f 343e 86dc 04be 7b1a 8e3e edbb 30bd
000003d0: bcc1 c23d b7ed 383e 1a57 c03d bc55 683c
000003e0: 9d9b 67bd 8d46 01be 424f 88bd cbbc de3d
000003f0: 7ec7 07be d0e3 a73d 4a95 13be f900 a5be

linear_list.1.bias f4 [32]
0.25853345 -0.30827793 -0.3052574 0.13934456 0.26105073 0.26160473 -0.28767574 0.27858967
0.15149459 -0.16002049 0.25341377 -0.15373641 0.041938964 0.241041 -0.11513358 -0.04820994
-0.06322145 0.2876794 -0.12506592 0.49458322 0.31094626 -0.5121536 0.10436564 0.07967289
0.0927108 -0.20723742 0.1060055 0.23756842 0.75992244 0.57770336 -0.30966556 -1.4719442
00000000: 7f5e 843e 9bd6 9dbe b34a 9cbe 57b0 0e3e
00000010: 71a8 853e 0ef1 853e 3c4a 93be 4ea3 8e3e
00000020: 6621 1b3e 69dc 23be 73bf 813e 146d 1dbe
00000030: 31c8 2b3d 74d3 763e 28cb ebbd c977 45bd
00000040: 3f7a 81bd b74a 933e 4811 00be 033a fd3e
00000050: 5934 9f3e 801c 03bf a7bd d53d 8a2b a33d
00000060: 29df bd3d 0c36 54be 6919 d93d 2345 733e
00000070: 478a 423f 5ee4 133f 7c8c 9ebe ab68 bcbf

linear_list.2.weight f4 [14, 32]
-0.00023268597 0.0012244821 -0.0016541146 0.0019306882 0.0043874173 0.0023184177 -0.00062157126 -0.0034223776
-0.003634092 -0.0006200938 -0.0005084161 0.15634443 -0.13988866 0.011090048 -0.0016414146 -0.0010367406
-0.0010635065 -0.00030791573 -0.00035832476 0.0007305675 -0.0023433242 0.0007995287 -0.0033022508 -0.0003708636
2.7070004e-07 -0.16122772 -3.8933744e-05 0.00031026464 -0.0002754106 0.0003457195 0.0037992964 -0.00059464935
0.022119053 0.095852904 -0.6215547 0.14523655 0.21219988 0.012295384 -0.18217202 -0.32701746
0.06060843 -0.0071028345 -0.1174447 -0.019002596 0.3908467 0.65624714 0.0051714387 -0.39530176
0.09595779 0.234609 -0.01724621 0.28654212 -0.3678874 0.070916794 -0.24137071 -0.07250666
0.12432822 -0.0075646066 -0.17897816 0.1926104 -0.0775236 -0.017332302 0.09074772 0.17063054
0.27436343 -0.038097315 0.47982618 -0.2104756 -0.26456127 0.046778556 0.30884516 0.025809139
0.19867402 0.2692665 -0.53386974 0.08474323 -0.23983894 -0.038933612 0.36925322 0.12790857
0.33588436 -0.08703191 0.049093567 -0.20491774 0.022155082 -0.45420858 -0.017587952 -0.27374253
0.18340841 -0.054534387 0.019837648 -0.07521265 -0.13388771 0.1977278 -0.30372825 -2.0124855
1.3448324 0.29181394 -0.028385181 0.21046354 -0.19121128 -0.41077545 -0.77782923 -0.14175156
0.14602432 -1.0445582 -0.69788677 0.073903106 -0.009163948 -0.15902813 0.916766 0.2151944
-0.29839256 -0.21277869 -0.38556188 0.2058464 -0.22811098 0.006448679 0.07894999 -0.51668775
-1.373579 0.16848928 0.43179312 0.29649764 1.2139839 -0.028005145 -0.40359852 0.026460104
-0.12713549 0.105362676 -0.37445682 -0.6760982 -0.048858065 -0.09459693 -0.434558 0.06400889
0.06568389 -0.07948884 -0.12692405 0.05702688 0.29705715 0.15630245 0.4032786 0.4182372
-0.38038343 0.09582112 0.13110217 -0.21842934 -0.2768933 0.18119593 0.3083124 -0.099377915
-0.0029326654 0.06615459 -0.22969954 0.15615208 -0.061700214 -0.012005458 0.50658375 0.08132142
-0.025798067 0.017300101 0.15279636 0.10001872 -0.29394823 -0.186992 0.19331153 -0.03817218
-0.2168387 0.011041153 -0.030997397 -0.0414328 -0.09690433 -0.15617129 0.2055474 0.11301562
0.10652789 0.017926892 -0.07218496 -0.024124622 0.13414869 0.03732569 -0.32744735 -0.13073651
0.06979472 -0.06624441 -0.2723037 0.12423532 -0.017898656 0.059463773 -0.120841004 -0.52962095
-0.09433301 0.17160816 -0.3047421 0.20562385 -0.3074294 -0.21474884 -0.1945356 0.6364621
0.020546049 0.12920839 0.071232244 -0.15923202 0.08998079 0.21432984 -0.33592808 0.019848457
-0.24264425 0.3941802 -0.01842901 -0.18431628 -0.16934662 -0.05398094 -0.015259532 0.18204863
0.045586254 -0.14534785 -0.03371287 -0.03259561 0.026862571 -0.11945707 0.29811096 0.43272653
0.56400347 0.103175215 0.027045645 -0.2819592 0.3441783 0.020572351 0.41982278 0.15059257
-0.1607138 -0.22470163 -0.13025339 -0.0844586 -0.04869482 -0.14106542 -0.30896154 -0.13629521
0.15131722 0.29924 -0.67931765 -0.24606194 -0.64171666 0.1832947 0.17304674 0.022180736
0.5758914 0.1667575 0.11900557 0.033791445 0.11618777 4.552211 -0.11376348 -0.04227607
00000000: 2afd 73b9 cd7e a03a e0ce d8ba 250f fd3a
00000010: 53c4 8f3b 98f0 173b f1f0 22ba f849 60bb
00000020: f229 6ebb ca8d 22ba 3a47 05ba c118 203e
00000030: f93e 0fbe 08b3 353c bc24 d7ba 3ee3 87ba
00000040: 5b65 8bba c06f a1b9 89dd bbb9 8e83 3f3a
00000050: 7592 19bb 7697 513a 936a 58bb 7870 c2b9
00000060: bb54 9134 e118 25be ca4c 23b8 04ab a239
00000070: fc64 90b9 b041 b539 9efd 783b 3ee2 1bba
00000080: 0433 b53c 874e c43d 351e 1fbf e4b8 143e
00000090: ed4a 593e 9472 493c 4d8b 3abe d56e a7be
000000a0: 8c40 783d e5be e8bb d986 f0bd 55ab 9bbc
000000b0: 0f1d c83e d0ff 273f 2c75 a93b fe64 cabe
000000c0: 8585 c43d 573d 703e ec47 8dbc a6b5 923e
000000d0: bd5b bcbe d33c 913d e229 77be 5f7e 94bd
000000e0: cb9f fe3d 85e0 f7bb 0d46 37be a93b 453e
000000f0: b1c4 9ebd 79fc 8dbc f1d9 b93d c6b9 2e3e
00000100: 5d79 8c3e ee0b 1cbd c7ab f53e ea86 57be
00000110: 9374 87be df9a 3f3d f420 9e3e b06d d33c
00000120: 3471 4b3e 4cdd 893e b0ab 08bf dc8d ad3d
00000130: 5798 75be da78 1fbd c20e bd3e 77fa 023e
00000140: 09f9 ab3e c93d b2bd 5616 493d f5d5 51be
00000150: 937e b53c 078e e8be 9c14 90bc fb27 8cbe
00000160: 6acf 3b3e 735f 5fbd 9082 a23c 1709 9abd
00000170: dc19 09be 2879 4a3e 4582 9bbe 90cc 00c0
00000180: 7823 ac3f a368 953e 0a88 e8bc c183 573e
00000190: e4cc 43be 2951 d2be d11f 47bf 5227 11be
000001a0: 6687 153e 15b4 85bf b5a8 32bf 835a 973d
000001b0: 6224 16bc 45d8 22be 2db1 6a3f ec5b 5c3e
000001c0: e9c6 98be a8e2 59be 5e68 c5be 66c9 523e
000001d0: ed95 69be 714f d33b 88b0 a13d a645 04bf
000001e0: 70d1 afbf 7488 2c3e fd13 dd3e 8ace 973e
000001f0: d363 9b3f 0c6b e5bc 77a4 cebe dcc2 d83c
00000200: ce2f 02be 63c8 d73d ceb8 bfbe c614 2dbf
00000210: 651f 48bd 09bc c1bd 637e debe 1817 833d
00000220: 4685 863d 0ccb a2bd 61f8 01be 0595 693d
00000230: e017 983e c00d 203e 887a ce3e 3023 d63e
00000240: 9ec1 c2be dd3d c43d a63f 063e f1ab 5fbe
00000250: f5c4 8dbe 6d8b 393e 1fdb 9d3e a686 cbbd
00000260: f631 40bb 0f7c 873d 5b36 6bbe 55e6 1f3e
00000270: 5db9 7cbd 8ab2 44bc 79af 013f d88b a63d
00000280: 7856 d3bc f1b8 8d3c a676 1c3e 9dd6 cc3d
00000290: 6280 96be d57a 3fbe 75f3 453e 6f5a 1cbd
000002a0: f70a 5ebe f4e5 343c 41ee fdbc 71b5 29bd
000002b0: c775 c6bd 5eeb 1fbe 057b 523e bc74 e73d
000002c0: 4b2b da3d 6bdb 923c b5d5 93bd 00a1 c5bc
000002d0: 465e 093e d3e2 183d 2ea7 a7be cbdf 05be
000002e0: 89f0 8e3d 26ab 87bd 646b 8bbe 166f fe3d
000002f0: 34a0 92bc 4990 733d 7d7b f7bd 3d95 07bf
00000300: aa31 c1bd 0dba 2f3e 2807 9cbe 0f8f 523e
00000310: 6367 9dbe 1fe7 5bbe 5734 47be 2eef 223f
00000320: 3050 a83c 344f 043e 36e2 913d b80d 23be
00000330: d947 b83d 4879 5b3e c4fe abbe 3b99 a23c
00000340: bc77 78be fdd1 c93e 6ff8 96bc 68bd 3cbe
00000350: 3369 2dbe 1e1b 5dbd 1e03 7abc f56a 3a3e
00000360: a7b8 3a3d 11d6 14be 8216 0abd f982 05bd
00000370: e50e dc3c e9a5 f4bd 00a2 983e 558e dd3e
00000380: 8862 103f 874d d33d d48e dd3c f55c 90be
00000390: 2338 b03e 5987 a83c 03f3 d63e f034 1a3e
000003a0: 2992 24be 2f18 66be 2561 05be a1f8 acbd
000003b0: 3874 47bd 7473 10be 3530 9ebe f990 0bbe
000003c0: e7f2 1a3e fc35 993e c3e7 2dbf a9f7 7bbe
000003d0: 8b47 24bf 9bb1 3b3e 2a33 313e 60b4 b53c
000003e0: 9e6d 133f 7ac2 2a3e 31b9 f33d e668 0a3d
000003f0: dbf3 ed3d b6ab 9140 d4fc e8bd ac29 2dbd

linear_list.2.bias f4 [14]
0.2665089 0.2724832 0.045564286 -0.16751972 -0.22300464 -0.08670876 0.3915849 0.01092829
0.20076089 0.18820213 -0.6056844 0.48343766 0.7150244 -0.18396851
00000000: db73 883e eb82 8b3e 9ea1 3a3d 4a8a 2bbe
00000010: 545b 64be 5d94 b1bd d17d c83e 920c 333c
00000020: 4394 4d3e 0fb8 403e 220e 1bbf 2485 f73e
00000030: d70b 373f 3e62 3cbe
