prep/g0504-233203_gcas_gcas_outT/models/model200000.onnx (onnx, 8665 bytes, 6 tensors)

linear_list.0.weight f4 [32, 14]
0	0x3c5df589	0.01354731
1	0xbbac534b	-0.0052589527
2	0xbe97aa85	-0.29622284
3	0x3c82f5c4	0.01598633
4	0xbcda45ac	-0.02664455
5	0xbc338f8c	-0.010959517
6	0xbb82bb9c	-0.00398965
7	0xbb5c8316	-0.003364747
8	0xbd8960cc	-0.06707916
9	0x3af82444	0.0018931706
10	0x3af893b5	0.0018964919
11	0x3a94670c	0.0011322214
12	0xbc68fd97	-0.014220617
13	0xc00ad646	-2.1693282
14	0xbcebdb5d	-0.028791124
15	0x3c8f1341	0.017465236
16	0x3f0c81a7	0.54885334
17	0x3dc57e2b	0.09643205
18	0x3ce77b32	0.028256986
19	0x3d14fd8e	0.03637462
20	0x3ba76979	0.005109009
21	0xb9882503	-0.00025967517
22	0x3c10c88f	0.008836879
23	0x3bc80db4	0.006105149
24	0x3b57d6b0	0.003293436
25	0x3c017f4d	0.007903886
26	0x3a5678d0	0.00081814546
27	0xbfa44aac	-1.2835288
28	0xbd28c4fd	-0.041203488
29	0x3c1b951c	0.009496
30	0x3f00e804	0.5035403
31	0xbc1f8475	-0.00973617
32	0x3e876c08	0.2644961
33	0x3e964d45	0.29355827
34	0x3b014940	0.0019727498
35	0x3c2ce815	0.01055338
36	0xbcca5eb6	-0.024703365
37	0x3ba19d98	0.0049321167
38	0xbaa30a3a	-0.0012438961
39	0x3c9b0c7e	0.018926855
40	0x3cbd2c06	0.023092281
41	0x3f01e7f5	0.50744563
42	0x3d5dc03b	0.054138403
43	0x3c9dbd80	0.0192554
44	0x3e02c1d3	0.1276925
45	0x3df1ca19	0.11806125
46	0xbe3f211f	-0.18664978
47	0x3cc1ffa5	0.023681471
48	0xbbf1e936	-0.0073825372
49	0xbbb23d47	-0.0054394337
50	0x3db003bc	0.08594462
51	0xbc15582b	-0.009115259
52	0xba96b91e	-0.0011499261
53	0x3cb44f0d	0.02201035
54	0xbb3d5e9c	-0.0028895503
55	0xbf6a4c86	-0.91523015
56	0x3e678243	0.22608285
57	0xbcaaaeab	-0.020835241
58	0x3e2a15f6	0.1660994
59	0xbe1cdc48	-0.15318406
60	0x3e4e8196	0.2016662
61	0xbddd3633	-0.10801353
62	0xbc18d9d7	-0.009329281
63	0xbba435cd	-0.0050112964
64	0xbd104cf4	-0.03522964
65	0xb9d6214a	-0.00040842063
66	0x3b6bb7a9	0.0035967624
67	0x3bd2049f	0.0064092423
68	0xbbab7346	-0.0052322475
69	0x3f44ade0	0.7682781
70	0xbea4a410	-0.3215642
71	0xbd67a730	-0.056555927
72	0xbd8f5f96	-0.070006534
73	0x3d88306f	0.06649863
74	0x3e350153	0.17676286
75	0x3b66884a	0.003517645
76	0x3b033fa9	0.0020026958
77	0xbb0faa9b	-0.0021921757
78	0x3e43b432	0.19111708
79	0xbc03e883	-0.008051041
80	0xbbc7cc66	-0.0060973642
81	0x3d0c1020	0.034195065
82	0xbc68277f	-0.014169573
83	0x3ed315e8	0.4122765
84	0x3bc40c5a	0.0059829177
85	0xbac2d47b	-0.001486435
86	0xbd3ba59e	-0.04581224
87	0x3d066b21	0.03281701
88	0x3b1556d0	0.002278734
89	0x3b568960	0.003273569
90	0x3aa80638	0.0012819236
91	0x3a666922	0.000878947
92	0x3a983c4a	0.0011614647
93	0xb8239881	-3.900426e-05
94	0x39961a7d	0.00028629965
95	0x3992f5a5	0.0002803031
96	0xbacf8a1f	-0.001583401
97	0x404d2da6	3.2059112
98	0x3d088706	0.033331893
99	0xbc0647db	-0.008195843
100	0x3e2f0fb2	0.17095831
101	0xbeff2ee2	-0.49840456
102	0xbe2aa992	-0.16666248
103	0x3c19f1d1	0.009396032
104	0x3c505065	0.01271448
105	0x3c46cb05	0.012133365
106	0xbd5454be	-0.05183863
107	0xbcc6679c	-0.024219327
108	0xbce3dd2a	-0.02781542
109	0x3b11d201	0.0022250416
110	0xbb21cb5b	-0.002468786
111	0xbf0575f0	-0.52133083
112	0x3e3c910c	0.18414706
113	0xbca3a2ee	-0.019975152
114	0xbe9b07ac	-0.3027929
115	0x3e516b68	0.20451128
116	0xbeb7bd73	-0.35886726
117	0x3d8b4ac8	0.06801373
118	0x3ae9c61c	0.001783553
119	0x3c2e8f36	0.010654261
120	0x3e0f9963	0.14023356
121	0x3a11b56e	0.0005558346
122	0xbb8f89b4	-0.004380429
123	0x3d802115	0.0625631
124	0x3c1cafeb	0.0095634265
125	0x3eebc1c7	0.46046278
126	0xbdd003a0	-0.101569414
127	0x3c24d05a	0.0100594405
128	0x3eabcb5b	0.33553585
129	0xbe2fe4a8	-0.17177069
130	0xbf1939ee	-0.5985402
131	0x3d4e7177	0.050401177
132	0xbbcb652c	-0.006207129
133	0xba500b4a	-0.00079362525
134	0x3d218d66	0.03944149
135	0x3b7c59e0	0.0038505718
136	0xbba61a73	-0.005069071
137	0xbd5b4cbe	-0.053539984
138	0x3d2ab1fc	0.041673645
139	0x3ebe07de	0.37115377
140	0xbdeb82b1	-0.11499537
141	0xbd55335c	-0.052050933
142	0x3dbdf99a	0.09276123
143	0x3d6ee684	0.058325306
144	0xbdaca31b	-0.084295474
145	0xbe5cb987	-0.21555148
146	0x3b14a5b4	0.0022681775
147	0x3aef7d81	0.0018271656
148	0xbea9edaa	-0.33189136
149	0x3b90e60f	0.0044219564
150	0xbc099aaf	-0.008398696
151	0x3d4dfd46	0.05029037
152	0x3cbc2110	0.022964984
153	0x3f035959	0.5130821
154	0x3dd82bac	0.10555205
155	0x3cfc728e	0.030816343
156	0xbeac6ea2	-0.33678156
157	0x3e192a95	0.1495765
158	0x3d3546e5	0.044257063
159	0xbd1b3b5e	-0.037898414
160	0xbcb0d795	-0.021587173
161	0xbc07f2c9	-0.008297631
162	0x3e02429f	0.12720726
163	0x3ce55f14	0.027999438
164	0x3c9e4347	0.01931919
165	0xbd9f09be	-0.0776553
166	0xbe0bea5a	-0.13663617
167	0xbecfbcf1	-0.40573838
168	0x3d70f5b3	0.058828067
169	0x3d71ca82	0.059031017
170	0xbe4d1b33	-0.20029907
171	0x3e1d94d6	0.15388808
172	0x3d59ff67	0.053222086
173	0x3d8ba62b	0.068188034
174	0xbc47127e	-0.012150405
175	0x3a693f91	0.0008897717
176	0xbd4e3ca0	-0.050350785
177	0x3c0f5e4c	0.0087505095
178	0x3b6693d0	0.0035183318
179	0x3c8a978f	0.016917972
180	0x3df710cd	0.12063751
181	0x3d32851b	0.04358397
182	0xbdd882e9	-0.10571844
183	0x3dcbb5d4	0.0994679
184	0x3d690630	0.056890666
185	0xbc98b591	-0.018641265
186	0xbea17f8c	-0.31542623
187	0x3bc29add	0.0059388713
188	0xbcbbc681	-0.022921802
189	0xbad4ffb3	-0.0016250521
190	0x3e2158fb	0.157566
191	0x3aa83428	0.0012832927
192	0x3cc31955	0.02381579
193	0x3da017eb	0.07817062
194	0xbcea8a61	-0.028630437
195	0x3ef55401	0.47915652
196	0xbb7cfa1c	-0.0038601225
197	0x3bf667f9	0.0075197187
198	0x3ccd7b50	0.025083214
199	0x3fb06ca1	1.3783151
200	0xbcb764dc	-0.02238696
201	0x3bf3fa27	0.007445592
202	0x3a4f89f7	0.00079169817
203	0xbc1c2df6	-0.009532442
204	0xbc831340	-0.01600039
205	0x3bbc02dd	0.005737646
206	0x3a6202f6	0.0008621657
207	0x3bf64012	0.007514962
208	0x3b0f1c8b	0.0021837081
209	0xbf3efc65	-0.74603873
210	0xbd9f5750	-0.077803254
211	0x3c710bd3	0.014712292
212	0x3dae9b70	0.08525741
213	0x3e301900	0.17197037
214	0x3e1d71e9	0.15375485
215	0x3d85eec6	0.06539683
216	0x3b52b4c6	0.0032151206
217	0xbb4e5e95	-0.003148948
218	0xbe0dc0a0	-0.13843012
219	0x3bc34b88	0.0059599318
220	0x3bef01c6	0.0072939126
221	0x3c95f35f	0.018304525
222	0xbc72fbd5	-0.014830549
223	0x3f8fc0ca	1.123071
224	0xbb88e1cf	-0.004177309
225	0x3b9a26a5	0.004704314
226	0x3df0e14e	0.117617235
227	0xbd7a1b33	-0.061061095
228	0xbc9288dd	-0.017887527
229	0x3c355d77	0.011069647
230	0xba250e97	-0.00062964245
231	0xb87e35a3	-6.0608272e-05
232	0xbc7ea265	-0.015541648
233	0x3acbd0d9	0.0015549912
234	0x3b7722f2	0.0037710038
235	0x3b2c4274	0.0026284726
236	0xbca6caa1	-0.020360293
237	0xbfa4ad24	-1.2865338
238	0x3bf13466	0.0073609827
239	0x3a0fcf1a	0.00054858776
240	0x3d9f81c9	0.077884264
241	0x3f1a7c9d	0.60346395
242	0x3da506ad	0.08057914
243	0xbd7054c8	-0.058674604
244	0x3c06c595	0.008225818
245	0x3aa2351c	0.0012375447
246	0x3d6e26a8	0.058142334
247	0x3c5bf4e5	0.013425087
248	0x3c69ba38	0.014265589
249	0x3d4adc7d	0.04952668
250	0xbd4964ae	-0.04916828
251	0x3d1682ec	0.03674595
252	0xbc2a5ac1	-0.010397614
253	0xbb271c65	-0.0025499102
254	0x3b64f124	0.003493377
255	0xbf81140f	-1.0084246

linear_list.0.bias f4 [32]
0	0x3f819228	1.0122728
1	0x3fa5710d	1.2925125
2	0xbe113a2b	-0.14182346
3	0x3f1b88bd	0.6075552
4	0x3f2f1f30	0.68406963
5	0x3f25b6fa	0.64732325
6	0xbea92f7b	-0.33044037
7	0x3e32696b	0.17423026
8	0x3fc0386d	1.501722
9	0x3fa87b7a	1.3162682
10	0x3f3ac1d5	0.72952014
11	0x3d4873fa	0.04893873
12	0x3f221b0a	0.6332251
13	0x3eaf7f82	0.34276968
14	0x3e99bb12	0.30025536
15	0x3f327842	0.6971475
16	0x3fbd67d8	1.4797316
17	0x3e0f7a44	0.14011484
18	0x3f035789	0.51305443
19	0xbe1f96f4	-0.15584928
20	0xbe239572	-0.15974978
21	0x3f5e9b42	0.86955655
22	0xbf13dc11	-0.5775767
23	0xbe1dbefb	-0.15404885
24	0x3f879f3e	1.0595472
25	0xbeb0eecc	-0.34557188
26	0x3f588959	0.84584576
27	0x3c92c92b	0.01791819
28	0x3ed65050	0.4185815
29	0x3f706687	0.93906444
30	0x3e10e415	0.14149506
31	0xbe2ba62d	-0.1676261

linear_list.1.weight f4 [32, 32]
0	0xbe87bfed	-0.26513615
1	0x3f1707f5	0.58996516
2	0x3d7768aa	0.06040255
3	0x3edcb9af	0.43110415
4	0xbd169024	-0.036758557
5	0xbdfb4d65	-0.12270621
6	0xbf3702cf	-0.7148866
7	0x3e0700cf	0.13183902
8	0xbe381232	-0.17975691
9	0xbcb573de	-0.022149976
10	0x3d68fec5	0.056883592
11	0xbd60b4ec	-0.05486004
12	0xbd2252ae	-0.03962963
13	0xbddd6bb9	-0.10811562
14	0x3d97232f	0.073797576
15	0xbe104472	-0.1408861
16	0x3e15ddb2	0.14635351
17	0x3d4a8b6a	0.04944936
18	0x3cbba57b	0.022906056
19	0xbf4b840d	-0.7949837
20	0xbf441431	-0.7659331
21	0x3d662d7d	0.056195725
22	0xbe0537e8	-0.13009608
23	0xbf52e23f	-0.82376474
24	0xbde18f05	-0.11013607
25	0xbe07fe7e	-0.13280675
26	0xbe0d4eaa	-0.13799539
27	0x3cc34a9c	0.023839287
28	0x3e8d9c33	0.27658233
29	0xbdfb987f	-0.12284946
30	0x3b070275	0.002060083
31	0xbd43687a	-0.04770706
32	0xbdc76a6e	-0.09737097
33	0xbe4356bc	-0.19076055
34	0xbeda2b49	-0.4261115
35	0xbca355da	-0.019938398
36	0xbcf2adc4	-0.029623874
37	0xbe4e710a	-0.20160308
38	0xb91fac0a	-0.00015227511
39	0xbe57cdac	-0.21074551
40	0xbde4a6a3	-0.11164596
41	0xbda6d218	-0.08145541
42	0x3cbcb5ee	0.02303597
43	0xbe0e131d	-0.13874479
44	0xbddee05e	-0.108826384
45	0x3be28486	0.0069127707
46	0xbd209a30	-0.039209545
47	0xbe1a21ab	-0.15051906
48	0xbe8dd3e8	-0.27700734
49	0x3dc69819	0.09696979
50	0xbe8a1818	-0.26971507
51	0x3e8c5bee	0.27413887
52	0xbe3cb919	-0.18429984
53	0xbe941d95	-0.2892882
54	0x3e5fad93	0.21843557
55	0x3e51d477	0.20491205
56	0xbcc09d80	-0.023512602
57	0x3ed788f9	0.4209669
58	0xbdfc9a38	-0.123341024
59	0xbd871ee9	-0.065976925
60	0x3c1b54e5	0.00948069
61	0xbda2d050	-0.07949889
62	0xbdbb0000	-0.091308594
63	0x3e621d66	0.22081527
64	0xbe469da1	-0.19396068
65	0x3cb8ae57	0.02254407
66	0x3d45c0cf	0.04827958
67	0xbe11f892	-0.14254978
68	0x3e1265af	0.14296602
69	0x3d472338	0.04861757
70	0x3ee297fc	0.4425658
71	0xbe0b2427	-0.1358801
72	0xbeefc514	-0.46830046
73	0xbed3080a	-0.4121707
74	0xbe052712	-0.13003185
75	0x3c93f8d6	0.01806299
76	0xbe2c8fba	-0.16851702
77	0xbdcfed93	-0.101527356
78	0xbd4520c6	-0.04812696
79	0x3d80396e	0.06260954
80	0xbd0430a2	-0.032272942
81	0x3d87e4bf	0.06635427
82	0xbea47924	-0.32123673
83	0xbe812ee8	-0.252311
84	0x3e7df979	0.24802198
85	0xbeb3d9f3	-0.3512722
86	0x3e5c6f67	0.21526872
87	0x3dc7ecb8	0.097619474
88	0xbd18ebdd	-0.03733431
89	0x3e21fafc	0.15818399
90	0xbedbbf55	-0.42919412
91	0xbe0728d8	-0.13199174
92	0x3e2d6fa6	0.16937122
93	0xbe0123b8	-0.12611282
94	0x3d901743	0.07035687
95	0xbc9f46d3	-0.019442951
96	0x3e7a7a26	0.24460658
97	0xbd982d8f	-0.074305646
98	0x3e2b752f	0.1674392
99	0xbca36151	-0.019943865
100	0x3e417bf1	0.18894936
101	0xbe58627a	-0.21131316
102	0x3e20be17	0.15697514
103	0x3e858de5	0.2608482
104	0xbe09d1b3	-0.134589
105	0x3e8bb07e	0.2728309
106	0xbe936ac8	-0.28792405
107	0xbd0a34b1	-0.033741657
108	0xb958040b	-0.00020600871
109	0xbdfc108b	-0.12307843
110	0x3c169cf4	0.009192694
111	0x3e3eecc6	0.1864501
112	0x3ec3e12d	0.38257733
113	0x3c6f40d2	0.014602857
114	0xbe317aca	-0.17331997
115	0x3ddb743f	0.107155316
116	0x3d16395f	0.036675807
117	0xbe088a7d	-0.13334079
118	0xbe3e2938	-0.18570411
119	0xbda89ba8	-0.08232814
120	0x3cfd3b2e	0.030912008
121	0xbdea432f	-0.114385955
122	0x3e1b677c	0.15176195
123	0xbcda988c	-0.026684068
124	0x3e5e22ae	0.21692917
125	0xbcd6b383	-0.026208645
126	0x3e2598e6	0.16171607
127	0xbec29427	-0.38003656
128	0xbe8fd401	-0.28091434
129	0xbe95ed4b	-0.29282603
130	0xbcc50096	-0.024048131
131	0xbe535159	-0.206365
132	0x3e2ebed6	0.17064986
133	0x3d7db776	0.06194254
134	0xbeeea168	-0.46607518
135	0x3d0c34d2	0.03423006
136	0x3e5ce32b	0.21571033
137	0x3e9df642	0.30851942
138	0x3c918739	0.017764674
139	0xbd005e2a	-0.0313398
140	0x3e47b788	0.19503605
141	0x3db30822	0.087417856
142	0xbdf8f160	-0.12155414
143	0x3d7faa45	0.06241824
144	0xbe489bcf	-0.19590686
145	0x3e04a86f	0.12954877
146	0x3c3a252d	0.011361402
147	0x3e282be3	0.16422991
148	0xbe6dc132	-0.2321823
149	0xbe27cf9d	-0.16387792
150	0x3d775caf	0.060391124
151	0x3dc733e1	0.09726692
152	0x3dec0039	0.1152348
153	0x3e29bbbe	0.16575524
154	0x3e30f797	0.17281948
155	0x3dee06cc	0.1162239
156	0x3c714633	0.014726209
157	0xbdf19c6a	-0.11797412
158	0x3ca3403b	0.019928088
159	0x3e2d7fa4	0.16943222
160	0xbe81d41a	-0.25357133
161	0xbca85eea	-0.020553071
162	0xbd807fde	-0.06274389
163	0xbdd7cbd8	-0.10536927
164	0xbdc181d5	-0.094485916
165	0x39521e66	0.00020038485
166	0xbe6f1a09	-0.23349775
167	0xbe0618bc	-0.13095373
168	0x3e9c632d	0.30544415
169	0x3e9c8c63	0.30575857
170	0xbda773a4	-0.081763536
171	0x3dcc55ec	0.09977326
172	0xbdcd3dc7	-0.10021549
173	0x3de5d91a	0.112230495
174	0x3db2c2ef	0.08728587
175	0xbdc3cdb9	-0.09560723
176	0xbe77b6f9	-0.24190892
177	0xbc2e6b7c	-0.010645743
178	0xbb43ed6c	-0.0029896153
179	0x3dd8ec51	0.10591949
180	0xbe2ebe0d	-0.17064686
181	0x3d7b7b60	0.061396956
182	0x3d0a5d7d	0.033780564
183	0x3e37d736	0.1795319
184	0x3e835c47	0.2565634
185	0x3e361b87	0.17783938
186	0xbd30bf49	-0.043151174
187	0x3e4d46e3	0.20046572
188	0xbe46c2d4	-0.19410259
189	0x3ee1e72c	0.44121683
190	0xbdb044dd	-0.08606885
191	0xbda14d6e	-0.07876097
192	0xbe79cd66	-0.2439476
193	0x3e3c68e2	0.18399385
194	0xbd6794ce	-0.056538396
195	0x3e3089c4	0.17240053
196	0x3d5d1ec6	0.053984426
197	0x3d2d20dd	0.04226767
198	0x3e743223	0.2384725
199	0x3dd83cd6	0.105584785
200	0xbe262d77	-0.16228281
201	0x3dc45ae3	0.09587648
202	0xbe32aefd	-0.17449565
203	0x3d49eb9a	0.049296953
204	0xbdc52e55	-0.09627978
205	0xbca3c737	-0.019992454
206	0x3cb476e2	0.022029344
207	0x3d100ca9	0.035168324
208	0xbd9632b9	-0.07333893
209	0x3e32ab6b	0.17448203
210	0xbe96108f	-0.29309508
211	0xbbe6953f	-0.0070368345
212	0x3e99c678	0.30034232
213	0xbe952756	-0.29131573
214	0xbd5d9baa	-0.05410353
215	0x3e7f79a4	0.24948746
216	0x3e19bf2f	0.15014337
217	0x3e8be46f	0.27322719
218	0xbc57b405	-0.013165479
219	0x3b78ff89	0.0037994108
220	0xbeabaf76	-0.33532304
221	0xbecc1f49	-0.3986762
222	0x3d86b3bb	0.065772496
223	0xbd9ecc6f	-0.07753836
224	0xbe2005c8	-0.15627205
225	0x3cdf4372	0.02725384
226	0x3e14acd6	0.14519057
227	0x3d33bfbb	0.04388402
228	0xbe5634c3	-0.20918564
229	0x3ece8f60	0.4034376
230	0xbe4e83b5	-0.2016743
231	0xbcf88e48	-0.030341282
232	0x3e3242bd	0.17408271
233	0x3e4a34a3	0.19746642
234	0xbe2c1956	-0.1680654
235	0x3b61c2ee	0.0034448463
236	0x3e085b38	0.13316047
237	0x3e10c286	0.14136705
238	0xbb8daef9	-0.004323837
239	0x3eb79bc7	0.35861036
240	0x3e30eb98	0.17277372
241	0xbdf53b04	-0.11974147
242	0x3e891cca	0.26779777
243	0xbd234179	-0.03985736
244	0x3dca9be0	0.09893012
245	0x3e3d2cc8	0.18474114
246	0x3dbebad3	0.09312978
247	0x3c8ca5de	0.017168935
248	0xbd658938	-0.056039065
249	0xbdf658f4	-0.12028685
250	0xbd8a84f0	-0.06763637
251	0x3ddb5173	0.107088946
252	0xbe0a8f34	-0.1353119
253	0x3da90255	0.08252398
254	0xbe138868	-0.14407504
255	0xbea4493b	-0.3208712

linear_list.1.bias f4 [32]
0	0x3e7d6642	0.2474604
1	0xbe9e8a1e	-0.3096475
2	0xbe9bcd42	-0.30430037
3	0x3e0265d8	0.12734163
4	0x3e873355	0.2640635
5	0x3e87d790	0.2653165
6	0xbea6b6fd	-0.32561484
7	0x3e8e6a01	0.2781525
8	0x3e183d49	0.14867128
9	0xbe22717c	-0.15863603
10	0x3e7f630a	0.24940124
11	0xbe1b9b90	-0.15196061
12	0x3d2bc831	0.041938964
13	0x3e6fa7b9	0.23403825
14	0xbe201667	-0.15633546
15	0xbd6679fc	-0.056268677
16	0xbd839de0	-0.06426597
17	0x3e95a78d	0.29229394
18	0xbdfffc53	-0.12499299
19	0x3f003c37	0.5009188
20	0x3e97bb47	0.2963507
21	0xbf10be70	-0.56540585
22	0x3dcb1e66	0.099179074
23	0x3dae5715	0.08512703
24	0x3dbd8398	0.09253615
25	0xbe523b5d	-0.20530458
26	0x3dd8b3ca	0.10581167
27	0x3e741bdd	0.23838754
28	0x3f4119d6	0.7543005
29	0x3f138ea8	0.5763955
30	0xbea3ab4e	-0.31966633
31	0xbfbc5ce0	-1.4715843

linear_list.2.weight f4 [14, 32]
0	0xba00046e	-0.00048834726
1	0x3a8c0b5a	0.0010684535
2	0xbad36912	-0.0016129336
3	0x3af00cee	0.00183144
4	0x3b8b010a	0.004242067
5	0x3b0ddbc0	0.0021645874
6	0xb99070bd	-0.00027549817
7	0xbb7ce734	-0.0038589956
8	0xbb35c886	-0.002773793
9	0xba3882fa	-0.000703856
10	0xba313f1a	-0.0006761417
11	0x3e20c2e4	0.15699345
12	0xbe0f3ef9	-0.13988866
13	0x3c3403c8	0.01098723
14	0xba960b86	-0.0011447526
15	0xba8a474c	-0.0010549813
16	0xba80e80f	-0.0009834784
17	0x3a90bf79	0.0011043391
18	0xb9c572a2	-0.00037660176
19	0x3a9e020c	0.0012055053
20	0xbac2fff5	-0.0014877307
21	0x39cab5c4	0.00038663868
22	0xbb39193a	-0.0028243796
23	0xba06df92	-0.0005145009
24	0xb81fc0c5	-3.8088085e-05
25	0xbe265128	-0.16241896
26	0xb947cbde	-0.00019054065
27	0x39a27840	0.0003098864
28	0xb955e341	-0.00020397922
29	0x39abbdb1	0.00032756993
30	0x3b233f3d	0.002490952
31	0xba1521d6	-0.0005688941
32	0x3cb00435	0.021486381
33	0x3dd1ef6a	0.10250743
34	0xbf1a7834	-0.60339665
35	0x3e224628	0.15847075
36	0x3e5abaf7	0.21360384
37	0x3c8a8433	0.01690874
38	0xbe083111	-0.13299967
39	0xbe9ee5f3	-0.31034812
40	0x3d806162	0.06268574
41	0xbbe564f6	-0.007000561
42	0xbe0268a2	-0.12735227
43	0xbc9bab55	-0.019002596
44	0x3ec81d0f	0.3908467
45	0x3f260abf	0.6486015
46	0x3d2aa90a	0.041665114
47	0xbec0ec77	-0.37680408
48	0x3dc56e64	0.09640196
49	0x3e74e9b6	0.23917279
50	0xbc9f1d9a	-0.019423295
51	0x3e965ba9	0.29366806
52	0xbeb1c975	-0.34724012
53	0x3dc7fc13	0.09764876
54	0xbe70cf23	-0.23516516
55	0xbdafab01	-0.08577538
56	0x3dee099f	0.11622929
57	0xbbf7e085	-0.0075646066
58	0xbe36d40b	-0.17854325
59	0x3e389e74	0.18029195
60	0xbdb85526	-0.09000616
61	0xbc8803e0	-0.01660341
62	0x3dbcf55f	0.09226488
63	0x3e362dca	0.17790905
64	0x3e890212	0.26759392
65	0xbd443bc3	-0.047908556
66	0x3ef5a31f	0.47976014
67	0xbe5e8820	-0.21731615
68	0xbe88faae	-0.26753753
69	0x3d131d5c	0.03591667
70	0x3e91e30f	0.28493544
71	0x3c3e8725	0.011628901
72	0x3e495881	0.19662668
73	0x3e873a80	0.2641182
74	0xbf045b69	-0.5170198
75	0x3dad8ddc	0.08474323
76	0xbe759857	-0.23983894
77	0xbd2e57d4	-0.04256423
78	0x3eb0e40d	0.3454899
79	0x3df175f9	0.117900796
80	0x3ea7a329	0.3274167
81	0xbdb51d4e	-0.0884348
82	0x3d3780f3	0.04480071
83	0xbe5ef5bf	-0.21773432
84	0x3b847e58	0.0040433817
85	0xbeeb2c45	-0.45932212
86	0xbc9a332d	-0.01882323
87	0xbe853020	-0.2601328
88	0x3e36ac4e	0.17839167
89	0xbd5f5f73	-0.054534387
90	0x3ceeaa9b	0.029134085
91	0xbd885f3e	-0.06658791
92	0xbdd75ed0	-0.10516131
93	0x3e4c8220	0.19971514
94	0xbe9d3ef8	-0.30712104
95	0xc000d801	-2.0131838
96	0x3fabbeda	1.3417618
97	0x3e95d40e	0.29263347
98	0xbce985a6	-0.028506111
99	0x3e64fd48	0.22362244
100	0xbe3ce20b	-0.18445604
101	0xbeccc9b6	-0.39997643
102	0xbf4238ec	-0.75868106
103	0xbdff0b30	-0.12453306
104	0x3e2665b8	0.1624974
105	0xbf85da2e	-1.0457208
106	0xbf2ffd5f	-0.6874599
107	0x3d975a83	0.073903106
108	0xbc162462	-0.009163948
109	0xbe1312e8	-0.14362681
110	0x3f6cdf4f	0.9252824
111	0x3e66cc86	0.22538957
112	0xbe9903db	-0.29885754
113	0xbe552ad9	-0.20817126
114	0xbec5d01a	-0.3863533
115	0x3e6747e5	0.2258602
116	0xbe5bc651	-0.2146237
117	0x3c9e602c	0.019332968
118	0x3db5d676	0.08878796
119	0xbf025d5e	-0.5092372
120	0xbfae89f2	-1.3635848
121	0x3e2c8874	0.16848928
122	0x3edf35fb	0.4359587
123	0x3e97ccc3	0.29648408
124	0x3f9fbf09	1.2480174
125	0xbcda9980	-0.026684523
126	0xbecbb343	-0.39785203
127	0x3cc2558c	0.023722433
128	0xbe09c3df	-0.13453625
129	0x3dd658d8	0.10466164
130	0xbec1c9d4	-0.37849295
131	0xbf2ab451	-0.6668139
132	0xbd507dee	-0.050901346
133	0xbdc3f7d7	-0.09568756
134	0xbee29259	-0.4425228
135	0x3d8960d2	0.0670792
136	0x3d796088	0.060883075
137	0xbd9e4559	-0.07728071
138	0xbe01d059	-0.12677135
139	0x3d699505	0.05702688
140	0x3e9817e0	0.29705715
141	0x3e1cd952	0.15317276
142	0x3ec1051d	0.37699214
143	0x3ed19779	0.40935877
144	0xbec000f7	-0.37500736
145	0x3dc1ff75	0.09472553
146	0x3e0180ee	0.12646839
147	0xbe537115	-0.20648606
148	0xbe8f4368	-0.27981114
149	0x3e1d7f45	0.1538058
150	0x3e99de3d	0.30052367
151	0xbde50c37	-0.111839704
152	0x3a2596c8	0.00063167186
153	0x3d877c0f	0.06615459
154	0xbe6f5178	-0.23370922
155	0x3e1ee43b	0.1551675
156	0xbd877bd9	-0.06615419
157	0xbca6ca94	-0.020360269
158	0x3eff99bf	0.49921986
159	0x3da11ce7	0.07866841
160	0xbcf99d69	-0.030470567
161	0x3c15031d	0.009094981
162	0x3e0eb09d	0.1393456
163	0x3dbbb8a2	0.09166075
164	0xbe944c34	-0.28964388
165	0xbe3d3d13	-0.18480329
166	0x3e157ec4	0.14599138
167	0xbd02a84b	-0.031898778
168	0xbe5f1c2b	-0.21788089
169	0x3c0ab886	0.008466845
170	0xbcb6a59c	-0.022295766
171	0xbd29b571	-0.0414328
172	0xbdc675c7	-0.09690433
173	0xbe22043e	-0.15821931
174	0x3e2a8fd0	0.16656423
175	0x3dc31040	0.09524584
176	0x3dd551bf	0.104159825
177	0x3cb4ed6d	0.02208587
178	0xbd9a32ea	-0.07529242
179	0xbcc564a0	-0.024095833
180	0x3df09f7e	0.11749171
181	0xbbaeb727	-0.005331892
182	0xbea99ba2	-0.3312655
183	0xbe04bd0e	-0.12962744
184	0x3d8afc3a	0.0678639
185	0xbd87ab26	-0.06624441
186	0xbe899aef	-0.26876017
187	0x3e05a912	0.13052776
188	0xbc6d915f	-0.014499991
189	0x3d6d88ee	0.057991914
190	0xbe059e1f	-0.130486
191	0xbf093b88	-0.5360646
192	0xbdb6a305	-0.08917812
193	0x3e3a456a	0.18190542
194	0xbe9b3cac	-0.30319726
195	0x3e55c8e9	0.20877422
196	0xbe9bf43c	-0.30459774
197	0xbe55c85c	-0.20877212
198	0xbe103258	-0.14081705
199	0x3f209d08	0.6273961
200	0x3cc48d7e	0.02399325
201	0x3e07e8e0	0.13272429
202	0x3d85263c	0.06501433
203	0xbe230db8	-0.15923202
204	0x3db847d9	0.08998079
205	0x3e5dbaf4	0.21653348
206	0xbe90cee0	-0.28282833
207	0x3d11453a	0.03546641
208	0xbe73c277	-0.23804651
209	0x3ec66594	0.38749373
210	0xbc6b2eff	-0.014354466
211	0xbe3af30e	-0.1825678
212	0xbe15cb7a	-0.14628401
213	0xbc12dcf1	-0.008963809
214	0xbc62d5ac	-0.013844889
215	0x3e3cab6e	0.1842477
216	0x3d4e500e	0.050369315
217	0xbe14d611	-0.14534785
218	0xbd266b87	-0.04062989
219	0xbd0b43c5	-0.034000177
220	0x3cd0b170	0.025475234
221	0xbdf34062	-0.118775144
222	0x3e9e8347	0.30959532
223	0x3edb7be4	0.4286796
224	0x3f107e33	0.56442565
225	0x3de32c6f	0.110924594
226	0x3d1a7fb5	0.037719447
227	0xbe8d61e7	-0.27613756
228	0x3eb3523b	0.35023674
229	0x3cc0228e	0.023453977
230	0x3ee1ef10	0.44127703
231	0x3e1c714c	0.15277594
232	0xbe252ddb	-0.16130774
233	0xbe68c950	-0.22733045
234	0xbe0ca4c2	-0.13734725
235	0xbdacf8a1	-0.0844586
236	0xbd477438	-0.04869482
237	0xbe12c6a4	-0.14333588
238	0xbe92280a	-0.28546172
239	0xbdf444a0	-0.11927152
240	0x3e16cc81	0.1472645
241	0x3e9c864a	0.30571204
242	0xbf2e2369	-0.6802278
243	0xbe7699b4	-0.2408207
244	0xbf22aeef	-0.6354818
245	0x3e41da71	0.18930985
246	0x3e36f437	0.17866598
247	0x3c93fd5a	0.018065143
248	0x3f117e37	0.56833214
249	0x3e2ac27a	0.1667575
250	0x3df09c23	0.11748531
251	0x3cf41095	0.029793063
252	0x3dbb7695	0.09153477
253	0x409086be	4.516448
254	0xbde3f359	-0.11130399
255	0xbd10604f	-0.035248097

linear_list.2.bias f4 [14]
0	0x3e8770e2	0.2645331
1	0x3e9292e3	0.2862769
2	0x3ceec882	0.029148344
3	0xbe1b8267	-0.15186463
4	0xbe63b519	-0.22237052
5	0xbdbeefba	-0.09323068
6	0x3ecd3566	0.40079802
7	0x3c9d08b7	0.019169195
8	0x3e4fcb22	0.20292333
9	0x3e57f22d	0.21088476
10	0xbf1dad8a	-0.61592925
11	0x3ef8dcdc	0.48606002
12	0x3f36afae	0.71361816
13	0xbe3fe744	-0.18740565
