prep/g0504-233203_gcas_gcas_outT/models/model499000.onnx (onnx, 8665 bytes, 6 tensors)

linear_list.0.weight f4 [32, 14]
0.020304061 -0.0013513621 -0.29785746 0.034488607 -0.047966648 -0.01740159 -0.0039359014 -0.004037241
-0.052778605 -0.0002220313 0.001700729 0.0033021884 -0.014338873 -2.2156167 -0.033346564 0.014293643
0.57401735 0.12233056 0.038088772 0.024198266 0.0044293534 -0.00080678257 0.024603507 0.004175917
0.0029906235 0.006136068 0.00029772284 -1.3056865 -0.06161897 0.012807713 0.50816697 0.003064475
0.26999372 0.27876592 0.0019974562 0.0054780273 -0.04655034 0.0024132084 -0.001040868 0.012755284
0.010548564 0.5025505 0.057331573 0.024370698 0.10743019 0.081929035 -0.22931547 0.019712213
-0.0029376352 -0.004103401 0.077147745 -0.0072762608 -0.0003931098 0.015468714 -0.0065395236 -0.92900306
0.201773 -0.016295249 0.16238813 -0.1820472 0.19425848 -0.0990893 -0.0056176637 -0.00673856
-0.011868598 0.00085496047 0.0014804249 0.010762173 -0.006833676 0.8160134 -0.28833103 -0.057475932
-0.0076881316 0.0661716 0.1857267 -0.015593145 0.0010784186 0.0020331915 0.15001243 -0.004419591
-0.0037955376 0.031046463 -0.0061972598 0.41976354 0.0065444275 -0.0006259439 -0.033821292 0.023190664
-0.0016040492 0.0039935657 0.0005909113 0.00022568369 0.00029759333 -0.000618928 -0.0006569002 -0.002289011
0.00086361065 3.2638643 0.03238944 0.0043656323 0.13394226 -0.5250608 -0.16412608 0.013158641
0.008727403 0.011563769 -0.03990417 -0.017175525 -0.02503871 0.0008025368 0.0032739157 -0.5314938
0.18280478 -0.012663774 -0.273221 0.22521205 -0.35669312 0.044647995 0.0029048303 0.0071020233
0.13472001 -0.0002533014 -0.004860913 0.054976672 0.015351405 0.4864804 -0.104819156 0.016359668
0.310764 -0.18366376 -0.5972134 0.068397686 -0.0032043916 -0.002424316 0.01782912 0.0024334544
-0.004806866 -0.046226792 0.028605372 0.3840873 -0.09867154 -0.053112205 0.021781832 0.05544096
-0.10097213 -0.19280858 0.0050747315 0.0021745306 -0.275394 0.005007197 -0.007644549 0.045034986
0.01809682 0.56335837 0.1041302 0.03176882 -0.33628052 0.15160681 0.027193647 -0.027819742
-0.022194369 -0.004148694 0.1404596 0.022331616 0.01592684 -0.0699502 -0.12924123 -0.40760967
0.018976327 0.050988425 -0.19478889 0.15508139 0.045094024 0.08552 -0.0049020485 -0.0027617558
-0.09541321 0.0077460012 0.0013464364 0.014432731 0.09862949 0.04284485 -0.1104175 0.09125981
0.12619685 -0.012746634 -0.24216385 -0.021597086 -0.019837061 -0.006955963 0.12312484 0.0030435096
0.015997043 0.052871387 -0.025948402 0.47194615 -0.0027457648 0.0060449606 0.020854415 1.4406341
-0.019335333 0.007261545 0.00064439 -0.006390652 -0.014399137 0.00367779 -0.0004876984 0.0054096
0.005473132 -0.7460019 -0.08522791 0.022679681 0.0046090093 0.21067153 0.08975019 0.063707374
0.002033768 -0.0046194904 -0.08893497 0.0025600104 0.0059225284 0.017728115 -0.01575242 1.1983873
-0.023359425 0.00043118285 0.12900421 -0.046440616 0.0068168817 0.017081926 -0.00090279395 -0.001087759
-0.01868586 0.0025887066 0.0033364994 0.0013031178 -0.017804319 -1.2732846 -0.006509533 0.009356653
0.02335292 0.76148975 0.012336388 -0.009924955 -0.0020093536 -0.01015938 0.021083757 0.008411158
0.008857182 0.022246718 -0.020220537 0.032991562 -0.011907512 -0.0024543821 0.0238169 -1.0131453
00000000: b454 a63c 3020 b1ba c680 98be ed43 0d3d
00000010: ad78 44bd c78d 8ebc bcf8 80bb d54a 84bb
00000020: 612e 58bd 13d1 68b9 ffea de3a 8769 583b
00000030: 98ed 6abc aacc 0dc0 6896 08bd e22f 6a3c
00000040: cdf2 123f 7288 fa3d f902 1c3d 713b c63c
00000050: 1c24 913b 437e 53ba 4b8d c93c 21d6 883b
00000060: 56fe 433b 1211 c93b af17 9c39 bc20 a7bf
00000070: 2c64 7cbd 71d7 513c 3b17 023f 5cd5 483b
00000080: 9e3c 8a3e 68ba 8e3e c1e7 023b 0681 b33b
00000090: 92ab 3ebd eb26 1e3b bc6d 88ba 8afb 503c
000000a0: e2d3 2c3c 26a7 003f 83d4 6a3d 0fa5 c73c
000000b0: 5c04 dc3d 69ca a73d add1 6abe 827b a13c
000000c0: 5785 40bb d375 86bb a3ff 9d3d b36d eebb
000000d0: 4e1a ceb9 7d70 7d3c 8049 d6bb 25d3 6dbf
000000e0: 959d 4e3e 9d7d 85bc 1349 263e 956a 3abe
000000f0: b2eb 463e 55ef cabd 6114 b8bb 23cf dcbb
00000100: 8274 42bc 6d1f 603a d10a c23a d353 303c
00000110: 07ed dfbb 41e6 503f 20a0 93be e26b 6bbd
00000120: b9ec fbbb fa84 873d 242f 3e3e 647a 7fbc
00000130: b959 8d3a 4b3f 053b dc9c 193e 37d2 90bb
00000140: 8ebe 78bb 2755 fe3c 6212 cbbb 3feb d63e
00000150: a372 d63b 6216 24ba 3288 0abd 59fa bd3c
00000160: f63e d2ba 75dc 823b 63e7 1a3a 81a5 6c39
00000170: 4d06 9c39 8e3f 22ba d433 2cba 3b03 16bb
00000180: ee63 623a 27e3 5040 caaa 043d 940d 8f3b
00000190: 2928 093e 626a 06bf ab10 28be 5797 573c
000001a0: 62fd 0e3c f675 3d3c 8e72 23bd b0b3 8cbc
000001b0: fb1d cdbc 5561 523a 318f 563b fa0f 08bf
000001c0: 2d31 3b3e b87b 4fbc 9fe3 8bbe fd9d 663e
000001d0: 7ba0 b6be d1e0 363d f75e 3e3b 17b8 e83b
000001e0: 0bf4 093e 8acd 84b9 4b48 9fbb 382f 613d
000001f0: 7684 7b3c f613 f93e 6dab d6bd b604 863c
00000200: 761c 9f3e 5a12 3cbe fae2 18bf 1614 8c3d
00000210: c500 52bb 46e1 1ebb 600e 923c 977a 1f3b
00000220: ea82 9dbb 4e58 3dbd d055 ea3c 17a7 c43e
00000230: 4e14 cabd 2f8c 59bd d06f b23c 0f16 633d
00000240: 7aca cebd 9d6f 45be ef49 a63b 9282 0e3b
00000250: 7100 8dbe 6a13 a43b 207f fabb 9b76 383d
00000260: c83f 943c 4138 103f 3742 d53d 0620 023d
00000270: f62c acbe d13e 1b3e 36c5 de3c 3ae6 e3bc
00000280: f7d0 b5bc c5f1 87bb a4d4 0f3e cbf0 b63c
00000290: 0179 823c 0d42 8fbd d057 04be 37b2 d0be
000002a0: 3e74 9b3c 3dd9 503d bd76 47be a8cd 1e3e
000002b0: 83b4 383d 1c25 af3d 5da1 a0bb 93fe 34bb
000002c0: 0068 c3bd 2bd2 fd3b e97a b03a 4377 6c3c
000002d0: 42fe c93d 157e 2f3d 9222 e2bd 6ce6 ba3d
000002e0: bf39 013e 42d7 50bc cdf9 77be 5fec b0bc
000002f0: 5581 a2bc d9ee e3bb e028 fc3d 9e75 473b
00000300: 3b0c 833c ab8f 583d be91 d4bc eda2 f13e
00000310: 4af2 33bb ce14 c63b e1d6 aa3c b366 b83f
00000320: 2265 9ebc 41f2 ed3b 48ec 283a ad68 d1bb
00000330: 5cea 6bbc 1407 713b c5b1 ffb9 0443 b13b
00000340: f557 b33b fbf9 3ebf f88b aebd bdca b93c
00000350: 2c07 973b 47ba 573e f3ce b73d 0379 823d
00000360: f748 053b 185f 97bb 8a23 b6bd d9c5 273b
00000370: c511 c23b 8d3a 913c 380b 81bc c164 993f
00000380: 445c bfbc 6210 e239 ae19 043e 8438 3ebd
00000390: 2660 df3b 65ef 8b3c 7aa9 6cba 2393 8eba
000003a0: 1713 99bc 4aa7 293b 2ca9 5a3b 61cd aa3a
000003b0: 5dda 91bc fdfa a2bf ec4d d5bb a64c 193c
000003c0: 9f4e bf3c fef0 423f 901e 4a3c 479c 22bc
000003d0: 5caf 03bb 8773 26bc d8b7 ac3c f4ce 093c
000003e0: b71d 113c c03e b63c 8aa5 a5bc 2922 073d
000003f0: ba17 43bc b3d9 20bb a91b c33c bfae 81bf

linear_list.0.bias f4 [32]
1.0282606 1.3048373 -0.13975815 0.66844577 0.6800403 0.67168385 -0.34707907 0.16016664
1.486888 1.3236699 0.6616954 0.059633616 0.6313923 0.39874285 0.27178213 0.6451383
1.52158 0.20584583 0.5014864 -0.14855371 -0.17810096 0.81314677 -0.5754327 -0.15503061
1.0507276 -0.36021245 0.9025497 0.025250599 0.4100199 0.99731386 0.15013309 -0.19087674
00000000: 0b9e 833f e904 a73f c31c 0fbe 431f 2b3f
00000010: 1f17 2e3f 79f3 2b3f 59b4 b1be b902 243e
00000020: 5952 be3f 046e a93f df64 293f 6142 743d
00000030: eda2 213f 0628 cc3e 0727 8b3e c927 253f
00000040: 22c3 c23f 40c9 523e 6a61 003f 771e 18be
00000050: 1960 36be 632a 503f 8f4f 13bf 58c0 1ebe
00000060: 3e7e 863f c46d b8be 7f0d 673f 58da ce3c
00000070: 21ee d13e f64f 7f3f 7dbc 193e 3175 43be

linear_list.1.weight f4 [32, 32]
-0.23356558 0.6613599 0.0752538 0.44961157 -0.0019918524 -0.10424898 -0.7237975 0.14387558
-0.1689976 0.0013105852 0.08589094 -0.047340125 -0.029158548 -0.10653066 0.08999117 -0.123449236
0.2049932 0.057706863 0.04993138 -0.8107293 -0.77416044 0.073824584 -0.13009608 -0.83975494
-0.0741654 -0.13496178 -0.121012874 0.03171383 0.30550164 -0.10088827 0.011168839 -0.042232033
-0.09737097 -0.19076055 -0.4303543 -0.019938398 0.0108219655 -0.17805287 -0.04011589 -0.21074551
-0.08154522 -0.03622499 0.05538451 -0.13663419 -0.098994754 0.015700059 -0.03357921 -0.14045751
-0.27700734 0.13692091 -0.26436925 0.25256792 -0.2093377 -0.27662805 0.18692788 0.18523021
0.009431944 0.39341044 -0.09182947 -0.061140396 0.00948069 -0.07795318 -0.091308594 0.20126298
-0.19396068 0.02377553 0.035913277 -0.14254978 0.14913864 0.06627277 0.3865504 -0.1358801
-0.4198864 -0.33706075 -0.096017554 0.018489147 -0.14471045 -0.08444639 -0.038924262 0.07414684
-0.032272942 0.16005239 -0.28342938 -0.28482848 0.21162158 -0.3105491 0.18388437 0.06721065
-0.0070695425 0.12726149 -0.40281558 -0.12293712 0.16937122 -0.12611282 0.07035687 -0.02409175
0.24260649 -0.097110644 0.1469356 -0.033254042 0.19551405 -0.18171476 0.0691489 0.24301669
-0.046691686 0.37636793 -0.24024783 -0.019230941 0.048382167 -0.1018593 -0.0029436492 0.20484114
0.35861692 0.104035445 -0.1569619 0.057880946 -0.015794583 -0.0732733 -0.24678509 -0.13111486
0.11097094 -0.17026752 0.17420699 0.009983991 0.21136196 -0.015562051 0.15931307 -0.37913132
-0.28170076 -0.25830814 -0.030325396 -0.20068516 0.15467241 0.10039889 -0.49577832 0.026399108
0.22183378 0.35413632 0.042838722 -0.029866396 0.19874579 0.10704372 -0.078442544 0.0855844
-0.17159437 0.1418544 0.029916078 0.14691012 -0.2537343 -0.12722495 0.073014244 0.08267296
0.16931766 0.15802172 0.15792872 0.12322673 0.014000695 -0.10972511 0.011697722 0.15873171
-0.23803858 -0.020329334 -0.065620966 -0.08290507 -0.089843564 -0.01457651 -0.24577732 -0.13856539
0.30287072 0.28770614 -0.08466486 0.10558972 -0.11097835 0.108203456 0.07356108 -0.11397346
-0.23894344 0.05232291 -0.035628825 0.10531217 -0.17661184 0.047705613 0.036562335 0.17907012
0.22638442 0.17537422 -0.034020238 0.2163915 -0.2020899 0.48312718 -0.07464396 -0.0803082
-0.24726105 0.15024307 -0.09530385 0.1739083 0.0996517 0.09784005 -0.0021798518 0.11186724
-0.060469247 0.12890314 -0.07136659 0.08205937 -0.00725698 -0.0785646 -0.023355823 0.0646339
-0.045185454 0.32032254 -0.26501483 -0.1599232 0.14175205 -0.2006201 -0.21643798 0.10734424
0.30981353 0.13343647 -0.029560454 0.05038276 -0.3571934 -0.3416385 0.06309631 -0.1557645
-0.1513363 0.04944369 0.15472761 0.037657756 -0.1652832 0.44297147 -0.2540106 -0.020659404
0.20879744 0.22726727 -0.12961757 0.002852795 0.15294762 0.14818878 0.05858042 0.3872385
0.18983537 -0.17037478 0.33013317 -0.06432397 0.068405055 0.21399374 0.0555568 -0.0042595887
-0.01872603 -0.15317662 -0.03628848 0.12033927 -0.13235751 0.07974115 -0.14515695 -0.33187184
00000000: d12b 6fbe e24e 293f aa1e 9a3d 7d33 e63e
00000010: bd89 02bb 7d80 d5bd cb4a 39bf 1f54 133e
00000020: b50d 2dbe f1c7 ab3a 97e7 af3d b8e7 41bd
00000030: e8dd eebc bf2c dabd 4a4d b83d f4d2 fcbd
00000040: bde9 513e 085e 6c3d d984 4c3d f58b 4fbf
00000050: 612f 46bf 5831 973d e837 05be 2efa 56bf
00000060: 07e4 97bd 6c33 0abe 99d5 f7bd 5ce6 013d
00000070: b66a 9c3e 829e cebd 82fd 363c 7ffb 2cbd
00000080: 6e6a c7bd bc56 43be 6657 dcbe da55 a3bc
00000090: 9d4e 313c 7e53 36be 8f50 24bd accd 57be
000000a0: 2e01 a7bd a860 14bd deda 623d d5e9 0bbe
000000b0: c3bd cabd 699d 803c 5b8a 09bd 18d4 0fbe
000000c0: e8d3 8dbe ff34 0c3e 685b 87be 9550 813e
000000d0: 9f5c 56be 31a2 8dbe 066a 3f3e fdac 3d3e
000000e0: 7188 1a3c 186d c93e 1711 bcbd 5a6e 7abd
000000f0: e554 1b3c eba5 9fbd 0000 bbbd e217 4e3e
00000100: a19d 46be e6c4 c23c cd19 133d 92f8 11be
00000110: cdb7 183e 05ba 873d efe9 c53e 2724 0bbe
00000120: 5afb d6be 3a93 acbe daa4 c4bd 8d76 973c
00000130: fa2e 14be 3bf2 acbd 0c6f 1fbd 4cda 973d
00000140: a230 04bd c6e4 233e a81d 91be 0ad5 91be
00000150: 54b3 583e 4b00 9fbe 2f4c 3c3e bda5 893d
00000160: 9fa7 e7bb d650 023e d83d cebe 75c6 fbbd
00000170: a66f 2d3e b823 01be 4317 903d 105c c5bc
00000180: d66d 783e f2e1 c6bd 4976 163e 6435 08bd
00000190: d634 483e 6f13 3abe f09d 8d3d 5ed9 783e
000001a0: c83f 3fbd 4cb3 c03e 8703 76be 358a 9dbc
000001b0: 612c 463d 9c9b d0bd 3dea 40bb e0c1 513e
000001c0: a39c b73e 8910 d53d 9fba 20be 9214 6d3d
000001d0: a463 81bc 5010 96bd 3bb5 7cbe f942 06be
000001e0: bb44 e33d 9c5a 2ebe 5163 323e e593 233c
000001f0: 456f 583e f9f7 7ebc f722 233e 801d c2be
00000200: 153b 90be f740 84be f76c f8bc 6980 4dbe
00000210: 7262 1e3e ef9d cd3d a8d6 fdbe f142 d83c
00000220: 6528 633e 5b51 b53e a877 2f3d 5faa f4bc
00000230: 0484 4b3e bd39 db3d 7ca6 a0bd e046 af3d
00000240: 6fb6 2fbe 4842 113e 9012 f53c 9b6f 163e
00000250: 76e9 81be 4247 02be 7e88 953d 7150 a93d
00000260: 9c61 2d3e 72d0 213e 11b8 213e 4c5e fc3d
00000270: 2c63 653c 8fb7 e0bd cda7 3f3c 918a 223e
00000280: 63c0 73be b489 a6bc 4964 86bd 22ca a9bd
00000290: e7ff b7bd 50d2 6ebc 0dad 7bbe 16e4 0dbe
000002a0: df11 9b3e 384e 933e c564 adbd 6c3f d83d
000002b0: 9e48 e3bd c699 dd3d 31a7 963d eb6a e9bd
000002c0: 97ad 74be 8c50 563d 88ef 11bd e8ad d73d
000002d0: bcd9 34be f666 433d 63c2 153d 285e 373e
000002e0: 51d1 673e 4d95 333e ce58 0bbd bc95 5d3e
000002f0: a8f0 4ebe 725c f73e efde 98bd a078 a4bd
00000300: 0032 7dbe 52d9 193e aa2e c3bd 0415 323e
00000310: 3116 cc3d 5d60 c83d d8db 0ebb a71a e53d
00000320: 9aae 77bd 2fff 033e a628 92bd be0e a83d
00000330: f6cb edbb 7ae6 a0bd b654 bfbc c75e 843d
00000340: 6214 39bd 5101 a43e 06b0 87be e8c2 23be
00000350: 7327 113e 5b6f 4dbe eba1 5dbe 4cd7 db3d
00000360: e19f 9e3e 92a3 083e c428 f2bc 275e 4e3d
00000370: 0ee2 b6be 3eeb aebe a338 813d bb80 1fbe
00000380: e7f7 1abe 7785 4a3d ea70 1e3e 053f 1a3d
00000390: 0040 29be 28cd e23e ad0d 82be e93d a9bc
000003a0: ffce 553e c0b8 683e 78ba 04be f5f5 3a3b
000003b0: 4d9e 1c3e cdbe 173e 06f2 6f3d 2044 c63e
000003c0: 3464 423e ba76 2ebe 3707 a93e 49bc 83bd
000003d0: f317 8c3d 2d21 5b3e 878f 633d 0594 8bbb
000003e0: 5567 99bc 55da 1cbe 3ba3 14bd 6f74 f63d
000003f0: ba88 07be 544f a33d 06a4 14be 1beb a9be

linear_list.1.bias f4 [32]
0.2781974 -0.27249125 -0.26423147 0.19624549 0.2841231 0.25634366 -0.20533563 0.3214524
0.17274143 -0.16444004 0.27101272 -0.15570745 0.041938964 0.28674325 -0.038789354 -0.019616546
-0.062117077 0.29369166 -0.12620088 0.50975174 0.37575856 -0.36187524 0.1311144 0.07492736
0.093666255 -0.20859918 0.09925275 0.24082698 0.7578699 0.584677 -0.263313 -1.4534286
00000000: e46f 8e3e f983 8bbe 5949 87be 94f4 483e
00000010: 9578 913e 7a3f 833e 8143 52be 6995 a43e
00000020: 21e3 303e f862 28be 2ec2 8a3e c671 1fbe
00000030: 31c8 2b3d 03d0 923e 96e1 1ebd e1b2 a0bc
00000040: 7a6e 7ebd c15e 963e ce3a 01be 177f 023f
00000050: 6d63 c03e b647 b9be da42 063e 8473 993d
00000060: 18d4 bf3d 069b 55be 0745 cb3d 599b 763e
00000070: c303 423f 64ad 153f f6d0 86be f309 babf

linear_list.2.weight f4 [14, 32]
0.00031883296 0.0017019316 -0.0017027946 -7.465002e-05 0.00597545 0.00049461675 -0.00032916502 -0.00072888157
-0.00435531 -0.0006717293 -0.0004741679 0.15613131 -0.13988866 0.013542873 -0.0027893013 -0.0031244124
-0.00071932276 -0.0015462707 -0.00042591488 0.00025363558 -0.0047788345 0.0025622298 -0.0020431918 -0.00020528701
0.00020953451 -0.15905376 0.00024520713 0.00040426085 -0.00033525287 0.00014258655 0.0046926476 -0.00051369204
0.021896191 0.032222286 -0.7500783 0.108925745 0.27234566 0.015534382 -0.403328 -0.33763605
0.07822713 -0.020107193 -0.09627322 -0.019002596 0.3908467 0.7238922 -0.094085574 -0.49404508
0.078307755 0.2654932 -0.021549512 0.29526094 -0.4718726 -0.073830165 -0.26214767 -0.081885524
0.112311095 -0.0075646066 -0.2119565 0.20351718 -0.04535724 -0.035772607 0.11938254 0.16081241
0.34369522 -0.008685388 0.49567074 -0.15498422 -0.28028542 0.07986037 0.39801833 0.08459318
0.20814264 0.30247635 -0.62389004 0.08474323 -0.23983894 -0.044651724 0.4374611 0.18865338
0.4035107 -0.11079123 0.082340665 -0.16341443 0.088590235 -0.45081982 -0.004971207 -0.24467075
0.2390077 -0.054534387 -0.030780654 -0.1301407 -0.17070238 0.20826192 -0.31258285 -2.0608156
1.3804327 0.3182708 -0.009776308 0.21508068 -0.16058542 -0.3957152 -0.78657687 -0.13285491
0.13991952 -1.0297166 -0.7367148 0.073903106 -0.009163948 -0.15030742 0.9794723 0.22022182
-0.28928125 -0.17817482 -0.3660336 0.23019151 -0.23326087 -0.012090725 0.08421087 -0.5252166
-1.4202508 0.16848928 0.4716344 0.31848243 1.1699831 -0.024257375 -0.38873386 0.046161573
-0.08473687 0.14517199 -0.39810628 -0.7537101 -0.054852597 -0.08773086 -0.4649202 0.0719523
0.12829481 -0.08160374 -0.11388328 0.05702688 0.29705715 0.19718479 0.4933747 0.4905659
-0.4207087 0.114673615 0.17955837 -0.28289405 -0.27742955 0.29893905 0.37165916 -0.064834565
-0.018799158 0.06615459 -0.20018288 0.165581 -0.018077595 0.020608399 0.5763228 0.0802215
0.0019543837 0.09232719 0.24318127 0.1301323 -0.37571335 -0.20183794 0.4243969 -0.07369388
-0.22182189 0.019625442 -0.051119253 -0.0414328 -0.09690433 -0.13712896 0.35656053 0.2313463
0.11776812 -0.0047066202 -0.05612621 -0.051278584 0.21126494 0.28764117 -0.3242482 -0.11730683
0.07443095 -0.06624441 -0.26262176 0.10628317 0.010768779 0.073014505 -0.07669396 -0.5171366
-0.11711882 0.045066513 -0.3960529 0.20210458 -0.29175937 -0.25291923 -0.44812155 0.7033304
-0.016174708 0.12321468 0.08793082 -0.15923202 0.08998079 0.18236107 -0.49628723 -0.048319176
-0.2553086 0.4382995 -0.033657722 -0.20439093 -0.27991977 -0.30329415 -0.008000634 0.18671893
0.05367714 -0.14534785 -0.03927403 -0.020057166 -0.004795056 -0.119954444 0.2670033 0.44699836
0.52459264 0.07730792 0.018001555 -0.23926124 0.3444146 0.01713347 0.41293857 0.18764457
-0.149586 -0.2277715 -0.10687609 -0.0844586 -0.04869482 -0.117819384 -0.386456 -0.17442435
0.16978925 0.30066925 -0.7103687 -0.22256126 -0.6407463 0.17671062 0.18405628 0.012808208
0.58800817 0.1667575 0.12515253 0.059275843 0.11470365 4.7448425 -0.1153386 -0.055288788
00000000: 0929 a739 5913 df3a 4e30 dfba 6d8d 9cb8
00000010: b5cd c33b 2ba9 013a c893 acb9 6a12 3fba
00000020: fdb6 8ebb fe16 30ba bd99 f8b9 e3e0 1f3e
00000030: f93e 0fbe ede2 5d3c b6cc 36bb f1c2 4cbb
00000040: ef90 3cba 3cac caba 544d dfb9 64fa 8439
00000050: c597 9cbb 15eb 273b 12e7 05bb 5042 57b9
00000060: 7eb6 5b39 fdde 22be 258f 8039 f9f2 d339
00000070: e1c4 afb9 4983 1539 c8c4 993b 4aa9 06ba
00000080: a45f b33c 84fb 033d 2205 40bf 7614 df3d
00000090: e470 8b3e ec83 7e3c 0281 cebe a2de acbe
000000a0: 8c35 a03d d7b7 a4bc e52a c5bd 55ab 9bbc
000000b0: 0f1d c83e 0051 393f f0af c0bd 7af3 fcbe
000000c0: d15f a03d baee 873e 9a88 b0bc 712c 973e
000000d0: 4999 f1be 4534 97bd 3838 86be 99b3 a7bd
000000e0: 5c03 e63d 85e0 f7bb 200b 59be cf66 503e
000000f0: 83c8 39bd 4c86 12bd d57e f43d 02ac 243e
00000100: d2f8 af3e 284d 0ebc 8ec8 fd3e 2fb4 1ebe
00000110: 9281 8fbe d58d a33d 0fc9 cb3e 303f ad3d
00000120: 5823 553e 2ede 9a3e 42b7 1fbf dc8d ad3d
00000130: 5798 75be bae4 36bd e7fa df3e 5a2e 413e
00000140: f498 ce3e 83e6 e2bd 39a2 a83d 1d56 27be
00000150: cc6e b53d dbd1 e6be 82e5 a2bb f88a 7abe
00000160: 6fbe 743e 735f 5fbd b627 fcbc 9b43 05be
00000170: 9bcc 2ebe 9d42 553e dc0a a0be 67e4 03c0
00000180: 05b2 b03f 64f4 a23e cf2c 20bc 1c3e 5c3e
00000190: 8170 24be 2f9b cabe 1a5d 49bf 1e0b 08be
000001a0: 1047 0f3e c1cd 83bf 5799 3cbf 835a 973d
000001b0: 6224 16bc 30ea 19be b2be 7a3f d481 613e
000001c0: ac1c 94be 7673 36be c268 bbbe 53b7 6b3e
000001d0: f0db 6ebe 2d18 46bc c076 ac3d 9874 06bf
000001e0: c7ca b5bf 7488 2c3e 107a f13e 2110 a33e
000001f0: 02c2 953f 67b7 c6bc 2008 c7be eb13 3d3d
00000200: 868a adbd f7a7 143e 96d4 cbbe 25f3 40bf
00000210: 1ead 60bd 3dac b3bd 050a eebe ba5b 933d
00000220: b75f 033e dd1f a7bd a33b e9bd 0595 693d
00000230: e017 983e cfea 493e 9c9b fc3e 742b fb3e
00000240: 2167 d7be 00da ea3d 26de 373e 7dd7 90be
00000250: 3f0b 8ebe 8a0e 993e 1c4a be3e fcc7 84bd
00000260: b100 9abc 0f7c 873d befc 4cbe 118e 293e
00000270: 7717 94bc f2d2 a83c e489 133f 2b4b a43d
00000280: 1e15 003b 0a16 bd3d 8304 793e 6741 053e
00000290: 805d c0be 9bae 4ebe 8d4a d93e d1ec 96bd
000002a0: 4725 63be 89c5 a03c 6c62 51bd 71b5 29bd
000002b0: c775 c6bd 896b 0cbe 1a8f b63e 0be6 6c3e
000002c0: 6930 f13d fe39 9abb 99e4 65bd 7e09 52bd
000002d0: d655 583e b445 933e dc03 a6be 903e f0bd
000002e0: 416f 983d 26ab 87bd 5c76 86be feaa d93d
000002f0: 886f 303c a188 953d b911 9dbd 1063 04bf
00000300: fedb efbd aa97 383d 72c7 cabe 81f4 4e3e
00000310: 7c61 95be a17e 81be 3070 e5be 760d 343f
00000320: d280 84bc fa57 fc3d 1315 b43d b80d 23be
00000330: d947 b83d dcbc 3a3e 5c19 febe 54ea 45bd
00000340: cfb7 82be cb68 e03e aedc 09bd db4b 51be
00000350: a551 8fbe 5f49 9bbe 1715 03bc 3f33 3f3e
00000360: 90dc 5b3d 11d6 14be cedd 20bd ed4e a4bc
00000370: d81f 9dbb adaa f5bd a8b4 883e f8dc e43e
00000380: b44b 063f 9d53 9e3d ff77 933c e600 75be
00000390: 1c57 b03e 7e5b 8c3c af6c d33e e625 403e
000003a0: 132d 19be ef3c 69be dae1 dabd a1f8 acbd
000003b0: 3874 47bd 4a4b f1bd 90dd c5be 4c9c 32be
000003c0: 3cdd 2d3e 52f1 993e b9da 35bf 19e7 63be
000003d0: f307 24bf a1f3 343e 4079 3c3e 85d9 513c
000003e0: b487 163f 7ac2 2a3e fc27 003e 3acb 723d
000003f0: bfe9 ea3d c0d5 9740 a536 ecbd 7f76 62bd

linear_list.2.bias f4 [14]
0.262626 0.20457096 0.11229118 -0.15088515 -0.21584578 -0.008866531 0.30407313 0.009067091
0.1736478 0.1384257 -0.5476875 0.42244315 0.6990782 -0.12843257
00000000: ea76 863e 0d7b 513e ebf8 e53d a381 1abe
00000010: ad06 5dbe ed44 11bc 79af 9b3e 238e 143c
00000020: bbd0 313e 77bf 0d3e 3f35 0cbf 784a d83e
00000030: caf6 323f d483 03be
