prep/g0504-233203_gcas_gcas_outT/models/model400000.onnx (onnx, 8665 bytes, 6 tensors)

linear_list.0.weight f4 [32, 14]
0	0x3ca4a399	0.02009754
1	0xbb17b860	-0.0023150668
2	0xbe9acf54	-0.30236304
3	0x3d0199a1	0.031640653
4	0xbd43502d	-0.047683883
5	0xbc91a1dc	-0.017777376
6	0xbb8e935c	-0.0043510627
7	0xbb83a84e	-0.004017866
8	0xbd57f605	-0.052724857
9	0xb8898182	-6.556792e-05
10	0x3b035807	0.0020041482
11	0x3b6d6f4a	0.0036229664
12	0xbc6700ef	-0.014099344
13	0xc00c49f2	-2.1920133
14	0xbd0ab96b	-0.033868235
15	0x3c843f7e	0.016143557
16	0x3f127bd9	0.57220227
17	0x3de35b25	0.11101369
18	0x3d14dcfc	0.03634356
19	0x3cfde7ac	0.030994259
20	0x3bad88f9	0.0052958694
21	0xb9cebeb3	-0.00039433464
22	0x3ca8d4a9	0.020609217
23	0x3bab637d	0.005230366
24	0x3b658b55	0.0035025675
25	0x3bfb1ed9	0.0076635894
26	0x3a8c9cf0	0.0010727923
27	0xbfa6ed2c	-1.3041129
28	0xbd60edae	-0.05491417
29	0x3c612fa8	0.013744272
30	0x3f025453	0.5090992
31	0x3b3403ae	0.0027468014
32	0x3e87a290	0.26491213
33	0x3e91129c	0.2833451
34	0x3adc9ce2	0.0016831423
35	0x3bd0b201	0.006368876
36	0xbd129040	-0.0357821
37	0x3b881b5b	0.0041536517
38	0xbaa9a2bc	-0.0012942175
39	0x3c55a95c	0.013040867
40	0x3c79c21d	0.015244034
41	0x3f0171bb	0.50564164
42	0x3d67630d	0.056490947
43	0x3ca96d80	0.020682096
44	0x3de9bbea	0.11412795
45	0x3db7f7c7	0.08982807
46	0xbe5a58a8	-0.21322882
47	0x3c833d61	0.016020479
48	0xbba6d4d9	-0.0050912914
49	0xbb91a202	-0.0044443617
50	0x3db520be	0.08844136
51	0xbc1c36fd	-0.009534595
52	0xba7470af	-0.00093246525
53	0x3c815d79	0.015791642
54	0xbbecd3c3	-0.0072273924
55	0xbf6db2e7	-0.9285111
56	0x3e56e16f	0.20984434
57	0xbc975b0a	-0.018476028
58	0x3e2128ce	0.15738222
59	0xbe2fffeb	-0.17187469
60	0x3e44f498	0.1923393
61	0xbdd92840	-0.1060338
62	0xbbe5d1e7	-0.0070135477
63	0xbbcf2b99	-0.006322336
64	0xbc182ef5	-0.009288539
65	0x39e57cf0	0.0004377137
66	0x3b0f2b5c	0.0021845913
67	0x3c243287	0.010021812
68	0xbbdd06c8	-0.006745193
69	0x3f4d6839	0.80237156
70	0xbe996683	-0.29961023
71	0xbd628f21	-0.05531228
72	0xbcbc59d5	-0.022992054
73	0x3d878d3b	0.066187344
74	0x3e3cf9ae	0.1845462
75	0xbc25d03d	-0.010120449
76	0x3b15670c	0.0022797016
77	0xb65f17c8	-3.3243432e-06
78	0x3e23842d	0.1596839
79	0xbbd3c4ea	-0.006462683
80	0xbb91d1f9	-0.0044500795
81	0x3d100256	0.035158478
82	0xbc09afb7	-0.00840371
83	0x3ed3c7ac	0.41363275
84	0x3bdf38fd	0.0068122135
85	0xba2d1c7b	-0.000660367
86	0xbd11e9f4	-0.035623506
87	0x3cbeb2d0	0.023278624
88	0xbb4dec05	-0.0031421196
89	0x3b3ca8db	0.002878717
90	0x3a4b5bae	0.0007757497
91	0x39cfd678	0.00039641908
92	0x39d1da40	0.00040026195
93	0xba11b4f0	-0.0005558273
94	0xb9db3b0a	-0.00041814923
95	0xbaa2ace9	-0.001241115
96	0x39c57180	0.00037659332
97	0x404f0931	3.234936
98	0x3ceb3b96	0.028714936
99	0xba9b5d55	-0.0011853377
100	0x3e14bae9	0.14524426
101	0xbf037998	-0.5135741
102	0xbe262c60	-0.16227865
103	0x3c28b391	0.010296718
104	0x3c225b0b	0.009909402
105	0x3c41c165	0.011825894
106	0xbd2ad86e	-0.04171031
107	0xbca13932	-0.019680593
108	0xbcd8fc30	-0.02648744
109	0x3b2369ab	0.002493481
110	0x39e04929	0.00042779118
111	0xbf07b9cb	-0.5301787
112	0x3e3b3e98	0.18285596
113	0xbc8ea55f	-0.01741284
114	0xbe8bf571	-0.27335694
115	0x3e5d1cc4	0.21593004
116	0xbeb77231	-0.3582931
117	0x3d56a391	0.052402083
118	0x3b4ae89d	0.0030961402
119	0x3c1aaf66	0.009441232
120	0x3e10ba7c	0.14133638
121	0x395d27cf	0.00021091032
122	0xbb9a25b0	-0.0047041997
123	0x3d6a0aee	0.05713933
124	0x3c659c65	0.014014338
125	0x3ef34a66	0.475177
126	0xbdd7d760	-0.105391264
127	0x3c6639d7	0.014051876
128	0x3ea120cc	0.31470335
129	0xbe337e84	-0.1752873
130	0xbf1a43d8	-0.6025977
131	0x3d79c9c0	0.06098342
132	0xbba7dfd1	-0.0051231165
133	0xbb2465ff	-0.0025085208
134	0x3ca132c5	0.01967753
135	0x3b4d1d0d	0.0031297833
136	0xbba572a7	-0.005049068
137	0xbd4ded58	-0.050275177
138	0x3d06005a	0.03271518
139	0x3ec0e07d	0.3767127
140	0xbdd01d05	-0.10161785
141	0xbd5467e4	-0.05185689
142	0x3d122693	0.03568132
143	0x3d61fdc8	0.055173665
144	0xbdcb32af	-0.099217765
145	0xbe4e3774	-0.20138341
146	0x3b854b37	0.004067804
147	0x3b0c7993	0.0021434769
148	0xbe90cfcc	-0.28283536
149	0x3ba22fa0	0.004949525
150	0xbbfeb0a0	-0.00777252
151	0x3d4545b2	0.04816217
152	0x3cabf744	0.020991929
153	0x3f0d86a2	0.5528356
154	0x3dd55800	0.10417175
155	0x3cfe4c07	0.031042112
156	0xbeab688d	-0.33478203
157	0x3e1905a0	0.14943552
158	0x3d0bfd7e	0.034177296
159	0xbd05b75f	-0.03264558
160	0xbcb4e3d1	-0.022081288
161	0xbbb587be	-0.0055398634
162	0x3e09020b	0.13379686
163	0x3cc85124	0.024452753
164	0x3c8c0b12	0.017095122
165	0xbd96d2c5	-0.0736442
166	0xbe07e375	-0.13270362
167	0xbed0b237	-0.40760967
168	0x3d05f9e3	0.032709014
169	0x3d64da3e	0.055872194
170	0xbe44777b	-0.19186203
171	0x3e1e6a46	0.15470228
172	0x3d433549	0.04765824
173	0x3d9f6ad9	0.077840514
174	0xbc00a411	-0.0078516165
175	0xbb14966e	-0.002267267
176	0xbda68e25	-0.08132581
177	0x3bfd1073	0.007722908
178	0x3add2649	0.0016872372
179	0x3c8c35b8	0.017115459
180	0x3ddf3c89	0.10900218
181	0x3d337c91	0.043819968
182	0xbde0fff2	-0.10986318
183	0x3dc07720	0.09397721
184	0x3de3d424	0.11124447
185	0xbc8fe3bb	-0.017564645
186	0xbe85d76b	-0.26140913
187	0xbc2deed9	-0.010616028
188	0xbcafa8b9	-0.021442758
189	0xbbae4def	-0.005319349
190	0x3e058b35	0.13041385
191	0x3b4a9a5b	0.0030914757
192	0x3c9b232a	0.018937666
193	0x3d812606	0.063060805
194	0xbcdd8a83	-0.027043587
195	0x3eefae15	0.46812502
196	0xbb4dc9e1	-0.0031400847
197	0x3bce4845	0.0062952363
198	0x3cb15b82	0.02165008
199	0x3fb53b3d	1.4158703
200	0xbcb0204d	-0.021499777
201	0x3c0c82d3	0.008576113
202	0x38307d53	4.2078387e-05
203	0xbbf701a4	-0.0075380374
204	0xbc6af5cf	-0.014340832
205	0x3b9b7bad	0.004744968
206	0xb964f73f	-0.00021835881
207	0x3bb06a6f	0.0053837816
208	0x3b9a14fb	0.004702208
209	0xbf3f1a93	-0.74649924
210	0xbdac3959	-0.08409376
211	0x3c9f5322	0.01944882
212	0x3c4889b8	0.012239866
213	0x3e4b7e3f	0.19872378
214	0x3dcf37a3	0.10118034
215	0x3d801225	0.06253461
216	0x3aac088f	0.0013125109
217	0xbb799e21	-0.0038088637
218	0xbdc0f8f2	-0.094224826
219	0x3b76d984	0.003766627
220	0x3bce248d	0.0062909783
221	0x3c9c9456	0.0191137
222	0xbc6dff6d	-0.01452623
223	0x3f96a920	1.1770363
224	0xbcae39d4	-0.021267809
225	0x3b0c0ccf	0.002136994
226	0x3e008399	0.125502
227	0xbd438e83	-0.04774333
228	0x3ac8b7cb	0.0015313564
229	0x3c621e88	0.0138012245
230	0xba196b0e	-0.0005852439
231	0xbaa2a3c2	-0.0012408423
232	0xbc9e0d9b	-0.019293597
233	0x3b325665	0.002721214
234	0x3b628f65	0.0034570333
235	0x3b2852bf	0.0025684086
236	0xbc930720	-0.017947733
237	0xbfa2281c	-1.266849
238	0xbbc8e62a	-0.0061309533
239	0x3bf4abf4	0.0074667875
240	0x3d02efce	0.031966977
241	0x3f32ed68	0.69893503
242	0x3ce27a4b	0.027646204
243	0xbca8a584	-0.020586737
244	0xb97f12b8	-0.00024325668
245	0xbc05c7af	-0.008165284
246	0x3cf9edec	0.030508958
247	0x3c264e49	0.010150501
248	0x3c2429b3	0.0100197075
249	0x3cf26f28	0.029594019
250	0xbcd6b0f7	-0.02620743
251	0x3d26306a	0.040573515
252	0xbc66d9a8	-0.014089979
253	0xbac150fc	-0.0014748867
254	0x3cb02a6e	0.021504607
255	0xbf807af3	-1.0037521

linear_list.0.bias f4 [32]
0	0x3f82281e	1.0168493
1	0x3fa5fe3f	1.2968215
2	0xbe119bbf	-0.14219569
3	0x3f2423c5	0.6411708
4	0x3f2c4538	0.6729312
5	0x3f290086	0.66016424
6	0xbeb2ebc3	-0.34945497
7	0x3e27e513	0.16395979
8	0x3fbe9150	1.4888096
9	0x3fa94628	1.3224535
10	0x3f2bd58e	0.67122734
11	0x3d5bb38f	0.053638037
12	0x3f20b8fd	0.6278227
13	0x3ec796ea	0.38982326
14	0x3e910770	0.28325987
15	0x3f237293	0.638467
16	0x3fc2c322	1.52158
17	0x3e3175d6	0.17330107
18	0x3f016bda	0.50555193
19	0xbe178982	-0.14798549
20	0xbe324576	-0.1740931
21	0x3f52a342	0.8228036
22	0xbf1095ed	-0.5647877
23	0xbe1a2c59	-0.1505598
24	0x3f86106f	1.0473765
25	0xbeb4ddfd	-0.35325614
26	0x3f65ee31	0.89816576
27	0x3ca6bca7	0.020353628
28	0x3ecdcf15	0.40197054
29	0x3f7a8af2	0.97868264
30	0x3e17b107	0.14813624
31	0xbe333165	-0.17499311

linear_list.1.weight f4 [32, 32]
0	0xbe71fa2e	-0.23630592
1	0x3f25d693	0.6478054
2	0x3d9123c7	0.07086902
3	0x3ee633e7	0.44961473
4	0xbc024086	-0.007949954
5	0xbdd6c1e9	-0.10486204
6	0xbf38896f	-0.7208471
7	0x3e1179f4	0.14206678
8	0xbe209132	-0.15680388
9	0x3bb93a90	0.005652733
10	0x3da55cbf	0.080743305
11	0xbd4410ac	-0.047867462
12	0xbcdd25da	-0.026995588
13	0xbdd3b1b1	-0.10336626
14	0x3dbe3890	0.09288132
15	0xbdfb8bb7	-0.12282508
16	0x3e4a3719	0.1974758
17	0x3d74858c	0.059697673
18	0x3d34d289	0.044146094
19	0xbf4e093d	-0.80482846
20	0xbf458db6	-0.7716936
21	0x3d9a2921	0.07527376
22	0xbe0537e8	-0.13009608
23	0xbf557776	-0.8338541
24	0xbda20432	-0.079109564
25	0xbe097210	-0.13422418
26	0xbdf06531	-0.11738051
27	0x3d001dab	0.031278294
28	0x3e97df1b	0.29662403
29	0xbdce87ca	-0.100844935
30	0x3c19ae84	0.009379987
31	0xbd343f89	-0.044005904
32	0xbdc76a6e	-0.09737097
33	0xbe4356bc	-0.19076055
34	0xbede0a38	-0.4336717
35	0xbca355da	-0.019938398
36	0xbbc01bc5	-0.0058626854
37	0xbe45486d	-0.1926591
38	0xbcbd8b0b	-0.02313759
39	0xbe57cdac	-0.21074551
40	0xbdbc3792	-0.09190287
41	0xbd61c70a	-0.05512146
42	0x3d2724ef	0.040806707
43	0xbe0cab31	-0.1373718
44	0xbdd5e947	-0.10444885
45	0x3c4476ea	0.011991242
46	0xbd0f63e3	-0.03500737
47	0xbe17f53e	-0.14839646
48	0xbe8dd3e8	-0.27700734
49	0x3defc38d	0.1170722
50	0xbe884f35	-0.2662293
51	0x3e85cab3	0.2613121
52	0xbe4b9c61	-0.19883873
53	0xbe92b9d1	-0.28657392
54	0x3e4d973c	0.20077223
55	0x3e45bb11	0.19309641
56	0xbbded29e	-0.00680001
57	0x3ecf2cdd	0.40463915
58	0xbdd4664b	-0.10371073
59	0xbd806d2b	-0.06270822
60	0x3c1b54e5	0.00948069
61	0xbda06747	-0.078321986
62	0xbdbb0000	-0.091308594
63	0x3e5bbb50	0.21458173
64	0xbe469da1	-0.19396068
65	0x3cbf0ef7	0.023322565
66	0x3d1e7d1c	0.038693532
67	0xbe11f892	-0.14254978
68	0x3e0f9dfa	0.14025107
69	0x3d77281f	0.060340997
70	0x3ed2d2d9	0.4117649
71	0xbe0b2427	-0.1358801
72	0xbee56baa	-0.44808704
73	0xbec0ee6e	-0.37681907
74	0xbde85a5c	-0.1134536
75	0x3c966a64	0.018361278
76	0xbe224555	-0.1584676
77	0xbdbdc39e	-0.09265827
78	0xbd310c9e	-0.043224923
79	0x3d869a17	0.06572359
80	0xbd0430a2	-0.032272942
81	0x3df8ae98	0.12142676
82	0xbe9a11b3	-0.30091628
83	0xbe8a7226	-0.27040213
84	0x3e697149	0.22797121
85	0xbeaa2937	-0.3323457
86	0x3e4fd2ac	0.20295209
87	0x3da51b11	0.08061803
88	0xbcc3e4fd	-0.023912901
89	0x3e0fb1a7	0.14032613
90	0xbed83f35	-0.42235723
91	0xbe002639	-0.12514581
92	0x3e2d6fa6	0.16937122
93	0xbe0123b8	-0.12611282
94	0x3d901743	0.07035687
95	0xbc98e43b	-0.018663516
96	0x3e762843	0.24038796
97	0xbdb8c25b	-0.09021445
98	0x3e1cd522	0.15315679
99	0xbcf8919b	-0.030342868
100	0x3e43f847	0.19137679
101	0xbe427e35	-0.18993457
102	0x3db1d9af	0.08684098
103	0x3e7fa587	0.24965487
104	0xbd8a9d3f	-0.067682736
105	0x3eb195d7	0.3468463
106	0xbe7fbbc9	-0.24973978
107	0xbcb86f54	-0.022514023
108	0x3d114cd8	0.035473675
109	0xbddc726f	-0.10764014
110	0x3c31a7c2	0.010843219
111	0x3e4d082e	0.20022652
112	0x3ebe39d1	0.37153485
113	0x3d90f12c	0.0707725
114	0xbe20cc30	-0.15702891
115	0x3d8a11a2	0.067416444
116	0xbbc63ad6	-0.0060494943
117	0xbdaf2345	-0.08551649
118	0xbe6ca854	-0.23111087
119	0xbdf87c18	-0.12133044
120	0x3dad3513	0.08457389
121	0xbe226d94	-0.15862113
122	0x3e2c49de	0.16825053
123	0x395f48df	0.00021294084
124	0x3e58c3e1	0.21168472
125	0xbc39a0d9	-0.011329853
126	0x3e22b33f	0.1588869
127	0xbec1ba9a	-0.37837678
128	0xbe8e978b	-0.27849993
129	0xbe88d654	-0.2672602
130	0xbcf2963a	-0.02961265
131	0xbe472359	-0.19447078
132	0x3e1c7918	0.15280569
133	0x3daa73c3	0.08322861
134	0xbef6339d	-0.48086253
135	0x3cee7f18	0.029113337
136	0x3e5df55d	0.2167563
137	0x3eadc0fa	0.33936292
138	0x3cd80bec	0.026372872
139	0xbcedef3d	-0.029044742
140	0x3e43fd44	0.19139582
141	0x3dd61afd	0.10454366
142	0xbdbee601	-0.093212135
143	0x3d90b719	0.07066173
144	0xbe38e17b	-0.18054764
145	0x3e0ca32b	0.13734119
146	0x3cd5b4e8	0.02608724
147	0x3e1f2db5	0.1554478
148	0xbe7925aa	-0.24330774
149	0xbe16388b	-0.14670007
150	0x3d9c7e33	0.07641258
151	0x3db811b9	0.08987755
152	0x3e0f5dc3	0.14000611
153	0x3e278934	0.16360933
154	0x3e24897d	0.16068073
155	0x3df610d9	0.12014932
156	0x3c85c10d	0.016327405
157	0xbde68d5e	-0.112574324
158	0x3c8a6715	0.016894856
159	0x3e28e39d	0.16493078
160	0xbe76af02	-0.24090198
161	0xbcb0d224	-0.021584578
162	0xbd85fce9	-0.065423794
163	0xbdb54b43	-0.08852246
164	0xbdc5cb36	-0.096579
165	0xbc5a0d6a	-0.013308862
166	0xbe7785a5	-0.24172075
167	0xbe0bde02	-0.13658908
168	0x3e983cd4	0.29733908
169	0x3e9316c5	0.2872831
170	0xbdb8844f	-0.09009611
171	0x3dd539fc	0.1041145
172	0xbddfb108	-0.10922438
173	0x3ddacafd	0.10683248
174	0x3da32c35	0.07967416
175	0xbde51d5d	-0.11187241
176	0xbe7937aa	-0.2433764
177	0x3ce6d5ae	0.028178062
178	0xbced22d0	-0.028947264
179	0x3dd7557f	0.10514354
180	0xbe329f18	-0.17443502
181	0x3d45c4ea	0.048283495
182	0x3d27f21d	0.04100238
183	0x3e36e25b	0.17859785
184	0x3e6a8e6e	0.22905895
185	0x3e33e215	0.17566712
186	0xbd28687d	-0.041115273
187	0x3e568bbd	0.20951743
188	0xbe492b5a	-0.19645444
189	0x3eef911e	0.46790403
190	0xbda05be3	-0.07830026
191	0xbda0593c	-0.0782952
192	0xbe7c27c2	-0.24624541
193	0x3e37eac3	0.17960648
194	0xbdb2d980	-0.08732891
195	0x3e2ec0f3	0.17065792
196	0x3dbe4067	0.092896275
197	0x3db9bc05	0.09069065
198	0x3c929948	0.017895356
199	0x3df248d5	0.11830298
200	0xbda1c268	-0.07898408
201	0x3e0310a7	0.12799321
202	0xbdb28177	-0.087161
203	0x3d8d0ac0	0.06886816
204	0xbc965f92	-0.018356118
205	0xbd8a3480	-0.06748295
206	0x3b94c1af	0.0045396904
207	0x3d826d99	0.0636856
208	0xbd410585	-0.047124404
209	0x3e8d9544	0.27652943
210	0xbe86db25	-0.2633907
211	0xbe154894	-0.14578468
212	0x3e1e943f	0.15486239
213	0xbe52ebbf	-0.20597742
214	0xbe430d11	-0.19047953
215	0x3df66c12	0.120323315
216	0x3e8ccc04	0.27499402
217	0x3e198115	0.14990647
218	0xbcc67de5	-0.024229953
219	0x3d1b2cf4	0.037884668
220	0xbeb23e60	-0.34813213
221	0xbeb6c2b4	-0.35695422
222	0x3d8528ce	0.065019235
223	0xbe0fc18b	-0.14038675
224	0xbe21b9b4	-0.15793496
225	0x3d432b30	0.04764861
226	0x3e1d2e8a	0.15349784
227	0x3d2d88d2	0.04236681
228	0xbe3d06b3	-0.18459587
229	0x3ed8ee6e	0.42369407
230	0xbe706150	-0.23474622
231	0xbcbb2c60	-0.022848308
232	0x3e462aed	0.19352312
233	0x3e5e2968	0.21695483
234	0xbe1b786f	-0.1518266
235	0x3b2026df	0.0024437231
236	0x3e104671	0.14089371
237	0x3e16a948	0.14713013
238	0x3d2fbaca	0.042902745
239	0x3ebd660b	0.36991915
240	0x3e46920b	0.19391648
241	0xbe1a9b28	-0.1509825
242	0x3ea1ab5b	0.31576046
243	0xbd638727	-0.055548813
244	0x3da3a00d	0.07989512
245	0x3e461354	0.1934331
246	0x3da02710	0.078199506
247	0x3b5d31c5	0.0033751589
248	0xbd17c046	-0.0370486
249	0xbe14a204	-0.14514929
250	0xbd4b1a47	-0.049585607
251	0x3dee46ea	0.116346195
252	0xbe0612e9	-0.13093151
253	0x3dacf017	0.08444231
254	0xbe14a7e4	-0.1451717
255	0xbea6fc4f	-0.3261437

linear_list.1.bias f4 [32]
0	0x3e8dc78f	0.27691314
1	0xbe945b02	-0.28975683
2	0xbe9290e1	-0.2862616
3	0x3e361ff5	0.17785628
4	0x3e8a860f	0.27055404
5	0x3e8210e2	0.25403506
6	0xbe61630d	-0.22010441
7	0x3e99ea9c	0.30061805
8	0x3e29a992	0.16568592
9	0xbe26db35	-0.16294558
10	0x3e873d19	0.264138
11	0xbe1eefec	-0.1552121
12	0x3d2bc831	0.041938964
13	0x3e8b56db	0.27214703
14	0xbd5a5f06	-0.053313278
15	0xbce796f6	-0.028270226
16	0xbd7b36fc	-0.061331734
17	0x3e92b305	0.28652206
18	0xbe00788b	-0.12545983
19	0x3eff1c2e	0.49826187
20	0x3eb64ae2	0.35604006
21	0xbec720fd	-0.38892356
22	0x3df8ef4d	0.12155018
23	0x3d997e5a	0.07494803
24	0x3dc0e242	0.09418155
25	0xbe556005	-0.2083741
26	0x3dcf97a6	0.101363465
27	0x3e734edc	0.23760551
28	0x3f42c51f	0.7608203
29	0x3f14f168	0.58180857
30	0xbe8edb16	-0.27901524
31	0xbfbb9e55	-1.4657694

linear_list.2.weight f4 [14, 32]
0	0x39491087	0.0001917501
1	0x3ace2615	0.0015727902
2	0xbad2f5d6	-0.0016094993
3	0x39ef1db7	0.00045607772
4	0x3bc1a680	0.005909741
5	0x3a279954	0.0006393392
6	0xba245bfd	-0.0006269811
7	0xba819e3b	-0.0009889075
8	0xbb9329f2	-0.0044910843
9	0xba24b12c	-0.0006282504
10	0xb9eb7cd7	-0.00044915706
11	0x3e1fe0e3	0.15613131
12	0xbe0f3ef9	-0.13988866
13	0x3c50dd42	0.0127480645
14	0xbb1c53b8	-0.0023853611
15	0xbb0a965f	-0.0021146757
16	0xba57812b	-0.00082208466
17	0xbadc1493	-0.00167908
18	0xb9ddd5e1	-0.00042311757
19	0x3a398b20	0.0007077921
20	0xbb873cb7	-0.004127111
21	0x3b0e6353	0.0021726682
22	0xbb3fc5c2	-0.002926216
23	0xb97f96b0	-0.0002437483
24	0x39744bd9	0.00023297909
25	0xbe23a059	-0.15979137
26	0x393ad960	0.00017819321
27	0x39f3f995	0.00046534525
28	0xb9b2bede	-0.00034093013
29	0x39360740	0.00017359573
30	0x3b8ecd51	0.0043579717
31	0xba0f6b5a	-0.0005471014
32	0x3cab734e	0.020929005
33	0x3d754a0d	0.059885073
34	0xbf326caa	-0.6969706
35	0x3df3a27b	0.11896225
36	0x3e779705	0.24178703
37	0x3c724cfa	0.01478886
38	0xbea80a0f	-0.32820174
39	0xbeaddf07	-0.3395922
40	0x3d906bac	0.07051787
41	0xbc81894a	-0.015812535
42	0xbdd08e4c	-0.10183391
43	0xbc9bab55	-0.019002596
44	0x3ec81d0f	0.3908467
45	0x3f331a25	0.6996177
46	0xbd8e6fba	-0.06954904
47	0xbeeb3d89	-0.45945385
48	0x3daedaa6	0.08537798
49	0x3e800b46	0.250086
50	0xbca3226b	-0.019913873
51	0x3e93b0c8	0.2884581
52	0xbedec1f4	-0.4350735
53	0xbca46e37	-0.020072086
54	0xbe82d780	-0.25555038
55	0xbda0b240	-0.078464985
56	0x3df0c215	0.11755768
57	0xbbf7e085	-0.0075646066
58	0xbe480082	-0.19531444
59	0x3e50b58a	0.20381752
60	0xbd5cb1ea	-0.05388061
61	0xbce63298	-0.028100297
62	0x3ddc0ae8	0.10744268
63	0x3e26f1ff	0.16303252
64	0x3ea2558c	0.31705892
65	0xbc95d6d8	-0.018290922
66	0x3ef5c725	0.48003498
67	0xbe340b1a	-0.1758236
68	0xbe88410b	-0.26612124
69	0x3d8fc0b1	0.07019175
70	0x3ebd84e8	0.37015462
71	0x3d8aad6d	0.067713596
72	0x3e546d87	0.20744906
73	0x3e959e22	0.29222208
74	0xbf183a1a	-0.59463656
75	0x3dad8ddc	0.08474323
76	0xbe759857	-0.23983894
77	0xbd20b139	-0.039231513
78	0x3ed760c7	0.42066023
79	0x3e2b863d	0.16750427
80	0x3ec0ad23	0.37632093
81	0xbdcce559	-0.10004682
82	0x3d93887c	0.07203767
83	0xbe2fd5a3	-0.1717134
84	0x3d83ce27	0.06435805
85	0xbee91d95	-0.45530382
86	0xbc14c740	-0.009080708
87	0xbe870786	-0.26372927
88	0x3e5f634b	0.21815221
89	0xbd5f5f73	-0.054534387
90	0xbc9aedc8	-0.018912211
91	0xbde679bc	-0.11253688
92	0xbe2c4e23	-0.16826682
93	0x3e513951	0.2043202
94	0xbe9c9ff2	-0.3059078
95	0xc0027ed2	-2.0389905
96	0x3faf2de8	1.3685884
97	0x3e9c30ca	0.30505973
98	0xbc97e48f	-0.018541602
99	0x3e5702ce	0.20997164
100	0xbe2ebaa7	-0.1706339
101	0xbecc98ae	-0.39960235
102	0xbf489bbe	-0.78362644
103	0xbe0ca0dc	-0.13733238
104	0x3e0fdf00	0.14049911
105	0xbf848f1d	-1.0356175
106	0xbf3a01db	-0.7265908
107	0x3d975a83	0.073903106
108	0xbc162462	-0.009163948
109	0xbe1dd6a1	-0.15413906
110	0x3f75a4c6	0.9595455
111	0x3e5cef45	0.21575649
112	0xbe959f64	-0.29223168
113	0xbe4466e8	-0.1917988
114	0xbebf6717	-0.3738334
115	0x3e5cb844	0.21554667
116	0xbe70536a	-0.2346932
117	0xbc0fd5e0	-0.008779019
118	0x3da58785	0.08082489
119	0xbf07381c	-0.5281999
120	0xbfb34058	-1.4004011
121	0x3e2c8874	0.16848928
122	0x3ee65466	0.44986266
123	0x3e9dc69d	0.30815592
124	0x3f95a674	1.1691422
125	0xbcdcb199	-0.026940154
126	0xbeca7d4a	-0.39548713
127	0x3d1fffae	0.039062195
128	0xbdc758f0	-0.0973376
129	0x3e0277ed	0.1274106
130	0xbec2f3f3	-0.38076743
131	0xbf390cc1	-0.72285086
132	0xbd4db2e8	-0.050219446
133	0xbdb8afc0	-0.09017897
134	0xbee44f0a	-0.44591552
135	0x3d78f44c	0.060779855
136	0x3dd807d7	0.1054837
137	0xbda85166	-0.082186505
138	0xbdf27c67	-0.11840134
139	0x3d699505	0.05702688
140	0x3e9817e0	0.29705715
141	0x3e36b962	0.17844155
142	0x3eed7635	0.46379247
143	0x3ee9f5f4	0.4569546
144	0xbece56d1	-0.4030061
145	0x3dd4b121	0.10385347
146	0x3e225608	0.15853131
147	0xbe83da56	-0.25752515
148	0xbe8c1e09	-0.27366665
149	0x3e85e1a9	0.26148728
150	0x3eafd03b	0.34338555
151	0xbd9828b9	-0.07429642
152	0xbc5fd589	-0.013661751
153	0x3d877c0f	0.06615459
154	0xbe59df3d	-0.21276565
155	0x3e24b4d0	0.160846
156	0xbcb8816e	-0.022522654
157	0x3be78883	0.007065834
158	0x3f0b3cd3	0.54389685
159	0x3dadf506	0.08494
160	0xbb4ae804	-0.0030961046
161	0x3d819d9c	0.0632889
162	0x3e5c1d16	0.2149547
163	0x3dfe71a2	0.124240175
164	0xbeac0192	-0.33594948
165	0xbe4c517d	-0.1995296
166	0x3eb7a09b	0.3586472
167	0xbd839c9d	-0.06426356
168	0xbe601606	-0.21883401
169	0x3c993e5e	0.018706497
170	0xbd4bf6ff	-0.0497961
171	0xbd29b571	-0.0414328
172	0xbdc675c7	-0.09690433
173	0xbe17b1a5	-0.1481386
174	0x3ea5e15a	0.32398492
175	0x3e472808	0.19448864
176	0x3ded9a2d	0.11601672
177	0xba3def41	-0.00072454294
178	0xbd745764	-0.059653655
179	0xbd1bffe2	-0.038085826
180	0x3e3ec4bf	0.1862974
181	0x3e50fc66	0.20408782
182	0xbea61138	-0.32435012
183	0xbdf41ed2	-0.11919941
184	0x3d9cc50c	0.07654771
185	0xbd87ab26	-0.06624441
186	0xbe8d813d	-0.27637663
187	0x3ddbc4e2	0.10730912
188	0x3a9543fd	0.001138806
189	0x3d8d3482	0.06894781
190	0xbdc0d174	-0.0941495
191	0xbf04044a	-0.51569045
192	0xbdeb717b	-0.11496254
193	0x3dbe42f9	0.09290118
194	0xbeb7eb0d	-0.35921517
195	0x3e4e99c6	0.20175847
196	0xbe9b3e3a	-0.30320913
197	0xbe703232	-0.23456648
198	0xbebc6573	-0.3679615
199	0x3f2d15f8	0.67611647
200	0xbb7322e3	-0.0037099652
201	0x3dfb611c	0.122743815
202	0x3dac17b5	0.08402959
203	0xbe230db8	-0.15923202
204	0x3db847d9	0.08998079
205	0x3e48cd3a	0.19609538
206	0xbeecec11	-0.46273854
207	0xbcff8f53	-0.031196272
208	0xbe820fde	-0.2540273
209	0x3ed8c530	0.42337942
210	0xbcfc5119	-0.03080039
211	0xbe46a8b4	-0.19400293
212	0xbe7932e9	-0.24335827
213	0xbe6491c6	-0.22321233
214	0xbc3014a6	-0.0107471105
215	0x3e3999ab	0.18125026
216	0x3d3b32a7	0.045702603
217	0xbe14d611	-0.14534785
218	0xbce61031	-0.028083893
219	0xbca74fff	-0.020423887
220	0x3b16cd74	0.0023010643
221	0xbdf93fee	-0.12170397
222	0x3e8cae16	0.27476567
223	0x3ee07bc4	0.43844426
224	0x3f0aa363	0.5415556
225	0x3dac1f2d	0.08404384
226	0x3ca18d54	0.01972071
227	0xbe82ea52	-0.25569397
228	0x3eb07986	0.34467715
229	0x3cb14b92	0.02164248
230	0x3ed2097b	0.41022858
231	0x3e331268	0.1748749
232	0xbe1cfa10	-0.15329766
233	0xbe66c68d	-0.22536679
234	0xbde88051	-0.113525994
235	0xbdacf8a1	-0.0844586
236	0xbd477438	-0.04869482
237	0xbdfd2f2f	-0.12362515
238	0xbeb73772	-0.3578449
239	0xbe264138	-0.16235816
240	0x3e25b9b8	0.16184127
241	0x3e9a1783	0.30096063
242	0xbf3213ed	-0.69561654
243	0xbe6b5868	-0.22982943
244	0xbf24363e	-0.64145267
245	0x3e348e70	0.1763246
246	0x3e36e969	0.17862476
247	0x3c933e4e	0.017974045
248	0x3f15d31c	0.5852525
249	0x3e2ac27a	0.1667575
250	0x3e012541	0.12611867
251	0x3d4d0bed	0.0500602
252	0x3dfd792f	0.123766296
253	0x40951a9e	4.659499
254	0xbdebc6ae	-0.115125045
255	0xbd4cff66	-0.050048254

linear_list.2.bias f4 [14]
0	0x3e8700c6	0.26367778
1	0x3e6e982b	0.23300235
2	0x3dbfd972	0.09367646
3	0xbe2361a1	-0.15955211
4	0xbe6383b0	-0.22218204
5	0xbd24b567	-0.04021206
6	0x3ead4b0c	0.3384632
7	0x3c2188bf	0.009859263
8	0x3e3b371e	0.18282744
9	0x3e174690	0.14773011
10	0xbf123eed	-0.5712727
11	0x3ee6c30f	0.45070693
12	0x3f35f68c	0.71079326
13	0xbe19f82c	-0.15036076
