prep/g0504-233203_gcas_gcas_outT/models/model100000.onnx (onnx, 8665 bytes, 6 tensors)

linear_list.0.weight f4 [32, 14]
000000 9a 74 36 3c e9 cf bf bb 68 79 8c be ec d2 c7 3c
       0.011136198 -0.0058536422 -0.27436376 0.024392568
000010 a4 ea c9 bc 83 7e 22 bc 42 33 87 bb 8c 35 81 bb
       -0.024648018 -0.009917858 -0.0041259835 -0.003943151
000020 d8 4a a2 bd a1 c3 02 3b 17 d4 fe 3a 6b 17 fd 3a
       -0.079244316 0.001995303 0.001944187 0.0019309347
000030 15 d2 62 bc c7 9d 0a c0 f4 09 d3 bc 65 a5 89 3c
       -0.013844033 -2.16588 -0.025761582 0.0168025
000040 05 d2 0d 3f da 8a c8 3d 3a 70 06 3d b9 92 0e 3d
       0.5539859 0.09792109 0.03282187 0.034807894
000050 fb e5 a9 3b 9b 83 85 b9 db b9 68 3c ad 3a c4 3b
       0.0051848865 -0.0002546579 0.014204468 0.00598844
000060 e8 cf 56 3b d4 40 07 3c e4 76 a3 ba e7 65 a3 bf
       0.003277773 0.008255202 -0.0012471345 -1.2765473
000070 d8 2e 2a bd 4d 3b 04 3c d1 e0 ff 3e 59 b9 20 bc
       -0.04154858 0.008070779 0.4997621 -0.009809815
000080 4a a1 89 3e d9 b5 95 3e 76 5a 20 3b 88 2d 30 3c
       0.26880866 0.292403 0.0024467981 0.010753043
000090 7a 69 b7 bc ca d6 9d 3b b0 9a bd ba 9d 81 a6 3c
       -0.022389162 0.0048168646 -0.0014465656 0.020325476
0000a0 ef 29 ba 3c 9f 4c 07 3f 4f e2 6b 3d 25 cd a1 3c
       0.022725074 0.5285129 0.05758887 0.01975114
0000b0 d5 03 03 3e 28 74 01 3e 74 04 3f be 9c ad c2 3c
       0.1279443 0.12641966 -0.18654042 0.023764424
0000c0 98 5a ea bb 2d 3b 9f bb 16 c8 ba 3d a5 a7 11 bc
       -0.007151913 -0.004859349 0.091201946 -0.008890067
0000d0 3e 11 b3 ba 45 51 bd 3c 2a 9c 59 bb b2 79 68 bf
       -0.0013661755 0.023110041 -0.0033204653 -0.9081069
0000e0 7d ca 62 3e 45 ff a9 bc d4 cd 34 3e bb 49 1e be
       0.22147556 -0.020751605 0.17656642 -0.15457813
0000f0 45 3f 4d 3e 73 69 e1 bd c1 b6 21 bc 83 ee ac bb
       0.20043667 -0.11006441 -0.009870232 -0.0052774563
000100 10 b3 28 bd 2f ec af b9 87 c4 61 3b 8f 49 44 3c
       -0.041186392 -0.00033554572 0.0034449415 0.011980428
000110 6e 9e 72 bb f0 af 42 3f 2e 56 a2 be 7d fb 67 bd
       -0.00370207 0.7604971 -0.31706375 -0.056636322
000120 4a 50 9c bd e6 f8 77 3d 76 c2 24 3e 6e a4 f8 3b
       -0.076325014 0.060540102 0.16089806 0.007587961
000130 a6 f7 e7 3a 65 4a 0e bb ba 28 47 3e 83 2d 05 bc
       0.0017697706 -0.0021711823 0.1944913 -0.008128527
000140 c9 86 c9 bb 59 68 15 3d 66 33 62 bc 0f 4e d7 3e
       -0.006150101 0.036476467 -0.0138062 0.4205174
000150 e6 e4 82 3b 9a d2 ff 37 0a c3 1f bd b0 03 de 3c
       0.003994572 3.0496438e-05 -0.039004363 0.027101368
000160 b3 27 32 b9 7a 65 61 3b bc 97 80 3a 6e a0 38 3a
       -0.00016990192 0.003439276 0.0009810845 0.0007042949
000170 8f 79 46 3b e3 52 e6 39 a4 0b b8 38 30 9a 4b 3a
       0.0030284857 0.00043930774 8.775972e-05 0.0007766811
000180 57 7a b4 3a 55 25 51 40 f7 9c 0d 3d 8c cb 15 bc
       0.001376937 3.2679036 0.03457352 -0.009142768
000190 89 c5 2d 3e 69 85 01 bf 92 b3 2f be cb b7 1e 3c
       0.16969885 -0.5059419 -0.17158344 0.009687374
0001a0 f3 68 55 3c e8 13 49 3c 71 4a 50 bd 27 93 d1 bc
       0.01302551 0.012272812 -0.050852243 -0.025582863
0001b0 33 b9 ec bc 47 86 07 3b 43 ff 27 bb d9 2d 04 bf
       -0.028896904 0.00206794 -0.0025634326 -0.5163246
0001c0 26 1e 3a 3e 97 3c a8 bc f3 54 9b be 26 e2 51 3e
       0.18175563 -0.020536704 -0.3033825 0.20496425
0001d0 1d 9a b4 be b3 3f 87 3d a6 f0 5c 3a b1 27 3f 3c
       -0.3527383 0.066039465 0.00084281934 0.011667178
0001e0 a3 c7 12 3e fb 9d eb 39 84 3d 97 bb f8 43 8f 3d
       0.14333968 0.00044940397 -0.0046154875 0.06995386
0001f0 07 62 4f 3c b4 e9 f5 3e 14 3e db bd 4e 56 49 3c
       0.012657649 0.48029864 -0.107052 0.012288643
000200 98 10 b1 3e aa c6 34 be 84 19 18 bf 7c 18 4f 3d
       0.34582973 -0.1765391 -0.59413934 0.05056046
000210 b9 77 d6 bb a1 f9 d1 ba f3 c7 38 3d 3c 69 91 3b
       -0.006545034 -0.001601983 0.04511256 0.0044375937
000220 bf 41 a2 bb 88 cf 61 bd f3 0e 48 3d 57 1b d4 3e
       -0.004951685 -0.055129558 0.04884238 0.4142711
000230 dc c9 f0 bd fb 77 59 bd 68 1b e4 3d 12 54 80 3d
       -0.117572516 -0.053092938 0.1113804 0.06266035
000240 e1 68 a6 bd 42 63 5d be 2f e5 26 3b 9c 62 d6 3a
       -0.08125473 -0.21619895 0.0025466194 0.0016356292
000250 d4 83 ad be d7 d0 86 3b e5 e3 0c bc 24 39 48 3d
       -0.3388964 0.004114251 -0.008599256 0.04888262
000260 89 b4 9e 3c b5 c1 f4 3e 0b 0a d9 3d 69 92 fc 3c
       0.019373195 0.47804037 0.10597619 0.030831533
000270 5b f2 ab be 67 de 18 3e af a7 34 3d a3 8b 1d bd
       -0.3358334 0.1492859 0.044105228 -0.038463246
000280 54 56 b3 bc d6 f1 0e bc 06 f4 01 3e 4c 1d e9 3c
       -0.02189175 -0.00872465 0.12690744 0.028456353
000290 ce 04 9e 3c f7 41 a0 bd 90 af 0c be f2 c1 cf be
       0.0192894 -0.07825082 -0.13738847 -0.40577656
0002a0 78 41 64 3d 3c 9b 7b 3d a8 69 48 be ad 2f 22 3e
       0.0557265 0.06142734 -0.19571555 0.158385
0002b0 72 1c 5e 3d d0 a0 87 3d b8 53 5e bc 01 87 d8 3a
       0.054226346 0.066224694 -0.013569765 0.0016519726
0002c0 ad 65 5d bd d3 8c 1a 3c 44 38 84 3b 0a 1f b3 3c
       -0.054052044 0.009432989 0.0040350277 0.021865387
0002d0 d3 dc 02 3e f6 21 13 3d 83 e1 cf bd bf 60 c9 3d
       0.1277955 0.03592106 -0.10150435 0.09832906
0002e0 97 77 26 3d 53 65 92 bc 12 8d a3 be ff 49 ad 3b
       0.040641394 -0.01787058 -0.31943566 0.005288362
0002f0 45 40 bf bc d1 f8 e6 b9 6e 96 28 3e 2c 81 75 3a
       -0.023346076 -0.000440544 0.16463634 0.00093652564
000300 f3 06 c7 3c 83 b4 a4 3d 26 2e fd bc 45 bd 00 3f
       0.024295306 0.080422424 -0.030905794 0.502888
000310 7c 18 92 bb 23 87 00 3c f5 30 b0 3c 94 63 b0 3f
       -0.004458485 0.007844719 0.02150772 1.3780389
000320 ed 1a bc bc 86 50 05 3c 15 61 7e 3a 01 57 1f bc
       -0.022962058 0.008136874 0.00097037974 -0.009725333
000330 3c d7 74 bc f4 2d cb 3b 11 db b6 3a 90 99 00 3c
       -0.014943894 0.0062005464 0.0013950785 0.007849112
000340 01 0b 26 3b 04 6f 3e bf 04 a3 9e bd 83 1d 82 3c
       0.0025336149 -0.74388146 -0.077459365 0.015883213
000350 57 7d d9 3d 97 c8 2d 3e 85 f6 15 3e 43 cc 89 3d
       0.1061961 0.1697105 0.14644821 0.06728413
000360 c0 b0 56 3b 41 18 80 bb 34 5c 17 be 2e 38 b3 3b
       0.003275916 -0.0039091413 -0.14781266 0.0054693436
000370 e9 d9 f9 3b 30 ae 81 3c 78 66 83 bc 60 30 92 3f
       0.007624854 0.01583013 -0.016040072 1.1421013
000380 7e 61 c9 bb a0 2a 7e 3b 20 ac f4 3d 33 c6 69 bd
       -0.006145655 0.003878273 0.11946893 -0.057073783
000390 32 c4 9f bc 0f d1 18 3c f3 ca 6f ba 92 e7 e5 38
       -0.019502733 0.009327187 -0.0009147368 0.00010962704
0003a0 52 fc 23 bc da a0 f8 3a 3e 24 7d 3b 69 7c 2b 3b
       -0.010008888 0.0018968836 0.0038626338 0.0026166684
0003b0 6b 02 a4 bc 15 16 a4 bf d1 b2 9b 3b 03 00 91 3a
       -0.020020684 -1.2819239 0.004751541 0.0011062626
0003c0 09 79 c0 3d 4f 5b 19 3f 01 66 a9 3d fb 2d 88 bd
       0.093980856 0.5990495 0.08271409 -0.06649395
0003d0 20 ad 1c 3c 99 1a 0c 3b 9f c6 7f 3d 13 52 6f 3c
       0.009562761 0.0021378158 0.06244528 0.01460697
0003e0 c9 cb 7e 3c 5e 06 64 3d 4b 62 51 bd 12 25 51 3d
       0.015551516 0.055670135 -0.05111913 0.051060744
0003f0 06 96 5a bc 62 f0 40 bb 94 d8 45 3c e8 16 82 bf
       -0.013341432 -0.0029440154 0.012075562 -1.016324

linear_list.0.bias f4 [32]
000000 51 be 83 3f 19 72 a6 3f 70 06 0a be 31 56 1f 3f
       1.0292455 1.300357 -0.13479018 0.6224089
000010 50 11 2f 3f de 74 24 3f 15 6c b5 be 7f 91 39 3e
       0.6838579 0.64240825 -0.35434023 0.18121909
000020 c1 ca c2 3f 76 f1 a9 3f d6 e8 3f 3f 2c 8a 42 3d
       1.5218126 1.3276813 0.74964654 0.047495052
000030 35 b3 24 3f 23 6a ab 3e 32 3d 9c 3e 6b 65 38 3f
       0.6433595 0.33479413 0.30515438 0.7202975
000040 07 18 c0 3f 05 98 0a 3e b0 b9 05 3f f9 a3 29 be
       1.5007333 0.13534553 0.5223646 -0.16566457
000050 fa 18 36 be 63 be 63 3f 18 04 19 bf 3b 1b 35 be
       -0.17782965 0.8896238 -0.5977187 -0.17686169
000060 e8 7b 88 3f f5 8c bd be b5 31 59 3f 78 10 96 3c
       1.0662813 -0.37021604 0.8484147 0.0183184
000070 7a f8 e0 3e 8a 03 78 3f 1c 4f 17 3e 8d 6d 2e be
       0.43939573 0.968804 0.14776272 -0.17033978

linear_list.1.weight f4 [32, 32]
000000 fd 99 88 be 52 02 16 3f 2b f0 73 3d 5e bb db 3e
       -0.26679984 0.5859729 0.059555214 0.42916387
000010 12 97 16 bd 15 7e fc bd 02 f7 36 bf 7c b8 08 3e
       -0.036765166 -0.12328736 -0.71470654 0.13351625
000020 b3 26 3a be 93 08 ba bc 03 13 64 3d 6a ab 63 bd
       -0.18178825 -0.022709167 0.055682193 -0.055583395
000030 29 24 27 bd f7 91 dd bd e4 af 8a 3d 1b f4 11 be
       -0.04080597 -0.10818856 0.0677183 -0.14253275
000040 17 a2 13 3e 7d 4e 3e 3d 4e 9c de 3c dc 83 4b bf
       0.14417301 0.04646157 0.027174141 -0.79498076
000050 2a 14 44 bf 0e 15 59 3d e8 37 05 be a9 d2 52 bf
       -0.7659327 0.052998595 -0.13009608 -0.8235269
000060 23 cb dd bd 5c 0c 08 be bc 08 0f be ec 62 be 3c
       -0.10829761 -0.13285965 -0.13968176 0.023240529
000070 ff fc 8c 3e b4 d1 fc bd d0 97 34 3b 29 48 44 bd
       0.2753677 -0.12344685 0.0027556308 -0.04792038
000080 6e 6a c7 bd bc 56 43 be e1 08 d8 be da 55 a3 bc
       -0.09737097 -0.19076055 -0.42194274 -0.019938398
000090 ef 42 0a bd 0d 68 53 be 1f ae bb 3b 67 dd 57 be
       -0.03375524 -0.20645161 0.005727544 -0.21080552
0000a0 80 e7 ff bd 44 3e ac bd fd 41 c0 3c c8 20 0e be
       -0.12495327 -0.08410314 0.023468966 -0.13879693
0000b0 18 86 eb bd f6 77 cf 3b 32 f4 2a bd 55 53 1c be
       -0.11500186 0.006331439 -0.04173679 -0.15266164
0000c0 e8 d3 8d be aa f1 be 3d 6c bd 8b be 58 2f 8e 3e
       -0.27700734 0.093234375 -0.27292955 0.27770495
0000d0 1c 22 39 be e4 0c 96 be 16 14 64 3e 14 a4 55 3e
       -0.18079418 -0.2930671 0.22273287 0.20863372
0000e0 dd 82 f9 bc fc d6 da 3e b4 58 03 be d2 52 88 bd
       -0.030457908 0.42742145 -0.12826806 -0.06656422
0000f0 e5 54 1b 3c 68 56 a2 bd 00 00 bb bd 28 37 62 3e
       0.00948069 -0.07926637 -0.091308594 0.22091353
000100 a1 9d 46 be da f4 b7 3c 6e 44 35 3d 92 f8 11 be
       -0.19396068 0.022455622 0.044254713 -0.14254978
000110 8d 99 0a 3e 19 00 12 3d 2d 7f e0 3e 40 24 0b be
       0.13535137 0.035644624 0.43847027 -0.13588047
000120 b5 0a f1 be 2b 60 cd be 03 92 06 be d6 8d 93 3c
       -0.4707848 -0.40112433 -0.13141637 0.018011969
000130 43 d7 33 be e8 6e c5 bd be 22 4d bd e1 57 57 3d
       -0.17562585 -0.09640294 -0.05008196 0.052574042
000140 a2 30 04 bd 3b 84 5f 3d 89 1e a5 be 76 da 82 be
       -0.032272942 0.054569464 -0.3224986 -0.25557297
000150 65 29 7a 3e 6d c3 b5 be 1a f9 5c 3e 10 a7 c2 3d
       0.24429853 -0.3550066 0.215794 0.09504521
000160 e2 1d 4b bd 81 4b 23 3e 97 4a da be 3d aa 08 be
       -0.049589045 0.15946771 -0.42635033 -0.13346191
000170 a6 6f 2d 3e c4 22 01 be 43 17 90 3d bc 64 72 bc
       0.16937122 -0.12610918 0.07035687 -0.014794525
000180 cc 5a 77 3e 02 de aa bd bf 74 46 3e c5 52 c5 bc
       0.2415573 -0.08343126 0.19380473 -0.02408732
000190 de 9a 57 3e be 06 4b be 0b 4c 80 3e 6c 58 88 3e
       0.21055171 -0.1982679 0.25058016 0.2662996
0001a0 78 e7 10 be 46 21 8e 3e c0 d1 8b be 02 ba 0c bd
       -0.14150798 0.2775976 -0.27308464 -0.03435708
0001b0 27 c8 9b bb 3a 07 e8 bd 10 e2 13 bb c8 4e 60 3e
       -0.0047540846 -0.11329503 -0.0022565164 0.21905053
0001c0 10 02 ba 3e eb 47 98 3c 8c 80 33 be 12 a9 2b 3e
       0.363297 0.01858898 -0.17529505 0.16763714
0001d0 aa 74 cf 3d b0 93 06 be d2 5a 2e be 71 ad c6 bc
       0.10129674 -0.13142276 -0.17026833 -0.024252625
0001e0 7d 66 37 3d 8e 9f 6e bd d8 36 2b 3e 06 a6 ad bc
       0.044775475 -0.058257632 0.1672014 -0.02119733
0001f0 ad 58 58 3e 95 92 6a bc d1 a7 28 3e 42 f2 c0 be
       0.21127577 -0.014317174 0.16470267 -0.37684828
000200 6c 0d 93 be e0 f8 96 be ab 4a 13 bb 54 67 57 be
       -0.28721178 -0.29486752 -0.0022474925 -0.2103551
000210 41 7c 4e 3e 43 e9 a2 3d 08 94 c2 be 08 52 2a 3d
       0.20164587 0.079546474 -0.38003564 0.041582137
000220 ba f4 6d 3e cd 49 a7 3e 2b b0 28 3d 1d 68 02 bd
       0.23237887 0.32673493 0.041183632 -0.03183757
000230 02 28 4e 3e 9d 5e cb 3d da dc 03 be 55 a4 d2 3d
       0.2013245 0.099301554 -0.12877217 0.1028525
000240 a0 3d 4c be 71 d5 0c 3e 9c 1b c0 3c 75 5b 61 3e
       -0.19945383 0.13753296 0.023450665 0.22007544
000250 d7 d9 2f be 2b 52 19 be ef 44 88 3d 5c 47 1a 3e
       -0.17172943 -0.14972751 0.06653773 0.15066284
000260 c2 5b 14 3e 7a 4e 5b 3e 2f 19 4c 3e 79 d3 f4 3d
       0.14488128 0.21416655 0.19931482 0.11954398
000270 66 67 2c 3c 74 7b d8 bd 86 a9 ad 3c d5 a7 32 3e
       0.010522699 -0.10570422 0.021199 0.17446835
000280 fa bd 84 be 8e 44 d6 bc e8 69 06 bd ff 96 e3 bd
       -0.2592619 -0.026155736 -0.032815844 -0.111127846
000290 a2 8c 90 bd 96 57 1c 3c 81 1b 08 be 30 c5 f2 bd
       -0.070580736 0.0095423665 -0.13291742 -0.11854017
0002a0 1d 05 9c 3e 1c d8 a9 3e 56 a9 7a bd 60 c1 c9 3d
       0.3047265 0.3317269 -0.061196648 0.098513365
0002b0 45 6b d8 bd 5f 34 06 3e c7 1b 91 3d 41 3f 7a bd
       -0.10567335 0.13105915 0.07085376 -0.06109548
0002c0 b1 c9 84 be 06 eb 98 bb 0c 34 b6 3b 3f 16 2e 3e
       -0.25935128 -0.004666689 0.0055604037 0.17000674
0002d0 8d dd d0 bd 6f 5c 84 3d d4 ce 34 3d ec 4c 77 3e
       -0.101985075 0.06462943 0.04414256 0.24150437
0002e0 1c 89 8b 3e 92 3d 75 3e b5 ab 9a bc ab d7 54 3e
       0.27253044 0.23949268 -0.018880704 0.20785396
0002f0 0e 52 4e be 3c 64 ec 3e 2b 70 a8 bd ea 74 9a bd
       -0.20148489 0.46170223 -0.08224519 -0.07541831
000300 b4 49 7d be c0 41 10 3e b8 25 21 bd fd 66 26 3e
       -0.24735147 0.14087582 -0.039342612 0.16250224
000310 81 21 c3 3d 8e 90 79 3d 88 ba 03 3f 06 f0 b8 3d
       0.09527875 0.060928874 0.514565 0.09030156
000320 ac 99 02 be 1f f2 da 3d f5 c4 23 be a9 8a 40 3d
       -0.12753934 0.10690712 -0.15993102 0.047007237
000330 8b a2 ce bd 1b 05 a9 3c 3f 45 b1 b8 33 57 d6 3d
       -0.10089596 0.020632317 -8.452916e-05 0.10465851
000340 9b 2a e3 bd 9d af 1c 3e bf 76 99 be 43 05 2e 3e
       -0.11092111 0.15301366 -0.2997341 0.16994195
000350 7a 77 fb 3e 74 2d 90 be d2 38 8c 3c de d3 d5 3e
       0.4911459 -0.28159678 0.017116938 0.41763204
000360 58 e9 3a 3e 53 b3 db 3e c9 9e 46 3d 61 ef 6b bb
       0.18253076 0.4291025 0.048491273 -0.0036000835
000370 e2 96 ae be 9f 0a d9 be e1 6d 80 3d e6 b5 88 bc
       -0.3409949 -0.42390916 0.06270958 -0.016688298
000380 44 53 23 be 7d 8b 98 3c 76 41 1d 3e cd e8 22 3d
       -0.15949732 0.0186212 0.15357003 0.039772797
000390 3b e4 3f be 27 17 d4 3e 51 ae df bd 21 18 fb bc
       -0.18739407 0.41423914 -0.1092192 -0.030651154
0003a0 3a 23 4b 3e 9f c6 5c 3e 91 4f 1c be c2 df 34 3b
       0.19837657 0.21560143 -0.15264727 0.002759919
0003b0 44 c1 0b 3e d1 99 23 3e 55 74 5c bc 37 7e c7 3e
       0.13647944 0.15976645 -0.01345547 0.38963482
0003c0 d4 d7 2b 3e f0 6d e7 bd c3 ee 88 3e 56 a0 a6 3c
       0.1678155 -0.11300266 0.2674466 0.020340126
0003d0 76 a9 27 3e 71 5a 48 3e 0a 11 e2 3d c0 ea 97 3d
       0.16373238 0.1956575 0.11038406 0.07417822
0003e0 89 cd 1f bd 28 45 8e bd 44 5c 17 bd 17 6c d8 3d
       -0.039014373 -0.06946784 -0.036953226 0.105674915
0003f0 ad f6 0d be f2 f5 9f 3d ec 9a 14 be f5 90 9a be
       -0.1386363 0.07810582 -0.14512223 -0.30188718

linear_list.1.bias f4 [32]
000000 16 35 7c 3e f1 0b a2 be 49 bb 9e be 81 48 f9 3d
       0.24629626 -0.31649736 -0.31002262 0.12172032
000010 44 80 8b 3e 1f 28 86 3e d0 74 b0 be 09 97 8f 3e
       0.27246296 0.26202485 -0.3446412 0.28044918
000020 0e 95 1d 3e ff a6 22 be f7 4f 79 3e f1 df 17 be
       0.15388891 -0.15884016 0.2434691 -0.1483152
000030 3d 46 5d 3d b3 e1 6f 3e 79 db 3a be fe 17 50 bd
       0.054022063 0.23425941 -0.18247785 -0.05080413
000040 00 cc 7b bd e1 28 9d 3e 69 5c fa bd 64 ff 02 3f
       -0.061473846 0.3069525 -0.12224657 0.51170945
000050 39 1c 94 3e a2 ef 18 bf 05 e7 db 3d 33 da be 3d
       0.28927782 -0.5974065 0.10737423 0.09318962
000060 9b cd cd 3d 62 fa 4d be 87 1a db 3d ad a2 79 3e
       0.10048982 -0.20115045 0.10698419 0.24378462
000070 c1 41 3f 3f 70 fe 12 3f e5 14 a5 be ed 4d bc bf
       0.7470971 0.5741949 -0.32242504 -1.4711281

linear_list.2.weight f4 [14, 32]
000000 31 75 c8 3d 82 ad fd 3d 5c d5 f0 3d 9a 24 28 3e
       0.097879775 0.123866096 0.11759445 0.16420212
000010 66 bc a2 3c 8b f2 28 3e b7 4e 69 3d 0e 82 01 bd
       0.019865226 0.16498773 0.056959834 -0.03161817
000020 58 72 bc bd e7 33 10 be 69 7e 0c bd 29 3c 23 3e
       -0.09201497 -0.14082299 -0.03430024 0.15940918
000030 b5 a2 22 be c9 df 24 be bf d9 0a be 46 7d e3 3d
       -0.1588238 -0.16100992 -0.13559626 0.111078784
000040 04 df 8b 3d eb 1f b8 bd f8 a2 56 bd 49 9b 7d 3c
       0.06829646 -0.08990463 -0.052401513 0.015478917
000050 a3 69 ad 3c d3 5e 9c 3d 0d d7 1b be dc 94 00 3e
       0.021168536 0.07635274 -0.15218754 0.12556785
000060 0d fd a3 3d 9b f0 28 be f8 20 28 be 37 07 08 be
       0.0800725 -0.16498034 -0.16418827 -0.13284002
000070 55 64 7a bd 94 a6 f0 3d c4 8b dd 3d 8c db 7c bc
       -0.06113084 0.11750522 0.10817674 -0.015433203
000080 40 46 ac 3c 4f 72 cf 3d e7 da 17 bf d7 24 2a 3e
       0.021029592 0.101292245 -0.59318393 0.16615616
000090 20 0e 58 3e ad eb 65 3c b1 fb ec bd 14 f2 99 be
       0.21099138 0.01403324 -0.11571444 -0.30067503
0000a0 3e 9e 5d 3d b2 13 10 bc de 44 0a be 55 ab 9b bc
       0.05410599 -0.008793758 -0.13502833 -0.019002596
0000b0 27 1c c8 3e 2e 4b 23 3f 17 87 48 3d f8 db bc be
       0.3908398 0.6378659 0.048956957 -0.36886573
0000c0 20 b0 c2 3d fc 1b 7a 3e 2e cd b2 bc d9 c8 99 3e
       0.095062494 0.24424738 -0.021826353 0.30036047
0000d0 19 12 af be 80 73 c3 3d 3f 1d 74 be 6f fc cc bd
       -0.34193495 0.09543514 -0.23839281 -0.100090854
0000e0 0c 27 db 3d 85 e0 f7 bb 88 0a 3c be 23 bd 2d 3e
       0.10700807 -0.0075646066 -0.18363392 0.16966681
0000f0 76 ce ca bd 0d cc 92 bc 57 7b b5 3d 4e 8a 3b 3e
       -0.099026605 -0.017919565 0.08861416 0.18314478
000100 00 36 89 3e 0b 5d 53 bd 36 60 f2 3e 43 0f 60 be
       0.2679901 -0.051602405 0.47339028 -0.21880822
000110 9d 5c 8d be 7e e5 c9 3c 55 a3 8c 3e ed 94 e0 ba
       -0.2760972 0.024645563 0.27468362 -0.0017134227
000120 95 15 4d 3e 36 73 87 3e 32 0c 01 bf dc 8d ad 3d
       0.20027764 0.26455086 -0.50409234 0.08474323
000130 b8 94 75 be c9 9b 2e bd ac 2d aa 3e c5 81 e5 3d
       -0.23982513 -0.042629037 0.3323797 0.11206392
000140 82 4b a7 3e 13 bd c6 bd 67 0a 3f 3d dc c4 68 be
       0.32674795 -0.09704032 0.04664078 -0.22731346
000150 1e 84 8a bb fd d0 e8 be 9f c3 83 bc 87 98 72 be
       -0.0042271754 -0.45471945 -0.01608449 -0.23690997
000160 f5 ac 3d 3e 73 5f 5f bd eb e0 08 3d f8 7e 68 bd
       0.18523009 -0.054534387 0.033417623 -0.05676171
000170 db 3b 94 bd 8c 62 51 3e 89 41 9d be 34 27 01 c0
       -0.07237979 0.20447749 -0.30714062 -2.0180178
000180 3c 89 ab 3f eb 2a 96 3e 9a 66 dc bc a1 0a 7c 3e
       1.3401256 0.2932962 -0.026904393 0.2461343
000190 fe 1a 29 be 55 e8 c0 be 95 1a 3c bf cc 89 bf bd
       -0.16514203 -0.37677255 -0.7347806 -0.093524545
0001a0 bf f0 3b 3e 9a a4 85 bf d1 32 2e bf 83 5a 97 3d
       0.18353556 -1.0440857 -0.6804629 0.073903106
0001b0 88 fb 15 bc b0 21 ff bd 77 56 71 3f 7e eb 7a 3e
       -0.009154208 -0.12457597 0.9427256 0.24503896
0001c0 6f 6c 98 be 8e 83 44 be 1a 3e c5 be 70 98 85 3e
       -0.29770228 -0.19190809 -0.38523942 0.26092863
0001d0 c0 b1 4b be 27 56 bb 3c 56 19 d9 3d be 86 01 bf
       -0.19892025 0.02286823 0.106005356 -0.50596225
0001e0 58 f1 ad bf 74 88 2c 3e b9 2f e6 3e 0b cb 99 3e
       -1.3589277 0.16848928 0.44958284 0.30037722
0001f0 b3 94 a2 3f 47 65 d5 bc d7 72 c6 be 7d 6f c7 3c
       1.2701629 -0.02604927 -0.3875949 0.024345154
000200 4c d0 09 be ca d6 d2 3d 20 82 bf be ca 37 27 bf
       -0.13458365 0.10294874 -0.37403965 -0.653195
000210 ae c8 75 bd 29 1d dc bd 7e 77 e3 be a9 70 92 3d
       -0.060005836 -0.10747749 -0.44427103 0.071503945
000220 df 8a 64 3d d1 8c 9a bd 9e 36 fd bd e9 6d 69 3d
       0.0557965 -0.0754639 -0.12363933 0.056989584
000230 99 18 98 3e bb 83 13 3e da 5d b6 3e 1a 8a d0 3e
       0.29706267 0.1440572 0.35618478 0.40730363
000240 ab 6f be be ac a8 bf 3d 15 83 01 3e b0 71 49 be
       -0.3719457 0.093583435 0.1264766 -0.19672275
000250 2d 48 8f be 81 d1 10 3e a0 4a 98 3e ac b8 e5 bd
       -0.27984753 0.1414242 0.29744434 -0.11216864
000260 16 38 f5 3a 0f 7c 87 3d 4c 40 6f be a0 7c 1e 3e
       0.0018708732 0.06615459 -0.23364371 0.15477228
000270 b5 32 51 bd 3a fe b6 bc 75 73 fa 3e 75 0a a7 3d
       -0.05107375 -0.022338022 0.48916212 0.081562914
000280 c9 86 f4 bc b1 52 a8 3b 08 8e 07 3e 36 e8 b9 3d
       -0.029849427 0.0051368107 0.13237774 0.09077494
000290 59 4b 96 be 97 6d 41 be 0c f2 f3 3d 1d ab f7 bc
       -0.2935436 -0.18889461 0.11911401 -0.03023296
0002a0 1d 55 5b be 25 ab 13 3c fc aa 3e bc 71 b5 29 bd
       -0.21419187 0.009012972 -0.011637446 -0.0414328
0002b0 1f 76 c6 bd d4 80 1f be df 89 0e 3e ed ff a9 3d
       -0.096904986 -0.15576488 0.13919781 0.08300767
0002c0 7c ba d6 3d e0 6e a1 3c c4 9b 97 bd cb 3d c1 bc
       0.10484788 0.01970619 -0.07402757 -0.023589035
0002d0 9e 5d de 3d 66 a2 ad bc 36 d0 a8 be 02 4b eb bd
       0.108577 -0.021195602 -0.32971352 -0.11488916
0002e0 df 4f 96 3d 26 ab 87 bd 68 7c 85 be 19 f0 10 3e
       0.07339453 -0.06624441 -0.26071477 0.1415409
0002f0 e2 40 64 3b 84 f6 75 3d 2a e2 0f be ea 16 0a bf
       0.0034828712 0.06004955 -0.14051118 -0.53941214
000300 10 f4 b5 bd 51 48 3b 3e 01 b4 9b be 22 c0 54 3e
       -0.08884442 0.18289305 -0.3041077 0.20776418
000310 36 ad 9a be f6 87 53 be 0d 11 eb bd b0 2a 1f 3f
       -0.30210274 -0.20657334 -0.114778616 0.6217451
000320 b5 e7 a0 3c b6 c7 08 3e 3b 8c 6a 3d b8 0d 23 be
       0.019641737 0.13357434 0.05726264 -0.15923202
000330 d1 46 b8 3d b3 f5 58 3e d2 02 82 be 5f 56 38 3d
       0.08997882 0.21187477 -0.25392777 0.045004245
000340 a8 9c 72 be d0 c4 c4 3e ca c4 69 bc e7 c1 40 be
       -0.23692572 0.38431406 -0.01426811 -0.18823968
000350 0f 1e 0e be 76 67 9e 3b bb 5f 80 bc 37 87 34 3e
       -0.13878654 0.004834111 -0.015670648 0.17629705
000360 7c 09 49 3d 11 d6 14 be 7f 9c 54 bd 0d fd 29 bd
       0.04908131 -0.14534785 -0.05190706 -0.041501094
000370 61 67 3c 3c 8d 0e f6 bd 90 fe a2 3e 93 24 db 3e
       0.011499257 -0.12014494 0.3183484 0.4280134
000380 99 43 10 3f bf 05 ea 3d cc 53 35 3d 1f 2f 86 be
       0.56353146 0.11426877 0.044269368 -0.26207826
000390 e6 97 b8 3e 06 74 09 3d b2 2c ee 3e 1b 9d 27 3e
       0.3605339 0.033557914 0.46518475 0.16368525
0003a0 b0 f3 20 be 24 da 6b be 76 19 10 be a1 f8 ac bd
       -0.1571796 -0.23032433 -0.14072213 -0.0844586
0003b0 bb 6e 47 bd f5 c6 0d be 34 6f 86 be 09 47 ce bd
       -0.048689585 -0.13845427 -0.26256716 -0.10072143
0003c0 25 86 13 3e ce f5 a2 3e 06 d5 2e bf 98 9a 69 be
       0.14406641 0.3182816 -0.682938 -0.22812879
0003d0 33 62 20 bf 1b 47 49 3e 4d 52 3f 3e 6e cb 62 3c
       -0.6264984 0.19656031 0.18683739 0.013842447
0003e0 dd 0f 10 3f 7a c2 2a 3e 6a c3 f5 3d 09 fd e5 3c
       0.56274205 0.1667575 0.12000163 0.028074758
0003f0 fd ac 99 3d 8d 1c 90 40 1c 94 cf bd 80 82 02 bd
       0.07503698 4.503485 -0.101356715 -0.031862736

linear_list.2.bias f4 [14]
000000 bc 4f b6 3d 91 6d 95 3e 9a c1 8c 3c 48 85 08 be
       0.08901927 0.29185155 0.01718216 -0.13332093
000010 fe 6b 62 be 2b f1 be bd 46 18 cc 3e 63 36 d2 3c
       -0.22111508 -0.09323343 0.3986227 0.0256607
000020 32 02 51 3e a5 3b 66 3e bf 15 1d bf 7b d9 f5 3e
       0.20410994 0.2248369 -0.61361307 0.48017487
000030 d8 a9 35 3f 31 3b 3e be
       0.70962286 -0.18577267
