prep/g0504-233203_gcas_gcas_outT/models/model150000.onnx (onnx, 8665 bytes, 6 tensors)

linear_list.0.weight f4 [32, 14]
000000 da 56 31 3c 4f 6f b3 bb fa fe 8e be 83 8b 60 3c
       0.01082393 -0.0054759155 -0.27928907 0.013705137
000010 6f 13 c0 bc d4 7c 09 bc 0a 7c 8b bb 7e e2 65 bb
       -0.023446767 -0.008391578 -0.00425673 -0.0035077627
000020 d6 21 8c bd 92 19 97 3a 4d d8 cf 3a 06 84 20 3b
       -0.06842391 0.0011528006 0.0015857309 0.0024492755
000030 31 10 7c bc 59 b4 0a c0 ee 88 e1 bc 45 88 85 3c
       -0.01538472 -2.1672575 -0.027531113 0.01630033
000040 6d 9e 09 3f db d8 c0 3d 18 1c 06 3d 27 a1 11 3d
       0.53757364 0.09416362 0.032741636 0.035554077
000050 ae cd ac 3b 98 6a 27 b9 cc e9 99 3c f7 3e cb 3b
       0.0052735424 -0.0001596607 0.01878824 0.0062025744
000060 67 97 34 3b 17 67 11 3c 6c 7e fb b8 b8 f0 a3 bf
       0.0027556063 0.008874676 -0.000119921606 -1.2807837
000070 8e dd 2c bd 88 10 1b 3c 0a 19 02 3f 81 63 1c bc
       -0.04220348 0.009464391 0.50819457 -0.009545208
000080 be 2d 87 3e de 7f 95 3e 73 e7 03 3b 77 be 30 3c
       0.26402086 0.29199117 0.0020126968 0.010787598
000090 e5 68 c6 bc cf 70 a5 3b 69 71 b1 ba f8 79 a4 3c
       -0.02421994 0.005048848 -0.0013537827 0.02007769
0000a0 c2 ea cb 3c d8 dd 04 3f 65 2d 66 3d 0f 2a 9e 3c
       0.024892215 0.51901007 0.056195635 0.019307164
0000b0 46 ce f5 3d 7e 9c f7 3d e2 40 41 be 4c 6a cb 3c
       0.12002234 0.120903954 -0.18872407 0.02483096
0000c0 91 74 f3 bb a4 29 a4 bb 09 13 be 3d dc 70 10 bc
       -0.0074296673 -0.0050098468 0.092809744 -0.00881597
0000d0 3e 6b b2 ba 94 5c c2 3c d1 61 16 bb 88 19 69 bf
       -0.0013612283 0.023725785 -0.0022946487 -0.9105458
0000e0 ff dd 68 3e cb a9 b8 bc 78 c1 30 3e e3 3e 1a be
       0.22740935 -0.022541901 0.17261302 -0.15063052
0000f0 bf 00 47 3e c0 8f da bd 87 d6 15 bc ec d1 9b bb
       0.19433878 -0.106719494 -0.009145386 -0.0047552492
000100 10 c0 2c bd 90 d8 62 ba f9 e1 6b 3b b7 aa 2b 3c
       -0.042175353 -0.0008653486 0.0035992844 0.010477713
000110 99 8b 21 bc b8 7f 43 3f 06 03 a2 be 99 59 68 bd
       -0.009859943 0.7636676 -0.31642932 -0.056726072
000120 10 af 95 bd 4f da 80 3d 21 88 24 3e 8c 6b fc 3b
       -0.07308781 0.06291639 0.16067554 0.0077032503
000130 de ee 05 3b 32 ae 0f bb 37 9b 44 3e 9b ce 05 bc
       0.0020436565 -0.0021923897 0.19199835 -0.008166934
000140 cd 98 c6 bb 51 90 10 3d 0d 52 7c bc 90 69 d5 3e
       -0.0060606957 0.03529388 -0.015400422 0.416821
000150 6a bc a2 3b 58 e0 94 ba 8e a3 45 bd 70 4f c6 3c
       0.0049663084 -0.0011358364 -0.04825168 0.0242078
000160 31 7a 94 3b a7 8f 4b 3b 2d 09 9a 3a 23 8f 6e 3a
       0.004531168 0.0031060965 0.0011752002 0.00091003085
000170 e9 51 d2 3b 10 e1 cc 39 5c f4 86 38 a2 a5 35 3a
       0.006418456 0.00039077597 6.4351334e-05 0.0006929283
000180 a8 0c 0f bb 59 fa 4d 40 c2 34 0f 3d 0d 8f 17 bc
       -0.0021827612 3.218405 0.034962423 -0.009250415
000190 23 a3 2a 3e 3e d8 ff be 3e d0 2d be 86 35 28 3c
       0.16663794 -0.49969667 -0.1697397 0.010266667
0001a0 52 d4 58 3c 7f 2a 49 3c a7 40 51 bd 14 f9 cb bc
       0.013234215 0.012278198 -0.051087048 -0.024899043
0001b0 fc cd e6 bc 82 e2 ff 3a 84 c2 57 bb 2c 14 05 bf
       -0.028174393 0.0019522461 -0.0032922337 -0.51983905
0001c0 ab 74 38 3e e3 43 b0 bc 67 60 9c be 26 2e 54 3e
       0.18013255 -0.021516746 -0.305423 0.20720729
0001d0 e9 22 b3 be 89 4f 82 3d 25 f8 60 3a f2 92 36 3c
       -0.34987572 0.063628264 0.00085818983 0.011143433
0001e0 d5 cb 0f 3e dd 4e d7 39 df 3f 9c bb 80 ae 89 3d
       0.140426 0.00041066753 -0.004768356 0.06722736
0001f0 0f 88 22 3c 04 46 f2 3e 9c 22 cb bd fc 0f fd 3b
       0.009920134 0.47319043 -0.099187106 0.0077228528
000200 c3 6e a6 3e eb 4e 33 be a3 97 16 bf 09 87 5a 3d
       0.3250638 -0.17510574 -0.5882513 0.053351436
000210 25 e9 b0 bb a2 80 3f ba a5 fb 4f 3d 41 c1 63 3b
       -0.0053988867 -0.00073052396 0.050777096 0.003475264
000220 ca 3a a7 bb ce 0e 61 bd e2 86 1d 3d 95 99 c9 3e
       -0.0051034437 -0.05494576 0.038458712 0.39374986
000230 5b 50 f3 bd cd 79 4e bd 15 6a e3 3d ff 07 74 3d
       -0.11880561 -0.050409127 0.11104218 0.05957794
000240 4c ab a7 bd 01 1e 5e be 06 58 e8 3a 61 16 d8 3a
       -0.08186969 -0.21691133 0.0017726428 0.0016486162
000250 34 04 ac be 7a 5d 99 3b b6 06 0a bc 2b 70 4a 3d
       -0.33596957 0.0046803327 -0.008424452 0.049423378
000260 f0 0c d6 3c b8 d4 ff 3e db 45 d8 3d 7e 97 fa 3c
       0.026129216 0.4996698 0.10560199 0.030589815
000270 5d 23 ac be 0f d1 17 3e 60 3d 33 3d 93 80 1c bd
       -0.3362073 0.14825843 0.043759704 -0.038208555
000280 cd b2 b1 bc 5f 55 0c bc 03 f0 01 3e a9 d3 e6 3c
       -0.021691704 -0.008565276 0.12689213 0.0281771
000290 29 17 9f 3c 4c ad 9f bd 1e 16 0c be c4 78 cf be
       0.019420223 -0.07796726 -0.13680312 -0.40521824
0002a0 b8 88 72 3d bf b5 73 3d 0a a7 4d be 9d 45 23 3e
       0.059212416 0.0594995 -0.20083252 0.15944524
0002b0 ee ae 5b 3d 76 72 86 3d 90 87 57 bc ba 2f cc 3a
       0.053633623 0.065648004 -0.013154879 0.0015578188
0002c0 06 a5 58 bd 7d e9 12 3c 29 a8 78 3b 65 c4 a5 3c
       -0.052891754 0.008966801 0.0037942028 0.02023525
0002d0 e9 4c fb 3d 62 5a 2b 3d 0c d5 d8 bd 45 a6 cc 3d
       0.12270529 0.041834243 -0.105875105 0.09992651
0002e0 08 4d 4b 3d 51 2e 95 bc ad 28 a2 be a5 fb 89 3b
       0.04963401 -0.018210562 -0.31671658 0.0042109066
0002f0 ae 50 bf bc ca ae 74 ba 44 12 23 3e 08 87 a8 3a
       -0.0233539 -0.0009333907 0.15924937 0.0012857625
000300 f7 1d c6 3c e2 b3 a2 3d ed cd dc bc 61 48 fa 3e
       0.02418421 0.07944466 -0.026953662 0.48883346
000310 34 01 87 bb a5 37 00 3c fe bf b5 3c f8 34 b0 3f
       -0.0041200165 0.007825767 0.022186276 1.3766165
000320 64 4b c0 bc 7a a1 00 3c 29 b7 82 3a c6 1e 1d bc
       -0.023473449 0.007850999 0.0009972799 -0.0095898565
000330 8f 11 81 bc 39 30 c5 3b 11 5b a2 3a 58 20 04 3c
       -0.015755443 0.0060177115 0.0012386759 0.008064352
000340 6c b7 13 3b d1 b7 3e bf 18 dc 9c bd d0 af 7e 3c
       0.0022539748 -0.7449923 -0.07659167 0.015544847
000350 f4 b9 d6 3d f7 49 2d 3e 1c 83 17 3e 63 1f 8a 3d
       0.104846865 0.16922747 0.14796108 0.06744268
000360 bd 4e 60 3b 76 c4 68 bb 9b d0 14 be 0e a2 b6 3b
       0.003422662 -0.003551749 -0.14532702 0.0055735176
000370 f3 68 fa 3b 26 36 8a 3c 42 2a 7c bc 87 15 91 3f
       0.0076419055 0.016871523 -0.015390934 1.1334695
000380 6d 4a 46 bb 73 28 2c 3b 07 79 de 3d ce eb 83 bd
       -0.0030256764 0.0026269227 0.10862928 -0.064414605
000390 a4 1c af bc bb ad 06 3c ec 5b a7 ba 3b b0 12 b8
       -0.021375962 0.0082201315 -0.0012768484 -3.497324e-05
0003a0 4d 9f 0b bb 83 f6 d7 3a 9d 04 81 3b b0 28 64 3b
       -0.0021304667 0.0016476664 0.0039373175 0.003481429
0003b0 54 b0 af bc 37 6a a4 bf d0 06 27 3c 61 f0 a1 ba
       -0.021446384 -1.2844914 0.010194495 -0.0012354964
0003c0 c8 55 a7 3d 68 3b 19 3f 30 68 a5 3d f9 39 7b bd
       0.08170658 0.5985627 0.08076513 -0.061334584
0003d0 c0 3e 22 3c 95 28 05 3b 93 74 7c 3d eb ef 58 3c
       0.009902656 0.0020318378 0.06163461 0.013240795
0003e0 51 dd 76 3c d9 64 5b 3d d9 93 61 bd 67 b7 0f 3d
       0.015067414 0.053562973 -0.05507264 0.035087015
0003f0 07 78 84 bc 46 b2 c7 ba 07 e5 4c 3c dd 97 81 bf
       -0.016170515 -0.0015235625 0.012505776 -1.012447

linear_list.0.bias f4 [32]
000000 36 6c 83 3f 02 f4 a4 3f 34 22 0e be 9c 91 1c 3f
       1.0267398 1.2886965 -0.13880235 0.6115968
000010 c7 68 30 3f 51 ce 24 3f 97 1e af be b9 29 35 3e
       0.6890988 0.64377314 -0.34203026 0.17691697
000020 98 df c1 3f 61 d2 a9 3f 58 02 40 3f 82 bd 3f 3d
       1.514636 1.3267328 0.75003576 0.046811588
000030 44 a4 24 3f ff d6 aa 3e 80 7c 9b 3e fc 3d 38 3f
       0.6431315 0.33367154 0.30368423 0.7196958
000040 80 db bd 3f 5d 20 0e 3e f2 c8 03 3f db b5 25 be
       1.4832611 0.13879533 0.51478493 -0.16182654
000050 37 09 2f be 18 a3 62 3f a6 76 18 bf c5 53 29 be
       -0.17093359 0.8853011 -0.59556043 -0.16535862
000060 82 c3 88 3f fc e0 b9 be ef e1 57 3f 02 c9 89 3c
       1.0684664 -0.36304462 0.8432912 0.01681948
000070 30 71 de 3e c1 03 71 3f 21 ae 12 3e d8 2d 32 be
       0.4344573 0.94146353 0.14324237 -0.174003

linear_list.1.weight f4 [32, 32]
000000 76 67 89 be 9c a7 14 3f 55 30 6e 3d 02 da da 3e
       -0.26836747 0.5806825 0.05815156 0.42744452
000010 1f 13 26 bd 5d ad 00 be a3 f7 36 bf c7 f8 05 3e
       -0.04054558 -0.12566133 -0.71471614 0.13083182
000020 ad b1 3d be 3f 8c ec bc 28 51 5a 3d 01 6f 63 bd
       -0.18524809 -0.028875468 0.053300053 -0.055525783
000030 9a d9 2a bd 46 06 e1 bd 19 63 8b 3d 1e 69 14 be
       -0.041711427 -0.10987525 0.06806011 -0.14493224
000040 e5 52 0e 3e 87 8f 3e 3d ec 75 af 3c 0d 84 4b bf
       0.13898809 0.046523597 0.021418534 -0.7949837
000050 31 14 44 bf db a8 53 3d e8 37 05 be 97 d5 52 bf
       -0.7659331 0.051674705 -0.13009608 -0.8235716
000060 db f8 e7 bd 7e fe 07 be 1e 49 12 be 1d 66 be 3c
       -0.11326762 -0.13280675 -0.14285704 0.02324205
000070 f2 68 8c 3e 38 ab 00 be fa 73 ac 3a 89 1f 44 bd
       0.27423817 -0.12565315 0.0013157122 -0.047881637
000080 6e 6a c7 bd bc 56 43 be 05 0a da be da 55 a3 bc
       -0.09737097 -0.19076055 -0.4258577 -0.019938398
000090 ea 8d f4 bc e8 f2 4e be 5f d1 24 3b ac cd 57 be
       -0.029852826 -0.20209849 0.002514921 -0.21074551
0000a0 45 dd e4 bd bb 7c a4 bd b9 7c c5 3c 1d 13 0e be
       -0.11175016 -0.08031603 0.024107324 -0.13874479
0000b0 3b 30 df bd e1 2a f3 3b 57 04 22 bd cb 39 19 be
       -0.10897871 0.007420883 -0.03955492 -0.14963453
0000c0 e8 d3 8d be 6e d9 c3 3d 11 42 89 be bf 35 8d 3e
       -0.27700734 0.09562956 -0.26808217 0.27580068
0000d0 59 e6 3a be 7d a7 93 be 13 3b 60 3e cf 83 53 3e
       -0.18251933 -0.2883872 0.21897535 0.2065575
0000e0 4f 37 be bc f8 a7 d8 3e 86 de fb bd 39 5f 87 bd
       -0.023219733 0.4231565 -0.12298302 -0.06609959
0000f0 e5 54 1b 3c 9f d6 a2 bd 00 00 bb bd 1f ea 62 3e
       0.00948069 -0.07951092 -0.091308594 0.22159623
000100 a1 9d 46 be 14 20 b8 3c 9d ea 41 3d 92 f8 11 be
       -0.19396068 0.022476234 0.047342885 -0.14254978
000110 bc 99 0f 3e 10 e7 20 3d c9 16 e3 3e 27 24 0b be
       0.14023489 0.03928286 0.4435332 -0.1358801
000120 c9 82 ee be 7a 5b cb be c9 8b 03 be 70 79 93 3c
       -0.46584156 -0.3971823 -0.12846293 0.018002242
000130 60 32 31 be 79 f4 c2 bd fe ed 48 bd b6 be 6e 3d
       -0.17304373 -0.09519286 -0.049055092 0.058287345
000140 a2 30 04 bd 8c 97 69 3d 2a d3 a3 be c1 ec 80 be
       -0.032272942 0.057029292 -0.31997043 -0.2518063
000150 f1 20 7e 3e 17 f0 b3 be 1f 1d 5c 3e 47 b9 c9 3d
       0.24817254 -0.35144112 0.21495484 0.09849792
000160 df d3 35 bd 86 6b 25 3e 4c 02 d8 be 0f 41 08 be
       -0.04439151 0.16154298 -0.42189252 -0.13306068
000170 a6 6f 2d 3e b8 23 01 be 43 17 90 3d 45 bf 86 bc
       0.16937122 -0.12611282 0.07035687 -0.016448626
000180 c7 4a 79 3e 6b 49 a4 bd 0c 6c 2e 3e 0f d3 ae bc
       0.24344932 -0.08021816 0.17033404 -0.021340875
000190 3b 31 4b 3e 7c 8a 4f be 84 fe 4c 3e d1 05 85 3e
       0.19842999 -0.20267671 0.20018965 0.25981
0001a0 dd 8d 03 be b5 a5 87 3e a5 2e 92 be 7f 24 0b bd
       -0.12847085 0.26493612 -0.28551212 -0.033970352
0001b0 62 32 00 3b 8e 81 f7 bd 68 bf f1 3b 4b ec 4d 3e
       0.001956128 -0.120852575 0.0073775537 0.2010967
0001c0 d6 40 c1 3e 87 97 72 3c fe dc 36 be 7e 3f 0a 3e
       0.37744778 0.014806635 -0.1785774 0.13500783
0001d0 98 1f 89 3d 69 36 05 be 78 e8 33 be fa 0c 66 bd
       0.06695479 -0.13009037 -0.17569149 -0.05616472
0001e0 f2 72 1c 3d d9 bc bb bd 45 60 23 3e 61 5e db bc
       0.038195558 -0.09166879 0.15954693 -0.026778402
0001f0 8d eb 5c 3e 96 58 e3 bc fa 70 25 3e c6 a8 be be
       0.2157423 -0.027752202 0.16156378 -0.3723814
000200 db 8e 92 be c2 d7 96 be 23 73 74 bc 77 97 56 be
       -0.28624615 -0.29461485 -0.014920029 -0.20956217
000210 bc aa 43 3e 29 c1 98 3d 8c d7 d3 be f6 35 18 3d
       0.19108099 0.074587174 -0.41375387 0.037160836
000220 1f 59 6c 3e ce 5d a1 3e cf 7e 04 3d 0e 8f 02 bd
       0.23080872 0.3151688 0.032347497 -0.03187471
000230 d1 c3 4e 3e ff cc bd 3d ee 94 ff bd 80 e5 b5 3d
       0.20191886 0.092676155 -0.12479578 0.08881664
000240 39 f8 46 be ed d2 08 3e a4 1a 9e 3c 0c d8 4a 3e
       -0.19430627 0.13361712 0.019299813 0.19808978
000250 55 c7 47 be e2 16 1c be 98 2e 82 3d ca 83 04 3e
       -0.19509633 -0.15243104 0.06356543 0.12940899
000260 5f 22 0c 3e 0b 1e 46 3e 76 c7 41 3e f9 b9 ec 3d
       0.13684987 0.19347398 0.18923745 0.11558909
000270 2a f2 47 3c fb 0b ed bd 6b f6 9d 3c 07 20 33 3e
       0.0122037325 -0.11574551 0.01928254 0.17492686
000280 c1 6a 83 be 79 90 b9 bc b8 66 7b bd 4e ea dc bd
       -0.25667384 -0.022651898 -0.061377257 -0.107868776
000290 96 5c a6 bd 59 ba 0c 3c d3 3d 39 be f8 66 03 be
       -0.08123128 0.008589351 -0.1808999 -0.12832248
0002a0 f5 0c a7 3e 3f 23 a2 3e bb 7e 95 bd 8f d5 ca 3d
       0.32627073 0.31667516 -0.072995625 0.09904014
0002b0 0a 29 c3 bd 12 99 fc 3d 85 a6 ac 3d 53 d9 9b bd
       -0.09529312 0.12333883 0.084301986 -0.07609811
0002c0 b5 6c 76 be 5f 8c 17 bc 03 a9 9f 3a a7 c3 0e 3e
       -0.24064906 -0.009249776 0.0012181107 0.13941823
0002d0 b5 48 09 be de 67 90 3d c6 77 28 3d c4 35 58 3e
       -0.13406642 0.07051061 0.04112985 0.2111426
0002e0 51 3c 8a 3e 98 80 52 3e 2c 5d c5 bc 86 78 4c 3e
       0.26999143 0.20556867 -0.02409228 0.19967851
0002f0 9a b2 48 be 99 c9 e1 3e 18 09 b2 bd 29 9b 87 bd
       -0.19599381 0.4409912 -0.08693141 -0.06621391
000300 05 50 7a be ae d5 1a 3e 8e 3e 49 bd 62 13 2a 3e
       -0.24444588 0.15120575 -0.049131922 0.16608956
000310 19 e8 86 3d 7d 77 25 3d 5c d0 c4 3e 52 c2 c6 3d
       0.06587238 0.040397156 0.38440216 0.097050324
000320 9e b4 20 be 20 25 c1 3d 1c 17 33 be 9a 4f 40 3d
       -0.156939 0.09430909 -0.17489284 0.046950914
000330 a6 a2 d8 bd f1 34 1b b9 2f 20 1a 3b 38 66 78 3d
       -0.10577898 -0.00014801674 0.0023517718 0.06064436
000340 6f 70 d2 bd 97 06 1e 3e 06 4f 99 be 9c ec ad 3d
       -0.10275351 0.15432201 -0.29943103 0.08492395
000350 02 ab cc 3e b9 1d 97 be 5a aa 58 bc 43 a0 ac 3e
       0.3997422 -0.29514864 -0.013224209 0.3371602
000360 19 fb 1d 3e 82 82 b7 3e 7c c4 4a 3c 35 32 0c ba
       0.15427817 0.35841757 0.012375947 -0.00053480576
000370 6f 9e ac be 98 4e d2 be 58 50 84 3d 5a c2 38 bd
       -0.33714625 -0.41075587 0.06460637 -0.045107223
000380 c5 e3 22 be 7f 2a 9b 3c 4b 76 19 3e dd 11 23 3d
       -0.159072 0.018941162 0.14986531 0.039811958
000390 71 a2 4b be c5 5f d0 3e c9 4a 17 be 07 9e f4 bc
       -0.19886185 0.40698066 -0.14774622 -0.02986051
0003a0 4c d7 3c 3e 83 83 53 3e 71 5b 24 be 23 7e 3f 3b
       0.18441504 0.20655636 -0.16050507 0.002921947
0003b0 0c 35 08 3e f2 d5 1b 3e 71 18 65 bc 8f 3c bf 3e
       0.13301486 0.15218332 -0.013982878 0.3735089
0003c0 d7 d8 2a 3e 01 1a eb bd b7 0f 88 3e 53 e7 aa bb
       0.1668428 -0.11479569 0.2657449 -0.0052155643
0003d0 83 92 0b 3e 4a 88 40 3e 75 f0 d1 3d 17 ea 4c 3d
       0.13630109 0.1880199 0.10250942 0.050027933
0003e0 1f 80 4c bd 0d 73 b8 bd b4 fa 53 bd 5d 14 da 3d
       -0.049926873 -0.09006319 -0.05175276 0.10648415
0003f0 f9 5d 0e be 09 9e a4 3d 67 1b 14 be 80 b5 9e be
       -0.13903035 0.08037955 -0.14463578 -0.3099785

linear_list.1.bias f4 [32]
000000 68 b7 78 3e 61 b5 9e be 9e e3 9c be 37 fa 00 3e
       0.24288714 -0.30997756 -0.30642408 0.1259545
000010 cc e9 8a 3e f2 d7 89 3e a7 77 b1 be 5d a4 8d 3e
       0.27131498 0.26922566 -0.346616 0.27664462
000020 c7 78 19 3e 88 99 25 be 5e b7 77 3e c4 bc 16 be
       0.14987479 -0.16171849 0.24191043 -0.14720446
000030 7f 4b 2e 3d d5 a2 6a 3e a5 62 38 be 77 71 56 bd
       0.042552467 0.22913678 -0.1800638 -0.052354302
000040 98 7c 89 bd c0 4a 99 3e 4b 58 fd bd 3b b9 02 3f
       -0.067132175 0.29939842 -0.12370356 0.5106389
000050 a0 0a 94 3e 16 9c 19 bf 18 66 c9 3d ff d5 be 3d
       0.28914356 -0.60003793 0.09833926 0.0931816
000060 b0 f9 c9 3d 8b d7 4d be ac 97 e1 3d 8c 25 75 3e
       0.09862077 -0.20101754 0.11015257 0.23940104
000070 e8 b9 3e 3f 38 12 13 3f ae 5c a3 be 8c 4e bc bf
       0.7450242 0.57449675 -0.31906646 -1.4711471

linear_list.2.weight f4 [14, 32]
000000 85 76 f9 3a 2b 2e 9e ba 4b 46 23 bb a7 9e d8 3c
       0.0019032514 -0.0012068202 -0.0024913724 0.026442839
000010 c7 79 c5 3c fb 87 23 3d 61 19 84 bc 46 c1 0b 3c
       0.02410592 0.039924603 -0.016125383 0.008529967
000020 a8 8b 46 bc 1c 34 b0 bc 8b f7 4d bb 49 96 23 3e
       -0.012118258 -0.021509223 -0.0031428065 0.15975298
000030 f9 3e 0f be 1d ea 0c bc 63 ad 32 bc d0 86 c0 3b
       -0.13988866 -0.008600739 -0.010905596 0.005875446
000040 e3 01 73 3c a3 e8 16 bd e7 fa ce 3a 90 fd 2c 3d
       0.014831993 -0.036842953 0.0015791327 0.042234004
000050 f5 7c fc 3b 45 f9 6d ba 8c 30 6c bd 42 c4 0d 3b
       0.0077053257 -0.00090779766 -0.057663485 0.0021631871
000060 82 e1 b1 3b 44 be 28 be 14 10 69 bb 45 85 0a 3b
       0.005428494 -0.1647883 -0.0035562562 0.0021136564
000070 96 a0 29 3a 64 d9 b7 3b 96 86 03 3d 92 76 06 ba
       0.00064707675 0.005610632 0.032110773 -0.00051293627
000080 22 46 ac 3c 5d ed cf 3d 77 98 18 bf eb fa 28 3e
       0.021029536 0.10152695 -0.5960764 0.16501968
000090 13 1a 5a 3e 04 56 84 3c 72 31 f3 bd 39 0a 9a be
       0.21299009 0.016154297 -0.11874665 -0.30085924
0000a0 b6 d6 69 3d 18 b7 0e bc f9 11 0a be 55 ab 9b bc
       0.05708953 -0.008710645 -0.13483419 -0.019002596
0000b0 0f 1d c8 3e 21 d2 23 3f 43 e8 45 3d c9 4e bd be
       0.3908467 0.63992506 0.048317205 -0.3697417
0000c0 5c b5 c2 3d 17 d9 79 3e 7d 5b b2 bc e8 92 99 3e
       0.09507248 0.2439922 -0.02177214 0.29994893
0000d0 92 ac af be e3 9c c1 3d 64 b9 72 be 53 f9 cb bd
       -0.34311348 0.09453752 -0.23703533 -0.09959664
0000e0 f3 fc db 3d 85 e0 f7 bb 8c 26 3b be 41 3c 2e 3e
       0.107416056 -0.0075646066 -0.18276423 0.17015173
0000f0 52 14 ca bd 5b f7 91 bc 22 37 b7 3d 2a 49 3a 3e
       -0.09867157 -0.017818144 0.089460626 0.18191972
000100 00 36 89 3e 70 02 56 bd c0 b6 f2 3e 15 cb 61 be
       0.2679901 -0.05224842 0.47405052 -0.22050126
000110 6f 45 8e be 8e 37 ba 3c 23 30 89 3e 01 9b 22 bb
       -0.2778735 0.022731569 0.26794538 -0.0024811628
000120 83 7b 4b 3e 36 73 87 3e 32 0c 01 bf dc 8d ad 3d
       0.19871335 0.26455086 -0.50409234 0.08474323
000130 57 98 75 be f9 f4 33 bd 0a 81 a6 3e 10 1e de 3d
       -0.23983894 -0.043934796 0.32520324 0.10845578
000140 82 4b a7 3e be 4d c8 bd e4 04 3f 3d 2b bc 69 be
       0.32674795 -0.09780453 0.046635523 -0.22825687
000150 43 5c d5 bb 59 29 eb be 90 ba 8e bc 2a 94 72 be
       -0.0065112426 -0.45929983 -0.017422944 -0.23689333
000160 f5 ac 3d 3e 73 5f 5f bd c6 a9 0c 3d 52 d2 66 bd
       0.18523009 -0.054534387 0.034341596 -0.05635292
000170 c4 bb 94 bd dc 55 51 3e b1 2e 9f be 13 1f 01 c0
       -0.07262376 0.20442909 -0.3109031 -2.0175216
000180 3c 89 ab 3f 56 9a 96 3e 76 fe db bc ce ab 76 3e
       1.3401256 0.29414624 -0.026854735 0.24088976
000190 d9 19 30 be 14 cd c4 be 2c 04 3e bf 37 2c d1 bd
       -0.1719736 -0.38437712 -0.74225116 -0.102135114
0001a0 97 ba 38 3e 9a a4 85 bf 9a 71 2e bf 83 5a 97 3d
       0.18039928 -1.0440857 -0.6814209 0.073903106
0001b0 62 24 16 bc 19 56 03 be 78 2b 6f 3f 8e 43 74 3e
       -0.009163948 -0.12825812 0.93425703 0.23853895
0001c0 6f 6c 98 be c9 db 4a be 1a 3e c5 be 49 32 81 3e
       -0.29770228 -0.19810404 -0.38523942 0.25233677
0001d0 57 6b 50 be 07 81 c7 3c cf 09 d2 3d 42 bc 01 bf
       -0.20353447 0.024353517 0.10255777 -0.50677884
0001e0 58 f1 ad bf 74 88 2c 3e c3 80 e4 3e 85 1a 99 3e
       -1.3589277 0.16848928 0.44629487 0.29903045
0001f0 b3 94 a2 3f cd 41 d4 bc 53 61 c8 be 84 12 c7 3c
       1.2701629 -0.025910283 -0.39136752 0.024300821
000200 4c d0 09 be d8 66 d4 3d 00 94 c0 be a2 c8 27 bf
       -0.13458365 0.103711784 -0.37612915 -0.65540516
000210 72 01 66 bd db 9c d2 bd 53 8b e3 be a9 56 95 3d
       -0.056153722 -0.10283824 -0.44442233 0.0729192
000220 4b c3 72 3d 17 93 9a bd 46 41 fc bd e9 6d 69 3d
       0.059268277 -0.075475864 -0.123171374 0.056989584
000230 e0 17 98 3e 3d 9d 17 3e 02 50 b8 3e 54 92 d0 3e
       0.29705715 0.14806075 0.3599854 0.4073664
000240 ab 6f be be 4b f2 c1 3d 15 83 01 3e de 4d 48 be
       -0.3719457 0.09470042 0.1264766 -0.19560954
000250 38 d9 8e be 84 ca 11 3e 1d fd 98 3e c2 61 e4 bd
       -0.279001 0.1423741 0.2988061 -0.11151458
000260 1a 0e 1b 3b 0f 7c 87 3d c9 91 6d be 65 6e 1f 3e
       0.0023659528 0.06615459 -0.23200144 0.15569456
000270 22 f4 51 bd fe cc b5 bc c3 a5 fb 3e 9d 64 a4 3d
       -0.051258214 -0.022192474 0.49149904 0.08027003
000280 df ef f4 bc ce 80 b6 3b f0 11 09 3e eb 46 c1 3d
       -0.029899536 0.005569554 0.13385749 0.09437355
000290 4e 6b 94 be b6 f8 3c be 51 7c 04 3e b4 32 cf bc
       -0.28988117 -0.1845425 0.12938048 -0.025292732
0002a0 cf 75 5a be d1 83 12 3c e2 2d 3f bc 71 b5 29 bd
       -0.21334003 0.00894256 -0.011668654 -0.0414328
0002b0 c7 75 c6 bd dd 97 1d be 4f 89 19 3e 01 66 b5 3d
       -0.09690433 -0.15389962 0.14993785 0.08857346
0002c0 b2 a4 d6 3d 9a 99 c3 3c 83 c5 97 bd b2 e3 97 bc
       0.10480632 0.023876954 -0.07410719 -0.01854119
0002d0 d6 74 e9 3d 5a be 8d bc bb 2a a8 be b9 fc eb bd
       0.11399238 -0.01730268 -0.328451 -0.115228124
0002e0 0e db 95 3d 26 ab 87 bd a5 fa 84 be 5a 12 11 3e
       0.07317172 -0.06624441 -0.25972477 0.14167157
0002f0 60 ee 4a 3b 91 71 75 3d 0d 92 0b be 32 07 0a bf
       0.0030964836 0.05992276 -0.13629933 -0.5391723
000300 4a d5 b5 bd ce 6f 3a 3e 30 90 9c be 6c 50 53 3e
       -0.08878572 0.18206713 -0.30578756 0.20636147
000310 8a 9c 9a be 3b 4d 53 be ed 4f fd bd 26 2a 1f 3f
       -0.30197555 -0.2063493 -0.1236876 0.6217369
000320 41 24 ab 3c b6 c7 08 3e 50 55 70 3d b8 0d 23 be
       0.02089131 0.13357434 0.05867511 -0.15923202
000330 d9 47 b8 3d c2 f7 59 3e dd 0d 86 be e0 f2 29 3d
       0.08998079 0.21285918 -0.26182452 0.04149139
000340 a8 9c 72 be a8 b7 c4 3e 51 6b 66 bc a2 5e 40 be
       -0.23692572 0.3842137 -0.014063672 -0.187861
000350 59 07 11 be 3d 31 5f ba ee 01 7a bc a7 84 36 3e
       -0.14162959 -0.0008514112 -0.015259249 0.1782404
000360 79 88 4c 3d 11 d6 14 be 75 04 4a bd 61 81 22 bd
       0.049934838 -0.14534785 -0.049320657 -0.039674167
000370 f2 bb 58 3c ed 8b f5 bd 35 61 a1 3e 9a e8 da 3e
       0.013228403 -0.11989579 0.31519476 0.42755586
000380 99 43 10 3f 95 c5 e8 3d c3 92 33 3d 36 67 88 be
       0.56353146 0.11365811 0.043841135 -0.26641244
000390 24 5b b6 3e ca 41 eb 3c ae 80 e9 3e 77 7d 22 3e
       0.3561641 0.028717894 0.45605987 0.15868174
0003a0 50 ae 23 be 24 da 6b be 66 68 10 be a1 f8 ac bd
       -0.15984464 -0.23032433 -0.14102325 -0.0844586
0003b0 38 74 47 bd 2a 4c 11 be 5f 88 8b be 30 d6 d9 bd
       -0.04869482 -0.1418921 -0.2725248 -0.10636556
0003c0 be c0 13 3e c9 d0 a0 3e 06 d5 2e bf 7f ba 6f be
       0.14428994 0.3140929 -0.682938 -0.23410986
0003d0 eb 9d 21 bf 47 6f 45 3e 82 d9 3c 3e 77 b8 56 3c
       -0.6313159 0.1928073 0.18442348 0.013105503
0003e0 df 27 10 3f 7a c2 2a 3e 2a d1 f1 3d 4a 1e df 3c
       0.5631084 0.1667575 0.11807473 0.027236123
0003f0 58 8b 97 3d 8d 1c 90 40 ee d6 d8 bd 94 f3 02 bd
       0.073996246 4.503485 -0.105878696 -0.031970575

linear_list.2.bias f4 [14]
000000 96 79 2a 3e fa 7b 95 3e 9b c5 8e 3c 4e 7a 0c be
       0.16647944 0.2919615 0.01742821 -0.1371853
000010 d2 52 61 be 91 88 ba bd 95 86 cc 3e 5e 86 bf 3c
       -0.2200425 -0.09108079 0.39946428 0.023379501
000020 6c 07 51 3e f8 75 64 3e 76 22 1d bf 3e 9e f5 3e
       0.20412987 0.22310627 -0.6138071 0.47972292
000030 ca 07 35 3f 77 87 40 be
       0.7071501 -0.18801676
