prep/g0504-233203_gcas_gcas_outT/models/model0.onnx (onnx, 8665 bytes, 6 tensors)

linear_list.0.weight f4 [32, 14]
0	0xbda20aa4	-0.07912186
1	0xbe809641	-0.25114635
2	0xbe611bfa	-0.21983328
3	0x3e70ca3f	0.23514651
4	0x3d0bbff1	0.034118596
5	0x3d26c4d9	0.040715072
6	0xbe1f2e14	-0.15544921
7	0xbe7654bb	-0.2405576
8	0x3d8f0dab	0.06985029
9	0x3e6d2c13	0.23161344
10	0x3df7d81c	0.121017665
11	0x3d039029	0.032119904
12	0x3de7c237	0.113163404
13	0xbe5870dc	-0.21136802
14	0x3e1a1c98	0.1504997
15	0x3e5b11a6	0.21393451
16	0x3e8110ea	0.25208217
17	0x3d556b4d	0.052104283
18	0xbd10ce35	-0.035352904
19	0x3e2af298	0.16694105
20	0x3e348d2c	0.17631978
21	0x3d55a9dd	0.052163947
22	0xbe6291fc	-0.22126001
23	0xbd9d0f87	-0.07668977
24	0x3d5e36b7	0.0542514
25	0xbd57729f	-0.052599546
26	0x3e81843f	0.25296208
27	0xbde93768	-0.11387521
28	0xbe751f22	-0.23937657
29	0x3e7f5a04	0.24936682
30	0x3e7d7cee	0.24754688
31	0xbe715347	-0.23566924
32	0x3de2ec77	0.11080258
33	0x3e4f1a44	0.20224863
34	0x3dd6237c	0.10455987
35	0x3c79a691	0.015237466
36	0x3e1c58ae	0.15268204
37	0x3e4f5f0f	0.20251106
38	0x3e83dcaf	0.25754306
39	0x3d16e5b8	0.03684017
40	0x3e30654e	0.17226145
41	0x3df72d98	0.12069243
42	0xbe31c34b	-0.17359655
43	0xbe32cf56	-0.17461905
44	0x3daa0fe5	0.08303813
45	0xbdbff6ab	-0.0937322
46	0xbd92c656	-0.07166736
47	0x3e6b3f64	0.229734
48	0xbe7e9446	-0.2486125
49	0xbd5e2ad5	-0.054240067
50	0xbe0fbbd3	-0.14036493
51	0x3d0d1b03	0.03444959
52	0x3cc2fea3	0.02380306
53	0x3db58df9	0.0886497
54	0xbe61640c	-0.22010821
55	0xbe852136	-0.260019
56	0x3e45a49b	0.19301073
57	0xbe4a1711	-0.19735362
58	0x3e834ff3	0.25646934
59	0x3de1363e	0.10996674
60	0x3c34cf6f	0.011035784
61	0xbe0af0a9	-0.13568367
62	0xbcb2a327	-0.021806313
63	0x3d298332	0.041384883
64	0x3c384797	0.011247537
65	0x3e834bbe	0.25643724
66	0x3e115e19	0.14196052
67	0xbe2dea7f	-0.16983984
68	0xbcd24a93	-0.025670325
69	0x3e434065	0.19067533
70	0xbe2f55ef	-0.17122625
71	0xbe398193	-0.18115835
72	0xbe3bb5bb	-0.18331043
73	0x3e556b4d	0.20841713
74	0x3d7fc084	0.062439457
75	0xbd8144af	-0.063119285
76	0xbe257300	-0.1615715
77	0x3d0e7126	0.034775876
78	0x3e32c31d	0.17457242
79	0xbe4fd4b5	-0.20295985
80	0x3e4c3bfc	0.19944757
81	0x3e8620cf	0.26196906
82	0xbe547c81	-0.2075062
83	0x3cb08ecb	0.021552464
84	0xbe83ac93	-0.257176
85	0xbe8871a8	-0.26649213
86	0xbd8e5782	-0.069502845
87	0xbda3a9d9	-0.0799138
88	0x3e8091cd	0.25111237
89	0xbe147303	-0.14496998
90	0xbd93f118	-0.07223719
91	0x3e3f7dc7	0.18700324
92	0xbcd814c0	-0.026377082
93	0x3c454753	0.012040931
94	0x3d6f2e5b	0.058393817
95	0xbe5cbc33	-0.21556167
96	0xbe735f02	-0.23766711
97	0x3e8331e4	0.25624
98	0xbdcf1deb	-0.10113128
99	0xbe07816b	-0.13232963
100	0x3e53d357	0.20686089
101	0xbe23b0d9	-0.15985431
102	0xbe3393bf	-0.1753683
103	0xbddc2c9f	-0.10750698
104	0xbe52289b	-0.20523302
105	0x3da1df93	0.079039715
106	0xbdbd7e7f	-0.09252643
107	0xbe309ffb	-0.17248528
108	0xbd9c812f	-0.07641827
109	0x3e6cf0c1	0.23138715
110	0x3df5fb50	0.12010825
111	0xbe30d7c3	-0.17269807
112	0x3e01e83a	0.12686244
113	0xbe371538	-0.17879188
114	0xbe0b299f	-0.13590096
115	0x3e64185c	0.22274917
116	0xbe87e753	-0.26543674
117	0x3d0243ca	0.03180293
118	0xbe14fb22	-0.14548925
119	0x3dcbcfb6	0.09951727
120	0x3e184b0f	0.14872383
121	0xbe448775	-0.19192298
122	0x3c978879	0.018497692
123	0x3e10b8a5	0.14132936
124	0xbe2d199e	-0.16904303
125	0x3d76f05a	0.06028781
126	0xbdd297c9	-0.10282857
127	0xbe507aa1	-0.20359279
128	0x3e7b4f35	0.24541934
129	0x3dc0ed4d	0.094202615
130	0xbe5de5a3	-0.2166963
131	0xbc8faed4	-0.01753942
132	0xbdc48fd9	-0.09597749
133	0x3da07975	0.07835666
134	0x3d68cb49	0.056834493
135	0x3e316d2a	0.17326799
136	0xbda5f745	-0.081038035
137	0xbe190d05	-0.14946373
138	0xbda0f492	-0.07859148
139	0x3e4c9aa9	0.19980873
140	0xbe625245	-0.22101696
141	0x3dd5aec4	0.104337245
142	0xbc88c9ab	-0.016697725
143	0xbd2be395	-0.041965086
144	0xbd9a1111	-0.075227864
145	0xbe09d931	-0.13461758
146	0x3e80ae64	0.2513305
147	0xbd705a29	-0.058679733
148	0xbe37ca70	-0.17948318
149	0x3e456879	0.19278134
150	0xbde5cd08	-0.11220747
151	0xbe34e66f	-0.17666028
152	0xbdeefef8	-0.11669725
153	0x3e45ed70	0.19328856
154	0x3e330bee	0.1748502
155	0x3dbbb52b	0.091654144
156	0xbe720e55	-0.2363828
157	0x3d6f4397	0.058414068
158	0x3e17715a	0.14789334
159	0xbe127192	-0.14301136
160	0x3c3d4cc2	0.011553945
161	0xbe5dfdd4	-0.21678859
162	0x3e118cd5	0.1421388
163	0x3e60f5f1	0.21968819
164	0x3e55e6ad	0.20888777
165	0xbd19059d	-0.03735887
166	0xbe59f4a5	-0.2128473
167	0x3ca63e9e	0.02029353
168	0x3da0f297	0.0785877
169	0x3e456ef6	0.1928061
170	0xbe448302	-0.191906
171	0x3e62c9cf	0.22147296
172	0xbe0c4c81	-0.13701059
173	0x3bda3b4d	0.0066599012
174	0xbe2424a5	-0.16029604
175	0x3e43499d	0.1907105
176	0xbdb197af	-0.086715095
177	0x3d961c17	0.073295765
178	0x3e64d1cf	0.2234566
179	0x3e569bab	0.2095782
180	0x3e50abd8	0.20378053
181	0x3e322aee	0.17399189
182	0xbe85d2b5	-0.2613732
183	0x3e630f2e	0.2217376
184	0xbc69c289	-0.014267572
185	0x3e1d1a89	0.15342154
186	0xbe491c9f	-0.19639824
187	0xbdc4ee08	-0.09615713
188	0xbe76e03c	-0.24108976
189	0x3e82336f	0.25429866
190	0x3c875f25	0.01652486
191	0x3d907df7	0.07055276
192	0x3e5b591d	0.21420713
193	0x3e4c1ddc	0.19933265
194	0xbd6506c2	-0.055914648
195	0x3d851a1a	0.06499119
196	0xbcf58d41	-0.029974582
197	0x3e19909c	0.1499657
198	0x3e28f5b4	0.16499978
199	0x3e824d2e	0.25449508
200	0x3e0fb31f	0.14033173
201	0xbdf21e50	-0.11822188
202	0x3d82d3f3	0.06388082
203	0x3e3bf456	0.18354926
204	0x3d8bed63	0.06832387
205	0x3e0a4794	0.13503867
206	0x3e0a69c6	0.13516912
207	0xbda2fb1c	-0.079580516
208	0xbda06f95	-0.078337826
209	0xbe070ea9	-0.13189186
210	0x3d322ee3	0.043501746
211	0x3dac967c	0.0842714
212	0x3dbfb231	0.09360159
213	0x3dcea60c	0.10090265
214	0x3db6ad76	0.08919804
215	0x3df6f446	0.1205831
216	0x3e440be6	0.19145164
217	0x3e842ada	0.25813943
218	0xbe238f42	-0.15972617
219	0x3e7d5844	0.24740702
220	0xbcd23a94	-0.025662698
221	0xbe6dd1d4	-0.23224574
222	0x3becd2df	0.007227286
223	0x3e4b3a45	0.19846447
224	0x3e85287d	0.26007453
225	0xbe4f861d	-0.20266004
226	0x3cb39b7e	0.02192473
227	0x3e5c7789	0.21529974
228	0x3e08a98b	0.13345926
229	0x3e630a1c	0.22171825
230	0x3e751b75	0.23936255
231	0xbe34c57f	-0.17653464
232	0x3e83413e	0.25635713
233	0xbd927dbd	-0.07152889
234	0xbd86f4c8	-0.06589657
235	0x3e0f6ed3	0.1400712
236	0xbc933d8c	-0.017973684
237	0xbe6047cd	-0.2190239
238	0x3d45f022	0.04832471
239	0x3e554391	0.20826556
240	0x3e557879	0.20846738
241	0x3e2b375c	0.16720337
242	0x3e769db6	0.240836
243	0xbe6a4777	-0.22878824
244	0x3e8102a4	0.25197327
245	0x3e2a8007	0.16650401
246	0x3d580a6b	0.05274431
247	0x3d1d309b	0.038376432
248	0xbda89746	-0.08231978
249	0x3e4e392e	0.20139
250	0xbdfe9b75	-0.12431995
251	0xbcd1a38e	-0.025590684
252	0x3e4dbcb5	0.20091517
253	0x3d9032c3	0.07040932
254	0xbb23fe26	-0.002502331
255	0xbe089136	-0.13336644

linear_list.0.bias f4 [32]
0	0x3e30a70a	0.1725122
1	0x3e170231	0.1474693
2	0xbe241773	-0.1602457
3	0xbc8346f7	-0.01602505
4	0x3df0e40a	0.11762245
5	0xbd676bc8	-0.056499273
6	0xbd176549	-0.036961827
7	0xbe62ba04	-0.22141272
8	0x3e5b317c	0.21405596
9	0x3e549d7e	0.20763204
10	0x3dca7245	0.098850764
11	0xbe3b5d38	-0.18297279
12	0x3cf27f4a	0.029601712
13	0xbe11a62c	-0.14223546
14	0x3df63bb7	0.120231085
15	0x3e391f0d	0.18078251
16	0x3e84d453	0.2594324
17	0xbd5409e4	-0.051767245
18	0x3c4df4d1	0.012570576
19	0xbc909d0b	-0.017653009
20	0x3e48298a	0.19547096
21	0x3d873fe1	0.06603981
22	0xbddd4975	-0.108050264
23	0xbe48a089	-0.1959249
24	0x3dc64f23	0.09683063
25	0xbe844365	-0.25832668
26	0xbd27fcec	-0.04101269
27	0xbe87d218	-0.26527476
28	0xbb319050	-0.0027094074
29	0x3d854e76	0.06509106
30	0xbdcf38cd	-0.10118256
31	0xbe5088a2	-0.20364621

linear_list.1.weight f4 [32, 32]
0	0xbe205d31	-0.1566055
1	0x3e22afed	0.15887423
2	0xbe0d40dc	-0.13794273
3	0x3d672bd8	0.056438297
4	0x3d5280c5	0.051392335
5	0xbe2d7cfa	-0.16942206
6	0x3deae48e	0.114693746
7	0x3db19791	0.08671487
8	0x3e1eebe6	0.15519676
9	0x3da95ebd	0.08270023
10	0x3e148619	0.14504279
11	0xbd9e7813	-0.07737746
12	0x3dc7622b	0.09735521
13	0x3d991f22	0.07476641
14	0xbd55b7c0	-0.05217719
15	0xbdb640a6	-0.088990495
16	0xbc5b8416	-0.013398191
17	0x3cfdb3fb	0.03096961
18	0x3dbd7497	0.092507534
19	0xbd4fa55f	-0.05069482
20	0xbe171259	-0.14753093
21	0x3788a13f	1.628755e-05
22	0xbd838baf	-0.06423127
23	0xbe0af374	-0.13569432
24	0xbde15f47	-0.11004501
25	0x3dde52bf	0.10855626
26	0x3ddf7d9b	0.10912629
27	0xbdfac560	-0.122446775
28	0x3e29da1e	0.16587111
29	0xbda64e00	-0.08120346
30	0x3c0e2a90	0.00867714
31	0xbdc445ea	-0.095836475
32	0xbc863d6a	-0.016386706
33	0xbc2ae54c	-0.010430645
34	0xbcbb7283	-0.022881752
35	0x3ca0472d	0.01956519
36	0x3d8ff5cc	0.07029304
37	0xbd8f497c	-0.06996438
38	0xbddf5907	-0.109056525
39	0xbe2203d1	-0.15821768
40	0x3cbd9f89	0.023147361
41	0x3e1e8540	0.15480518
42	0x3d3731ce	0.04472523
43	0xbdee8be2	-0.11647774
44	0xbe1d4426	-0.15358028
45	0xbe002430	-0.12513804
46	0x3c44851e	0.011994628
47	0x3e0f2d9b	0.13982241
48	0xbe24d765	-0.16097791
49	0xbd0122c4	-0.031527296
50	0xbdb05087	-0.08609109
51	0x3e057f03	0.13036732
52	0xbde37acd	-0.11107407
53	0x3ce441e8	0.027863458
54	0x3e33b51c	0.17549556
55	0x39705f31	0.00022923645
56	0x3c09b22a	0.008404294
57	0x3e2d06de	0.16897151
58	0xbdfb90b6	-0.12283461
59	0x3c49feb0	0.012328789
60	0x3e2327db	0.15933172
61	0x3cbddb60	0.023175895
62	0xbd6649f1	-0.05622286
63	0x3e02f9e3	0.12790637
64	0xbe346e21	-0.17620136
65	0x3e0ffbc5	0.14060886
66	0xbe2bd9e1	-0.16782333
67	0xbd94174b	-0.07231005
68	0x3d900c02	0.0703354
69	0x3e0a8e6f	0.13530897
70	0x3dc1e639	0.094677396
71	0xbe00ccf6	-0.12578186
72	0x3e0cb06b	0.13739173
73	0xbd9b5a82	-0.07585622
74	0xbc599972	-0.013281213
75	0xbe12ff39	-0.14355172
76	0xbdb8a483	-0.09015753
77	0x3ce9b155	0.028526941
78	0x3d6b0293	0.0573755
79	0x3d897433	0.06711616
80	0xbcd8ae0e	-0.026450183
81	0xbd6153e8	-0.05501166
82	0xbda891c3	-0.08230927
83	0xbd7e7ce4	-0.062130824
84	0xbc8ac17b	-0.016937962
85	0xbe19e83e	-0.1503
86	0x3e243c7e	0.16038701
87	0x3d6d95cd	0.05800419
88	0xbd7651c3	-0.060136568
89	0x3e1297e0	0.14315748
90	0xbda57932	-0.08079757
91	0xbd9e4afc	-0.07729146
92	0x3de6bb96	0.11266248
93	0xbe04de20	-0.12975359
94	0x3de37a5d	0.11107323
95	0x3da4d5b8	0.08048576
96	0x3d74ef49	0.059798513
97	0xbe2b0d5c	-0.16704315
98	0x3d97ff36	0.074217245
99	0xbde19004	-0.11013797
100	0x3e0354e1	0.12825347
101	0xbda18588	-0.07886797
102	0xbc5d626e	-0.013512237
103	0x3e2fa78e	0.17153761
104	0x3d6b0096	0.057373606
105	0x3db6f96e	0.08934294
106	0xbe31fc87	-0.17381488
107	0xbce3c139	-0.027802097
108	0x3e16c10f	0.14722084
109	0xbd851f7f	-0.06500148
110	0xbca29118	-0.019844577
111	0x3d92ad80	0.07161999
112	0x3e1a6724	0.15078408
113	0x3e1603ea	0.1464993
114	0xbb4e6fd5	-0.0031499763
115	0x3d9c144c	0.07621059
116	0xbd841239	-0.06448788
117	0x3e195daa	0.14977136
118	0xbd19e358	-0.037570328
119	0xbdcb98ee	-0.099412784
120	0xbe2fa7f8	-0.17153919
121	0xbdce317d	-0.10068033
122	0x3d2ecbe3	0.04267491
123	0x3ce42fbd	0.027854795
124	0xbdc10e22	-0.09426524
125	0xbd647895	-0.05577906
126	0x3de25009	0.11050422
127	0xbd1d0cb9	-0.03834221
128	0xbdcd734f	-0.10031759
129	0xbe24848b	-0.16066186
130	0xbb011aa6	-0.0019699722
131	0xbd0a3b4c	-0.033747956
132	0x3b971af0	0.0046113655
133	0xbd454f3a	-0.04817126
134	0xbd4a5158	-0.04939398
135	0x3e0efc70	0.13963485
136	0xbcd44c09	-0.025915163
137	0x3e2152c0	0.15754223
138	0xbddbd349	-0.10733659
139	0x3df08222	0.11743571
140	0x3e0112db	0.12604849
141	0x3de91725	0.113813676
142	0xbd4fa52d	-0.050694633
143	0x3cd08b05	0.025456915
144	0xbcaf3468	-0.021387294
145	0x3e25fc87	0.16209613
146	0x3c722f98	0.014781855
147	0x3e03304e	0.12811396
148	0xbe1b5dfd	-0.15172572
149	0xbe0416b3	-0.12899284
150	0x3d916af0	0.07100475
151	0x3df0d298	0.117589176
152	0xbc4b3d07	-0.012404687
153	0xbd48c3bb	-0.049014788
154	0x3d25942f	0.040424522
155	0x3da99ea2	0.0828221
156	0x3dc71962	0.09721638
157	0xbde7db4d	-0.11321125
158	0x3df3a593	0.11896815
159	0xbcb9b09a	-0.022667218
160	0xbc486ec5	-0.012233441
161	0x3e2d79b7	0.16940962
162	0xbd979d4e	-0.0740305
163	0xbd9067aa	-0.07051022
164	0xbdc6f6ec	-0.09715065
165	0xbe1717b7	-0.1475514
166	0x3d2046d2	0.03913004
167	0x3d55fe0b	0.052244227
168	0x3da5c4ff	0.08094215
169	0x3dd78d92	0.10525049
170	0xbdd4faf2	-0.103994265
171	0x3d20402c	0.0391237
172	0xbe045d43	-0.12926202
173	0x3e237b7d	0.15965076
174	0x3c184827	0.009294546
175	0xbdc1ba91	-0.09459413
176	0xbda1c031	-0.07897986
177	0xbdaae5e5	-0.0834463
178	0xbd00fbf7	-0.031490292
179	0x3e160238	0.14649284
180	0xbc73fcf9	-0.014891856
181	0x3c5281af	0.012848302
182	0x3e048f26	0.12945232
183	0x3e2ae6cf	0.16689609
184	0x3df8feb6	0.12157957
185	0xbc23cfa8	-0.00999824
186	0xbdfeb180	-0.12436199
187	0x3e2b75b6	0.16744122
188	0xbd1f9e39	-0.038969252
189	0x3d8b0951	0.06788886
190	0xbe1090df	-0.14117764
191	0xbe02f7bb	-0.12789814
192	0x3e2b0350	0.16700482
193	0xbd27c8d4	-0.04096301
194	0x3e04f34f	0.1298344
195	0x3e2463ba	0.16053668
196	0xbe1e6bee	-0.1547086
197	0xbd99dae5	-0.07512454
198	0x3dd8feb6	0.10595457
199	0xbd94378d	-0.07237158
200	0xbdf877ff	-0.121322624
201	0x3e2ac571	0.1667688
202	0xbe221e8a	-0.15831962
203	0xbe277806	-0.16354379
204	0xbc8b7e12	-0.017027888
205	0x3d0d95cb	0.03456668
206	0x3de82200	0.1133461
207	0x3d056998	0.032571405
208	0x3e0d253d	0.13783737
209	0x3e2267f2	0.15859964
210	0x3dc67d7b	0.09691902
211	0x3cb448a5	0.022007296
212	0x3e0beb9b	0.13664095
213	0xbe2536ff	-0.1613426
214	0x3d8136de	0.06309293
215	0x3e2ec54d	0.17067452
216	0x3de2c7d0	0.110732675
217	0x3dd136b8	0.10215515
218	0x3e336089	0.17517294
219	0x3e20e851	0.15713622
220	0xbe21f686	-0.15816697
221	0xbdf12333	-0.11774292
222	0xbc87c8f3	-0.016575312
223	0xbe073ecc	-0.13207549
224	0x3c090994	0.0083641
225	0x3e350413	0.17677335
226	0xbe09e97f	-0.13467978
227	0x3c533842	0.012891831
228	0xbc1cf45f	-0.009579747
229	0x3e246211	0.16053034
230	0xbd361f9b	-0.044463735
231	0x3d756f1d	0.05992042
232	0x3cdc9343	0.026925689
233	0x3e229143	0.15875725
234	0xbe087570	-0.13326049
235	0x3d7fdf12	0.062468596
236	0x3e0f350f	0.13985084
237	0x3e1300bd	0.1435575
238	0x3d6fb21e	0.058519475
239	0x3ce00eb0	0.027350754
240	0xbcbb2f7f	-0.022849796
241	0xbc399000	-0.011325836
242	0x3d77f123	0.0605327
243	0xbcfb52f6	-0.030679207
244	0x3d26d0b7	0.04072639
245	0x3dc98980	0.09840679
246	0x3e0844d1	0.13307501
247	0x3e0a4a04	0.13504797
248	0xbd20c22a	-0.03924767
249	0xbcabcfcc	-0.020973109
250	0x3d3bfad9	0.045893524
251	0x3dd2dc6d	0.10295949
252	0xbe0778a2	-0.13229612
253	0xbd140629	-0.036138687
254	0xbe14895f	-0.14505528
255	0xbd8c438b	-0.0684882

linear_list.1.bias f4 [32]
0	0x3e2d81e5	0.16944082
1	0x3d9e94a4	0.07743195
2	0x3e2eca68	0.170694
3	0xbca83ff1	-0.020538302
4	0x3da499a9	0.08037121
5	0x3e0e4d9c	0.13896793
6	0xbe13b019	-0.14422645
7	0xbdf90b87	-0.12160402
8	0x3dd19717	0.10233896
9	0xbe07550d	-0.13216038
10	0xbceb7f19	-0.028747128
11	0xbdd52088	-0.104065955
12	0x3e161d8b	0.14659707
13	0x3daca599	0.08430023
14	0x3bfd8ab3	0.0077374815
15	0x3c99be93	0.01876763
16	0xbd8cc2a7	-0.068730645
17	0x3decf977	0.11571019
18	0xbe2eb5ee	-0.17061588
19	0x3e2f3bdd	0.1711268
20	0xbb1e8c27	-0.0024192424
21	0xbdb47812	-0.08811964
22	0x3e0c4e69	0.13701786
23	0xbe2f0482	-0.17091563
24	0xbe1f712a	-0.15570512
25	0xbe259078	-0.16168392
26	0xbe1b072b	-0.15139453
27	0x3c558bca	0.013033817
28	0x3dbb9daa	0.091609314
29	0x3d5da336	0.05411073
30	0xbe1794da	-0.14802876
31	0x3c34972c	0.01102237

linear_list.2.weight f4 [14, 32]
0	0x3dc87531	0.097879775
1	0x3dfe62dd	0.124212004
2	0x3df1da91	0.11809266
3	0x3e28e53b	0.16493694
4	0x3ca6207f	0.020279167
5	0x3e2990a6	0.16559085
6	0x3d7408c6	0.05957868
7	0xbcfeba89	-0.031094806
8	0xbdbc2e17	-0.091884784
9	0xbe1033e7	-0.14082299
10	0xbd0c7e69	-0.03430024
11	0x3e233c29	0.15940918
12	0xbe22a00d	-0.15881367
13	0xbe24991a	-0.16074029
14	0xbe0862df	-0.13318966
15	0x3de5e567	0.11225396
16	0x3d8bdf04	0.06829646
17	0xbdb73d22	-0.08947207
18	0xbd56a2f8	-0.052401513
19	0x3c83d72e	0.016093817
20	0x3cb7cd5c	0.02243679
21	0x3d9ffc2d	0.078117706
22	0xbe1ba991	-0.15201403
23	0x3e0094dc	0.12556785
24	0x3da3fd0d	0.0800725
25	0xbe28f09b	-0.16498034
26	0xbe2820f8	-0.16418827
27	0xbe080737	-0.13284002
28	0xbd7a6455	-0.06113084
29	0x3df0a694	0.11750522
30	0x3ddfd0fc	0.109285325
31	0xbc712f3d	-0.014720735
32	0xbc0b14bb	-0.008488829
33	0xbe12fd3e	-0.14354417
34	0xbd8eb4c1	-0.0696807
35	0x3d8cc1fd	0.06872938
36	0x3e196c50	0.14982724
37	0x3d821b5d	0.063528754
38	0x3dca64be	0.09882496
39	0x3cdc0abd	0.02686059
40	0xbd54ca53	-0.051950764
41	0xbded0ae8	-0.11574346
42	0xbe2ccbce	-0.1687462
43	0xbca4f4c4	-0.020136245
44	0x3d9db09f	0.076997034
45	0x3e2d9379	0.16950788
46	0x3ddb7a08	0.10716635
47	0xbd490b7f	-0.04908323
48	0x3d66d6f8	0.056357354
49	0x3e21b131	0.1579025
50	0xbd82a918	-0.06379908
51	0x3ba07f7c	0.00489801
52	0x3cebe784	0.028796919
53	0x3ddf49b5	0.109027304
54	0xbafa9ff0	-0.0019121151
55	0xbd98b2d4	-0.07455984
56	0x3dbcc130	0.09216535
57	0xbacd4068	-0.0015659453
58	0x3c843965	0.01614065
59	0x3e0ce2e5	0.13758428
60	0x3b922dc4	0.004461022
61	0xbdfd42ae	-0.12366234
62	0x3dbd001d	0.09228537
63	0xbe17c44a	-0.14820972
64	0xbe005616	-0.12532839
65	0x3d57e0ed	0.05270474
66	0x3dafccd6	0.08583991
67	0xbe29e4bf	-0.16591166
68	0xbcadc6a6	-0.021212887
69	0x3ceadaa8	0.028668717
70	0x3dbca507	0.09211164
71	0x3df37877	0.11888211
72	0x3cc8e0a6	0.024521183
73	0x3d18bb08	0.037287742
74	0xbe0d6e49	-0.13811602
75	0x3dc5055f	0.09620165
76	0xbd18fae7	-0.037348654
77	0xbd1855bc	-0.037191138
78	0x3dbc6b4c	0.09200153
79	0x3dde3ed4	0.10851827
80	0x3e0ecda9	0.1394564
81	0x3d9b25ce	0.0757557
82	0xbe2299c8	-0.15878975
83	0xbe08794b	-0.1332752
84	0xbdf42579	-0.1192121
85	0xbd9b40d4	-0.07580724
86	0x3beebf86	0.007286015
87	0xbda7b1a6	-0.081881806
88	0xbd5194b7	-0.051167216
89	0xbd5ba39c	-0.053622827
90	0x3dc9acb3	0.09847393
91	0xbc39e89f	-0.011346965
92	0x3d1e14b6	0.03859397
93	0xbe2561c7	-0.1615058
94	0xbe172acf	-0.14762424
95	0xbc313754	-0.010816414
96	0xbe1b7868	-0.1518265
97	0x3e0e05e0	0.13869429
98	0xbe199032	-0.14996412
99	0xbd1ccc20	-0.038280606
100	0xbde2e324	-0.1107848
101	0xbe2c91e8	-0.16852534
102	0xba251aad	-0.00062982255
103	0xbe1d0aa8	-0.15336096
104	0x3dda0595	0.10645596
105	0xbe0ef49b	-0.13960497
106	0xbbc72f54	-0.00607864
107	0x3dbb05f8	0.09131998
108	0xbc92c67b	-0.017916908
109	0xbdab954e	-0.08378087
110	0x3dc82864	0.09773329
111	0x3e305e7b	0.17223541
112	0x3b815f32	0.0039481157
113	0x3dd9e352	0.10639061
114	0xbe325865	-0.17416532
115	0x3df000cc	0.11718902
116	0xbdd56405	-0.10419468
117	0x3d339130	0.043839633
118	0x3d80060d	0.06251154
119	0xbd542cf4	-0.051800683
120	0xbe03ae52	-0.12859467
121	0x3e2e91cb	0.17047803
122	0xbc6c4272	-0.014420139
123	0x3c026500	0.007958651
124	0x3e2bdb4f	0.16782878
125	0xbc76d107	-0.015064484
126	0xbe2a916a	-0.16657034
127	0xbd4cb853	-0.049980473
128	0xbe331b48	-0.17490876
129	0x3de46cf9	0.111535974
130	0xbd9c1ebb	-0.07623049
131	0xbe1cbbd8	-0.15306032
132	0xbcba89e2	-0.022770826
133	0xbda73288	-0.08163935
134	0xbd8f7d2e	-0.07006298
135	0xbc8d58c5	-0.017254243
136	0xbe0dab93	-0.13834982
137	0x3d80725e	0.06271814
138	0x3db82f6b	0.08993419
139	0x3d58331b	0.052783113
140	0xbc58f906	-0.013242966
141	0xbdf6b003	-0.1204529
142	0x3e2bfe2e	0.1679618
143	0x3de88534	0.113535315
144	0xbe166213	-0.1468585
145	0x3d81853a	0.06324239
146	0xbd667de7	-0.056272414
147	0xbc07b25c	-0.00828227
148	0x3cf01122	0.029305045
149	0x3d3576ae	0.044302635
150	0x3e048ec9	0.12945093
151	0xbd1aeb2f	-0.037821945
152	0xbe11a422	-0.14222768
153	0x3d968b64	0.073508054
154	0x3dbc74c0	0.09201956
155	0xbdfcec8c	-0.12349805
156	0x3cd475bf	0.025935052
157	0xbdd5549b	-0.10416528
158	0x3e20269c	0.15639728
159	0xbd6d54e4	-0.057942286
160	0x3d805c1a	0.06267567
161	0xbcdc9cba	-0.026930202
162	0x3e30fe8d	0.17284603
163	0x3e2ed94a	0.17075077
164	0xbdf6f177	-0.120577745
165	0x3c252170	0.010078773
166	0x3e2a21cc	0.16614455
167	0xbe090073	-0.13379078
168	0xbc815c06	-0.01579095
169	0x3e34a9ce	0.176429
170	0xbc403140	-0.011730492
171	0xbcd18757	-0.02557723
172	0xbd8ccc98	-0.06874961
173	0xbe0b480a	-0.136017
174	0x3d4ba87b	0.049721222
175	0xbc4ab24c	-0.012371611
176	0x3e334ad3	0.17509012
177	0xbddc67d9	-0.10761995
178	0xbd8e3830	-0.06944311
179	0x3dc175a4	0.09446266
180	0x3de72c9a	0.11287804
181	0xbd0fa6a2	-0.035071023
182	0xbdf31ef8	-0.11871141
183	0x3da78c93	0.08181109
184	0x3dc59b6b	0.09648784
185	0xbd9a308b	-0.0752879
186	0xbdb2bcef	-0.087274425
187	0x3e29b0fd	0.16571422
188	0xbe0f0dfc	-0.13970178
189	0x3db98619	0.0905878
190	0xbd7e6d20	-0.06211579
191	0x3d54f445	0.051990766
192	0x3e281a5b	0.16416304
193	0xbadcde45	-0.001685091
194	0xbe13ad35	-0.14421542
195	0xbde83d9e	-0.113398775
196	0xbe232368	-0.15931475
197	0xbe26fa96	-0.16306528
198	0xbe272684	-0.16323286
199	0x3e0808f8	0.13284671
200	0xbd46ff1a	-0.048583128
201	0x3debbb04	0.1151028
202	0x3e1c76cc	0.15279692
203	0xbe2ebeb2	-0.17064932
204	0x3d328b1f	0.043589707
205	0xbc178e35	-0.009250213
206	0x3e1e4bbb	0.15458576
207	0x3de9eabb	0.114217244
208	0xbdeefe77	-0.11669629
209	0x3e1f36a9	0.15548195
210	0xbc4da611	-0.0125518
211	0xbde5b875	-0.11216823
212	0x3d11ba81	0.035578255
213	0x3bb2b1d7	0.005453329
214	0xbd1afa89	-0.037836585
215	0x3d8681a6	0.06567697
216	0xbe2d1005	-0.16900642
217	0xbe17227d	-0.1475925
218	0xbe107d2f	-0.14110254
219	0x3d59386f	0.053032335
220	0x3dde21fe	0.10846327
221	0x3d8e0e5c	0.069363326
222	0x3e16527a	0.146799
223	0x3e170a09	0.14749922
224	0x3e2fc07c	0.1716327
225	0x3dd1c34e	0.102423295
226	0x3d118c4a	0.03553418
227	0x3c51a1d3	0.01279493
228	0x3bb02d01	0.0053764586
229	0xbe228409	-0.1587068
230	0x3e0bd193	0.13654165
231	0x3d1fe980	0.039041042
232	0x3e26f1cf	0.1630318
233	0x3e307693	0.17232732
234	0xbe122b05	-0.14274223
235	0xbdaeeb42	-0.085409656
236	0xbe129689	-0.14315237
237	0xbdebece8	-0.11519796
238	0x3db76d9a	0.08956452
239	0x3bcbbc2c	0.0062175
240	0x3e07e8dd	0.13272424
241	0xbc8870d0	-0.016655356
242	0x3d08290f	0.03324228
243	0xbd755224	-0.05989279
244	0xbd8597cd	-0.06523094
245	0x3d88c0fc	0.06677434
246	0x3dedbfe6	0.11608867
247	0xbdae9120	-0.08523774
248	0x3de0a81b	0.109695636
249	0x3e30e5d5	0.17275174
250	0x3e0488bb	0.12942784
251	0xbdfe7842	-0.12425281
252	0x3dc6575a	0.0968463
253	0x3e21e1c9	0.15808786
254	0xbc6c1a98	-0.014410637
255	0x3e31c17e	0.17358968

linear_list.2.bias f4 [14]
0	0x3db678e0	0.08909774
1	0x3e314eb1	0.17315175
2	0xbd07f5ff	-0.033193585
3	0xbe30b397	-0.17256008
4	0x3dcbc121	0.09948946
5	0xbe03f4ca	-0.12886348
6	0xbce72285	-0.028214702
7	0xbd2df406	-0.042469047
8	0x3dc49330	0.09598386
9	0x3c4e0d6f	0.012576445
10	0x3e0a19fa	0.13486472
11	0xbe24b412	-0.16084316
12	0x3d47b5ec	0.04875748
13	0x3e1696d4	0.14705974
