prep/g0504-233203_gcas_gcas_outT/models/model300000.onnx (onnx, 8665 bytes, 6 tensors)

linear_list.0.weight f4 [32, 14]
00000000: 8cc2 9f3c 4f0c 5dbb ef2f 9dbe 35d7 ce3c
00000010: 556b 22bd f9ac 7bbc ffdd 99bb a483 6cbb
00000020: 9535 72bd 7798 013a 1bde 083b 0f3d 5f3b
00000030: fa7e 56bc ce13 0bc0 ccda febc fb12 8f3c
00000040: 6ca8 103f 9dd7 ce3d e200 033d 5217 193d
00000050: 3277 b53b ce06 5bb8 1869 9b3c 6b1b c23b
00000060: fb77 753b e01a 103c ef3f 5d3a 4cd1 a5bf
00000070: e5d7 3dbd d407 4f3c a129 013f eec9 45ba
00000080: b366 853e e2c4 933e 468b ce3a 81f3 093c
00000090: f881 c3bc e857 943b 102b c7ba c3a0 7f3c
000000a0: f952 a43c 1aaa 013f b6b6 5b3d 6489 983c
000000b0: 2242 ff3d 0e52 d53d e77f 45be 8183 923c
000000c0: aa9b f2bb 4fa1 b4bb afc1 bd3d 19d3 24bc
000000d0: c22a a9ba a7a5 973c 09f2 b4bb e7ea 6cbf
000000e0: 6d2d 633e b02f a5bc 5fb1 1d3e 237f 26be
000000f0: 348b 453e 4f2f ddbd 182b 0fbc abe6 aebb
00000100: 09a4 4ebc 4f25 c0b9 e267 2b3b f6b1 1e3c
00000110: a546 b2bb 2e04 4a3f 8c29 a0be 55ef 5fbd
00000120: ff7f 40bd 79c2 8a3d bc45 383e 0106 94bb
00000130: 93a8 053b a3cf 9dba 7c9d 353e 6e10 05bc
00000140: 4538 aabb 6abc 193d 281c 17bc 685b d23e
00000150: dd58 bf3b 595a 28ba b37e 1dbd aae6 f13c
00000160: 687a abba 424f 263b 0aeb 603a c2e7 2f3a
00000170: 20d1 2bbb 4e13 c7b9 c491 8537 5c2c a7b9
00000180: b4e2 083a 6b5b 4d40 36e8 f23c e736 b2bb
00000190: 2191 273e 065b 01bf 50e9 24be c2c3 103c
000001a0: e0ec 353c d204 443c 07e0 3ebd aadd b4bc
000001b0: 98fc dfbc 0b06 363b e02a ecba 3a3d 06bf
000001c0: f1bb 3c3e 1678 a3bc dc01 90be f8ee 553e
000001d0: f33e b6be 24c2 7d3d 1760 323b b594 2b3c
000001e0: 9f77 103e e9bb 4239 7c28 98bb e37f 793d
000001f0: 6e2e 3a3c d7f9 ee3e f9b5 d6bd 1a34 443c
00000200: 4a8d a53e 6cc6 2cbe 40a9 19bf a432 573d
00000210: a704 d0bb 984b dcba 9810 b63c 3165 893b
00000220: 6a02 acbb 87ff 58bd 53dd 1a3d 98b5 be3e
00000230: c3bc ddbd 0ca2 55bd b4f6 773d 7b12 6c3d
00000240: 0314 b8bd f1a8 55be 8580 413b 6c09 0b3b
00000250: 32ee 9abe 619b 863b 9bf0 f8bb 64f5 473d
00000260: a5f7 b83c 3e3f 0a3f bacf d63d a15c fc3c
00000270: 931a abbe e101 193e 0467 273d 8308 14bd
00000280: 6f00 b3bc c916 e6bb a183 033e 14de d73c
00000290: 6a0e 953c a5c3 9bbd d1a3 0abe 1a92 d0be
000002a0: 1276 453d c208 713d 840c 45be ea04 1d3e
000002b0: b863 4e3d de4b 943d 5a44 29bc 8ebc 74ba
000002c0: a48d 78bd 4b16 033c aa40 143b d9b1 9c3c
000002d0: 688f ef3d 4055 393d fb17 dabd 12b0 c63d
000002e0: ee69 b33d 2d58 98bc 6cb2 93be ca01 9439
000002f0: 2bf1 b4bc e23c 72bb 6d61 123e 3ccd 0a3b
00000300: 6a4e af3c 0839 933d 13ad e5bc 36d9 ef3e
00000310: b23b 52bb 05d7 d83b 8d5e c73c e2c2 b23f
00000320: 8ee0 b2bc d88e 033c a73b d437 bbba 11bc
00000330: 2e3f 73bc 7a89 ae3b 3ca0 6239 4f4d be3b
00000340: 2a02 6f3b 931a 3fbf 4b5b a3bd ac90 843c
00000350: 316c 0d3d a947 3d3e 108a fc3d 7e77 853d
00000360: 2e1e b23a 5b31 39bb 31c8 dfbd 5c75 a63b
00000370: 15f3 d53b 838f 9e3c 0117 62bc 32c2 933f
00000380: 1286 84bc 2bcb 603b 048c fe3d 8cf6 55bd
00000390: d4d9 e6bb 64ef 423c 26a8 f9b9 8cc1 6dba
000003a0: c8d4 8dbc 23a4 243b 56af 753b c8e1 513b
000003b0: 2e78 9abc d9f4 a1bf f027 49ba aedf 993b
000003c0: fea5 583d 41eb 243f 56b1 593d bb8e 20bd
000003d0: f12b 233b ff86 4ebb 7c21 363d cf68 4a3c
000003e0: 5c43 433c 6c67 2a3d 7bc0 14bd 8c61 3b3d
000003f0: f6f0 67bc 84a1 3dba 505d 603c 1c21 80bf
0.019501947 -0.003372926 -0.30700633 0.025249103 -0.03965314 -0.015361064 -0.0046956534 -0.0036089206
-0.05913313 0.00049436785 0.0020884338 0.0034063493 -0.013091797 -2.1730838 -0.03111019 0.017465105
0.5650699 0.10099719 0.031983264 0.037375756 0.005537891 -5.2220006e-05 0.018971011 0.0059236786
0.0037455547 0.00879547 0.0008440008 -1.2954497 -0.04634847 0.012636144 0.50454146 -0.00075450435
0.26054916 0.28861147 0.001575806 0.008419872 -0.023865685 0.004527081 -0.0015195329 0.015602293
0.020059096 0.5065018 0.053641044 0.0186202 0.12463786 0.10416041 -0.19287072 0.017884972
-0.0074038105 -0.0055123935 0.09265458 -0.010060095 -0.001290642 0.018511606 -0.005522017 -0.9254593
0.22185297 -0.02016434 0.15399693 -0.16259436 0.19291383 -0.10800039 -0.008738302 -0.0053375564
-0.012612351 -0.0003664889 0.0026154448 0.009685984 -0.0054405504 0.7891263 -0.31281698 -0.054671604
-0.046997067 0.06775374 0.17995352 -0.0045173173 0.0020394668 -0.001204003 0.17735857 -0.008121593
-0.005194696 0.0375332 -0.009223022 0.41085362 0.0058394508 -0.0006422154 -0.038450908 0.029528935
-0.0013082745 0.0025376831 0.00085799454 0.0006710255 -0.0026217178 -0.0003797062 1.5922713e-05 -0.00031885772
0.00052217697 3.2087047 0.029651742 -0.005438674 0.16363956 -0.50529516 -0.16104627 0.008835735
0.011103839 0.01196404 -0.046600368 -0.022078354 -0.027342126 0.0027774598 -0.0018018149 -0.52437174
0.18431069 -0.019954722 -0.2812642 0.2089194 -0.355949 0.061952725 0.0027217919 0.010472466
0.14108132 0.00018571284 -0.004643498 0.060912978 0.011363609 0.46674988 -0.10483927 0.011975313
0.32334358 -0.16872567 -0.6002388 0.05253853 -0.006348211 -0.0016807197 0.02222471 0.004192971
-0.005249311 -0.052978065 0.037808727 0.3724792 -0.10827019 -0.052156493 0.06053801 0.05763481
-0.08988192 -0.20865227 0.0029526067 0.0021215333 -0.30259854 0.004107878 -0.007597042 0.048818007
0.022579024 0.5400275 0.104888394 0.030805888 -0.33418712 0.14942123 0.040869728 -0.03614093
-0.021850793 -0.007021759 0.12843181 0.026351012 0.01819535 -0.076056756 -0.13539053 -0.40736467
0.048208304 0.058846243 -0.19243056 0.15333906 0.050388068 0.07241033 -0.010331238 -0.0009335958
-0.060681954 0.0080009205 0.002262155 0.019127773 0.116972744 0.045247316 -0.10649105 0.097015515
0.08760439 -0.018596733 -0.28847063 0.00028230093 -0.022087654 -0.0036962559 0.14294977 0.0021179458
0.021399695 0.07188612 -0.02803663 0.46845406 -0.0032079038 0.006617429 0.024337078 1.3965724
-0.021835592 0.008029662 2.5300147e-05 -0.008894618 -0.014846606 0.005326447 0.00021612732 0.0058075557
0.0036469796 -0.74649924 -0.07976397 0.016182266 0.034527007 0.18484367 0.12331021 0.06516932
0.0013589317 -0.0028258178 -0.10926855 0.0050799083 0.006529222 0.019355541 -0.01379943 1.1543639
-0.016177211 0.0034300785 0.124290496 -0.05223708 -0.00704501 0.0118978955 -0.0004761826 -0.0009069673
-0.017313376 0.0025122247 0.0037488542 0.0032025445 -0.018856134 -1.2652847 -0.00076734927 0.004695854
0.052892677 0.6442147 0.053147636 -0.03919862 0.0024898017 -0.003151357 0.044465527 0.01235409
0.011917915 0.041602537 -0.036316376 0.045747325 -0.014156571 -0.00072338455 0.013694122 -1.0010104

linear_list.0.bias f4 [32]
00000000: 88c8 803f a2ef a53f a22c 13be 5043 1d3f
00000010: a7fc 2b3f fab5 263f 85d2 afbe ef56 2d3e
00000020: dcbb be3f e857 a83f afeb 303f e6da 4d3d
00000030: f21b 203f a487 be3e f804 963e 0e45 273f
00000040: 8df5 c03f fd6d 1a3e ec10 023f 7e4e 18be
00000050: 47ba 2bbe eba2 563f 28b5 0dbf cfa3 18be
00000060: 0017 863f a31a aebe fd13 613f fd97 9a3c
00000070: 08ac cb3e e91b 743f e2dd 113e e345 29be
1.0061197 1.2963755 -0.14372495 0.61430836 0.6718239 0.65121424 -0.343403 0.16927694
1.490108 1.3151827 0.69109625 0.050257586 0.6254264 0.3721286 0.29300666 0.65339744
1.5074936 0.1508102 0.5080707 -0.14873692 -0.16770278 0.83842343 -0.5535455 -0.14906238
1.0475769 -0.34004697 0.87921125 0.018871302 0.39779687 0.9535509 0.14244798 -0.16530566

linear_list.1.weight f4 [32, 32]
00000000: 68cb 7dbe 7c46 203f 1fb1 893d b5c8 e33e
00000010: 56dc a1bc 7e29 e1bd 1fc6 37bf 9628 0c3e
00000020: 0400 22be 3b64 2137 f971 913d 59ed 4ebd
00000030: 9f27 f7bc 45d6 d1bd 7596 bc3d a22b 02be
00000040: 3e61 363e d49b 723d 6c8a 063d 9d82 4cbf
00000050: 66ca 44bf f8d2 913d e837 05be d6f0 53bf
00000060: 5b1f bebd c0ae 08be a71b f8bd 5be3 ea3c
00000070: eb87 923e bfae debd 8dbf c33b 4e5a 3bbd
00000080: 6e6a c7bd bc56 43be 83f4 dabe da55 a3bc
00000090: 1217 a0bc 622e 4dbe bfb8 f2bb accd 57be
000000a0: c643 dbbd 1b60 96bd 1527 d83c 816e 0dbe
000000b0: cac4 dfbd 02ce 053c 6a43 19bd 83c8 1bbe
000000c0: e8d3 8dbe 7ae4 d03d 0c34 88be 311b 8a3e
000000d0: b7c8 41be 0c45 96be 459f 593e 9cba 4d3e
000000e0: e3d7 91bc 9ca4 d43e 3ca0 eebd cc62 85bd
000000f0: e554 1b3c a6d8 a1bd 0000 bbbd 6bba 5e3e
00000100: a19d 46be 6b9f bb3c 0293 233d 92f8 11be
00000110: 7af9 0a3e ad30 4d3d c7a1 dd3e 2724 0bbe
00000120: f52c edbe e2e1 cebe 1a25 05be 57f1 943c
00000130: d5b9 2bbe c0b7 c8bd 09de 44bd 7380 6c3d
00000140: a230 04bd a52e b43d f9b0 a1be eb4b 84be
00000150: 2830 773e 4701 b3be 03de 5c3e 8bac bb3d
00000160: 9b93 20bd cf0a 1b3e c669 dcbe fd65 03be
00000170: a66f 2d3e b823 01be 4317 903d 6bee 59bc
00000180: dc3f 763e 5479 a0bd e019 233e 63e8 ccbc
00000190: 1f74 413e 8ec0 4ebe 57d4 e93d 8dd9 823e
000001a0: c925 c8bd 4d16 a03e d77b 89be 8bcb e0bc
000001b0: e588 903c fc2c eabd d518 9c3c f8f6 433e
000001c0: 650d c43e 4638 253d 4b0e 25be 9dc0 a83d
000001d0: 9ac6 203c c28c ddbd 68c4 57be 1c36 dabd
000001e0: f9b5 613d 842c 11be ce0a 253e 94b1 59bc
000001f0: 5f87 5a3e daec 66bc 80f6 223e 0c6c c2be
00000200: 992d 8dbe a1cf 90be 203f d5bc f401 49be
00000210: 23e5 203e 3c9e 893d 1c06 f0be 8a5c f83c
00000220: c703 5a3e 6a04 a43e 5d65 763c 099f f3bc
00000230: 854c 413e f5a2 c73d 3c37 e4bd e077 763d
00000240: 89a3 46be dda6 063e cb07 7b3c 6f57 263e
00000250: 2b9d 70be d7a3 25be 2203 973d b62b c43d
00000260: f3a6 ef3d d5f8 2b3e d8e5 293e 1bdd f33d
00000270: 704e 953c fc80 efbd aabf a43c c433 2d3e
00000280: f705 7cbe 1651 c4bc 1f8a 81bd b74d c5bd
00000290: d2f4 cbbd f14c 11bc 1ed2 78be b0d0 0abe
000002a0: 399d 963e 710a 953e 66ea b1bd cf31 d23d
000002b0: 99d6 d7bd 37ab d83d 5de3 ac3d 3b3d dabd
000002c0: ede0 7dbe 0e53 bf3b 922b 87bc cf78 d03d
000002d0: ed7a 34be 3ddb 5a3d 50f0 1a3d 7fb7 333e
000002e0: 5ba3 763e 5876 333e 7511 46bd 25f5 523e
000002f0: a493 45be 8869 e83e 3364 a8bd e0ab a1bd
00000300: 61f5 79be 4b3d 603e c714 97bd 7f29 343e
00000310: 4caa 9d3d f6ba 963d 5f76 963d cfd2 f53d
00000320: 9225 e1bd 4c3e fe3d 0547 fdbd 61cb 703d
00000330: 6f1b 41bd 5c82 44bd d951 103d e144 4b3d
00000340: 0e55 08bd 31c3 6a3e a8e4 87be 61e7 e1bd
00000350: f15a 433e cc85 72be 6717 0cbe c650 1c3e
00000360: 7159 623e d3db 383e 8104 a6bc ceae b43c
00000370: 60d2 acbe 6528 bebe 5740 883d b230 e9bd
00000380: ef4a 23be 9e96 183d 4b00 193e 59a0 3f3d
00000390: 2bb8 50be e5dc d03e f7c8 5bbe 4746 debc
000003a0: 0d61 373e cd05 523e fccb 2ebe 7bf6 153b
000003b0: dfaa 063e 126e 153e 382b 673c 456c b63e
000003c0: 31eb 3b3e 7851 0dbe a1d2 943e 2422 3dbd
000003d0: f5f0 ba3d 3789 373e 82f1 be3d 6947 3b3c
000003e0: db8e 61bd 35bc 07be 4157 7ebd 67c2 e33d
000003f0: 4d70 06be 04b0 ab3d 67de 13be 9d6b a5be
-0.24784625 0.6260755 0.06723236 0.44489065 -0.019758385 -0.10994242 -0.71786684 0.13687357
-0.15820318 9.6196845e-06 0.07101817 -0.05051932 -0.03017026 -0.10245947 0.09208385 -0.12711957
0.17810532 0.05923064 0.032846853 -0.798868 -0.76871336 0.07120317 -0.13009608 -0.8278936
-0.09283324 -0.13347912 -0.12114649 0.028672865 0.28619322 -0.10873174 0.0059737624 -0.045740418
-0.09737097 -0.19076055 -0.42764673 -0.019938398 -0.01954225 -0.20037225 -0.0074072774 -0.21074551
-0.10706286 -0.073425494 0.026385823 -0.13811685 -0.109262064 0.008166792 -0.037417807 -0.15213208
-0.27700734 0.101998284 -0.2660221 0.2697387 -0.18924223 -0.29349554 0.21252163 0.20090717
-0.017803138 0.41531837 -0.11651656 -0.06512985 0.00948069 -0.079026505 -0.091308594 0.217508
-0.19396068 0.022903165 0.03993512 -0.14254978 0.1357173 0.05009525 0.4328749 -0.1358801
-0.46323362 -0.4040671 -0.13002434 0.018181486 -0.16770108 -0.098006725 -0.04806331 0.057739686
-0.032272942 0.08797959 -0.31580332 -0.2583917 0.24139464 -0.34961912 0.21569066 0.09163769
-0.039203268 0.15140842 -0.4304945 -0.12831874 0.16937122 -0.12611282 0.07035687 -0.013301472
0.24047798 -0.078356415 0.1592784 -0.025013154 0.18891953 -0.20190641 0.11417454 0.25556603
-0.09772832 0.31267014 -0.26852295 -0.027440807 0.017643401 -0.11434361 0.01905481 0.1913718
0.3829147 0.04033687 -0.16118734 0.08239863 0.009812975 -0.10817863 -0.21071017 -0.10654852
0.055105183 -0.14177138 0.16117403 -0.013286967 0.21340702 -0.014094556 0.15914345 -0.37973058
-0.2757385 -0.28283408 -0.026031077 -0.19629651 0.15712409 0.06719634 -0.4687966 0.030317564
0.21290503 0.32034618 0.015038815 -0.02973892 0.18876846 0.097478785 -0.111433476 0.060172915
-0.19398321 0.13149591 0.015321682 0.16244291 -0.23497455 -0.16175781 0.073736444 0.0957865
0.11701765 0.1679414 0.16591585 0.11907407 0.018225878 -0.11694524 0.020110924 0.16914278
-0.2461165 -0.023964446 -0.06325173 -0.096339636 -0.09958805 -0.008868442 -0.24298903 -0.1355617
0.29416826 0.2910953 -0.08687286 0.102634065 -0.10538978 0.10579532 0.084418036 -0.1065621
-0.24792834 0.0058387583 -0.016500268 0.101792924 -0.17625017 0.05343174 0.037826836 0.17550467
0.24085753 0.17525613 -0.048356492 0.20601328 -0.19294602 0.45393014 -0.082222365 -0.07894111
-0.24410011 0.21898381 -0.0737701 0.17593955 0.07698497 0.07359879 0.07346796 0.12003099
-0.10993494 0.12414226 -0.123670615 0.058787707 -0.047145303 -0.047975883 0.035234306 0.049626235
-0.03328424 0.22926022 -0.26541638 -0.1103046 0.1907766 -0.23683852 -0.13680802 0.15265188
0.22104432 0.18052606 -0.02026582 0.02205601 -0.33754253 -0.37140194 0.06652897 -0.11386241
-0.15946554 0.037253015 0.14941518 0.04678378 -0.20382755 0.4079353 -0.21463381 -0.02713312
0.17908116 0.20510025 -0.17070001 0.002288251 0.1315112 0.1459277 0.014109425 0.35629478
0.18351437 -0.13800609 0.29066947 -0.046175137 0.0912799 0.17923437 0.09323408 0.0114306
-0.05506788 -0.13255389 -0.06209493 0.11121064 -0.13128777 0.08383182 -0.14440309 -0.32308665

linear_list.1.bias f4 [32]
00000000: c4b8 883e 45aa 9bbe c121 9bbe b857 1d3e
00000010: 93a6 853e b7a2 833e 9bb6 82be a13b 903e
00000020: 8510 203e dd42 25be 896c 833e 9c2c 1ebe
00000030: 31c8 2b3d 8bb6 803e 9664 adbd 3404 24bd
00000040: 6148 7fbd a2c4 913e 4811 00be aa1e fc3e
00000050: ce54 a73e abe9 e9be 22f6 e13d 61ad 9c3d
00000060: 6662 c13d 62da 54be 1dd7 d73d 1d1c 723e
00000070: da37 433f 0646 143f e193 98be 6158 bcbf
0.26703465 -0.30403343 -0.3029919 0.15365493 0.2610365 0.2571008 -0.25529942 0.28170493
0.15631302 -0.16138788 0.25668743 -0.15446705 0.041938964 0.2513927 -0.08466451 -0.04004307
-0.062324885 0.2847033 -0.12506592 0.49242145 0.32681888 -0.45686087 0.11033274 0.07650257
0.09442596 -0.20786431 0.105390765 0.23643537 0.762571 0.5791935 -0.29800323 -1.4714471

linear_list.2.weight f4 [14, 32]
00000000: 55d1 47b8 fc93 b13a 0048 d3ba 574a cc3a
00000010: f81a a33b 9c75 f43a 5fb0 56ba 4f2d 1fbb
00000020: 4ece 87bb bd8c 21ba d60e deb9 e3e0 1f3e
00000030: f93e 0fbe 9988 3d3c 07bf 00bb 699d 9aba
00000040: a1d0 84ba 1cdf 96ba 0c5d e6b9 c8db 5a3a
00000050: 70c6 3fbb 8b85 9d3a 3ab4 72bb 8f90 abb9
00000060: 8ea4 ef38 a963 24be 1fed 7c37 867f db39
00000070: be38 a3b9 b1c5 9539 52a3 8e3b 6737 1bba
00000080: e6dd b43c b19e b03d 1919 25bf 4eae 093e
00000090: a01f 5f3e 3ae7 4b3c 8a7b 6fbe c89c abbe
000000a0: b98f 803d bc07 1ebc ad0c e3bd 55ab 9bbc
000000b0: 0f1d c83e 1868 2b3f 8779 d8bc 9dcd d4be
000000c0: 3772 be3d c84a 723e 0547 8ebc 01d4 913e
000000d0: 5918 c8be e756 213d 419b 7cbe 2972 92bd
000000e0: 7842 fe3d 85e0 f7bb 11e7 3abe a56f 4b3e
000000f0: 7d8a 8abd ccf9 a6bc 7504 c23d 9a16 2a3e
00000100: 0565 923e 8351 f5bc f491 f43e f154 4cbe
00000110: 2e89 86be 4095 653d f24f a93e 88b7 2a3d
00000120: f0e6 4e3e 99cf 8d3e 1402 0ebf dc8d ad3d
00000130: 5798 75be c06a 1abd 6a50 c73e e3bc 0f3e
00000140: 0b14 b23e 3ab1 b6bd 1a2f 663d 4d41 44be
00000150: 4833 183d 69a4 e8be e52c 76bc 4ed7 8dbe
00000160: 5bd4 453e 735f 5fbd 94fb d23b 953a b3bd
00000170: 63ab 1cbe 9a74 4b3e 6508 9bbe 382e 01c0
00000180: c8e6 ac3f 3f83 963e f1ce e3bc dac5 523e
00000190: 2167 3fbe 56b4 d1be 0a81 48bf 4edd 13be
000001a0: 240d 103e 6d52 85bf e16c 35bf 835a 973d
000001b0: 6224 16bc 569b 25be d254 6d3f 3b49 593e
000001c0: 9fb7 97be ab9b 55be 58d4 c3be 5a9e 4f3e
000001d0: 9b4d 6fbe 8b92 1abb 0daa 9c3d 3205 06bf
000001e0: 68f6 b0bf 7488 2c3e 31ba dd3e a6f3 983e
000001f0: d147 983f 0dc5 e7bc 0831 cebe 64ae f33c
00000200: 0e30 eebd 7da7 e03d 333e bfbe 51a8 30bf
00000210: d54d 46bd 75ba c0bd 7940 debe eb3a 783d
00000220: bdd6 9e3d 9d62 a5bd 3259 ffbd 0595 693d
00000230: e017 983e 0a0c 263e 3138 da3e dfa8 db3e
00000240: 4f0f c6be 7368 c63d d791 0e3e 7e7a 6cbe
00000250: 6dfa 8cbe 80f7 563e f3f8 a23e 1006 b5bd
00000260: 0b0f dabb 0f7c 873d 8f3a 66be 49ff 1f3e
00000270: ae78 37bd c711 9cbb 7f52 043f a16b ab3d
00000280: 0bed 95bc 27bb f73c eced 313e ae64 e23d
00000290: c540 9bbe 1959 44be 5af5 823e 3c98 3bbd
000002a0: 4b58 5fbe 2cc6 653c f326 27bd 71b5 29bd
000002b0: c775 c6bd 03ff 1dbe c879 823e d41b 103e
000002c0: 8eca e03d 3166 4a3c a9e7 8abd 2b4c c8bc
000002d0: 6b59 1d3e 8fe6 c03d 4bd2 a6be 71c8 03be
000002e0: 2556 943d 26ab 87bd 0942 8ebe ccc4 ee3d
000002f0: e646 77bc 8216 7f3d d04e e6bd 1ad7 05bf
00000300: fb21 d1bd 66c0 193e d20d a3be 12e3 4f3e
00000310: 3b02 9ebe 2983 61be b521 84be c0fc 253f
00000320: 4a16 583c 2d05 013e ebbe 9e3d b80d 23be
00000330: d947 b83d 12d6 563e ad21 c8be 7d2f 6f3a
00000340: 2485 7dbe eebd ce3e f431 bdbc 8d0b 3fbe
00000350: 091e 48be 99c9 e8bd 767d 6dbc b1fe 383e
00000360: 1927 323d 11d6 14be 6813 dfbc 2496 e0bc
00000370: 95a5 9f3c a9ca f7bd 7ec8 933e 3779 de3e
00000380: 154b 0f3f 951c c13d 9b43 b33c 5d78 8dbe
00000390: 17ac af3e 8d1b ae3c 2e56 d23e 8457 213e
000003a0: 63ab 22be e233 65be 720f fdbd a1f8 acbd
000003b0: 3874 47bd eee6 0abe de7a a7be 2080 16be
000003c0: e8db 1e3e 92d1 983e 21a9 2ebf 69e9 78be
000003d0: 1ecf 24bf b203 363e 8f07 313e cb31 bf3c
000003e0: 8cc7 143f 7ac2 2a3e 83fa f83d 8302 1f3d
000003f0: e530 023e aed0 9240 ea4a ebbd 8fde 3bbd
-4.7640253e-05 0.0013548131 -0.001611948 0.001558612 0.00497758 0.0018650773 -0.00081897335 -0.002428848
-0.0041444665 -0.0006162634 -0.00042354193 0.15613131 -0.13988866 0.011568212 -0.0019645111 -0.001179618
-0.0010132977 -0.0011510584 -0.00043938344 0.000834879 -0.0029262565 0.0012017948 -0.0037033693 -0.00032723366
0.00011427059 -0.16053642 1.50755795e-05 0.00041865947 -0.0003113206 0.00028566786 0.0043529654 -0.00059210364
0.022078466 0.08624018 -0.6449142 0.13445398 0.21789408 0.012445265 -0.2338697 -0.33518052
0.06277413 -0.009645399 -0.11086402 -0.019002596 0.3908467 0.6695571 -0.026425136 -0.4156312
0.092991285 0.2366134 -0.01736785 0.2848206 -0.39081076 0.039389517 -0.246686 -0.071506806
0.12415022 -0.0075646066 -0.18252207 0.19866808 -0.06764696 -0.020382784 0.09473506 0.16610184
0.28592697 -0.029946094 0.47767603 -0.19954278 -0.26276535 0.05605054 0.33068806 0.041678935
0.20205283 0.27697447 -0.5547192 0.08474323 -0.23983894 -0.03769946 0.3892854 0.14036898
0.34780917 -0.08920522 0.056197263 -0.19165535 0.03715828 -0.45437935 -0.015025352 -0.27703327
0.19319288 -0.054534387 0.006438682 -0.08751408 -0.15299754 0.19868699 -0.30279842 -2.018446
1.3507929 0.29397008 -0.027808638 0.20583287 -0.18691684 -0.40957898 -0.783219 -0.1443989
0.14067513 -1.0415779 -0.7086926 0.073903106 -0.009163948 -0.16172537 0.9270755 0.21219341
-0.2963228 -0.20860164 -0.38247943 0.2027525 -0.23369448 -0.0023585882 0.07649622 -0.5235168
-1.3825197 0.16848928 0.43306115 0.2987339 1.1896917 -0.028292203 -0.40271783 0.029746242
-0.116302595 0.10969446 -0.37352142 -0.6900683 -0.04841407 -0.09410564 -0.43408564 0.060603064
0.07755802 -0.080754496 -0.124681845 0.05702688 0.29705715 0.1621553 0.42620996 0.42902276
-0.38683555 0.09687891 0.13922821 -0.23093602 -0.2753481 0.20992851 0.31830558 -0.08839047
-0.0066546253 0.06615459 -0.22483276 0.15624727 -0.044792823 -0.0047628614 0.5168838 0.08370138
-0.018301507 0.030240608 0.17375916 0.110543594 -0.30322853 -0.19174613 0.25577813 -0.04579948
-0.21811025 0.014024299 -0.04080863 -0.0414328 -0.09690433 -0.1542931 0.25483537 0.14073116
0.10976134 0.012353466 -0.06782467 -0.024450382 0.15366141 0.094189756 -0.32582316 -0.12869431
0.07242993 -0.06624441 -0.27784756 0.1165863 -0.015092587 0.062277324 -0.11245501 -0.52281344
-0.102115594 0.150148 -0.31846482 0.20301464 -0.30861077 -0.2202269 -0.25806966 0.6483879
0.013188908 0.1259963 0.077512585 -0.15923202 0.08998079 0.20980099 -0.39088193 0.0009124203
-0.2475782 0.4037928 -0.023095109 -0.1865675 -0.19542708 -0.11366577 -0.014495244 0.18065907
0.043494318 -0.14534785 -0.027230933 -0.027415343 0.019488135 -0.12099201 0.288639 0.43451855
0.5597394 0.0942928 0.021882823 -0.27630892 0.34310982 0.021253372 0.41081375 0.15756041
-0.15885691 -0.22383073 -0.123564616 -0.0844586 -0.04869482 -0.13564655 -0.32710928 -0.14697313
0.15513575 0.2984739 -0.6822682 -0.24307789 -0.64378536 0.17774847 0.1728804 0.023339173
0.58116984 0.1667575 0.12157156 0.038820755 0.12713964 4.5879736 -0.11488898 -0.045866545

linear_list.2.bias f4 [14]
00000000: f90f 883e 010b 853e 3bdf 813d 67c0 2dbe
00000010: a440 65be 4d9a 92bd 1545 c03e b7b7 0b3c
00000020: e2f4 483e 78da 2b3e 6a30 18bf 020f f33e
00000030: 65ea 363f 0872 32be
0.26574686 0.25984958 0.06341406 -0.16967927 -0.2238794 -0.07158337 0.37552705 0.008527688
0.19624665 0.16782558 -0.59448874 0.47472388 0.7145141 -0.17426312
