prep/g0504-233203_gcas_gcas_outT/models/model450000.onnx (onnx, 8665 bytes, 6 tensors)

linear_list.0.weight f4 [32, 14]
0	0x3ca5771c	0.020198397
1	0xbaf180e1	-0.001842525
2	0xbe999ce9	-0.30002525
3	0x3d08df33	0.033415984
4	0xbd46edb9	-0.048566554
5	0xbc92c0f5	-0.017914275
6	0xbb838789	-0.00401396
7	0xbb874aaf	-0.004128776
8	0xbd562e47	-0.052290227
9	0xb9447bb9	-0.00018738107
10	0x3aeff714	0.0018307888
11	0x3b62d0ef	0.0034609397
12	0xbc6ae76f	-0.014337405
13	0xc00d0d42	-2.2039342
14	0xbd0a71b7	-0.033799853
15	0x3c7a6d6f	0.01528488
16	0x3f12dd81	0.5736924
17	0x3defbd8e	0.117060766
18	0x3d19fc19	0.037593935
19	0x3ce08e9e	0.027411755
20	0x3ba06d88	0.0048958696
21	0xba2ee283	-0.0006671326
22	0x3cb863e2	0.022508565
23	0x3ba1bd78	0.0049359165
24	0x3b4c0322	0.0031129797
25	0x3be2934e	0.0069145327
26	0x3a4f243a	0.00079018215
27	0xbfa720bc	-1.3056865
28	0xbd70d275	-0.058794457
29	0x3c5bc393	0.013413328
30	0x3f02651a	0.5093552
31	0x3b5524d0	0.0032523163
32	0x3e892c76	0.26791734
33	0x3e901374	0.28139842
34	0x3afa0cb3	0.0019077271
35	0x3bbb02fb	0.0057071424
36	0xbd2b5aa9	-0.041834507
37	0x3b637f9a	0.0034713508
38	0xba8bde0a	-0.0010671031
39	0x3c4f48cb	0.012651633
40	0x3c521c78	0.01282417
41	0x3f011e14	0.5043652
42	0x3d690001	0.05688477
43	0x3cb7fad0	0.022458464
44	0x3de22a4e	0.11043225
45	0x3dae0ea6	0.08498888
46	0xbe634c6c	-0.22197121
47	0x3c8e4e4a	0.017371316
48	0xbb81ec1a	-0.003964913
49	0xbb8c517f	-0.004282176
50	0x3daa5467	0.0831688
51	0xbc0e1648	-0.008672304
52	0xba0700dc	-0.00051499694
53	0x3c7b7be9	0.015349367
54	0xbbea2647	-0.0071456763
55	0xbf6e096d	-0.9298313
56	0x3e525cb9	0.20543183
57	0xbc8e25b0	-0.017351955
58	0x3e23c7ad	0.15994139
59	0xbe3524a7	-0.17689763
60	0x3e45fb92	0.19334248
61	0xbdd2b2e0	-0.10288024
62	0xbbccbb04	-0.00624788
63	0xbbdb348b	-0.006689613
64	0xbc28e734	-0.010309029
65	0x3a4a16d2	0.0007709089
66	0x3af202b5	0.0018463942
67	0x3c2c0330	0.010498807
68	0xbbe1c021	-0.0068893586
69	0x3f4f1d87	0.8090443
70	0xbe963ed9	-0.29344824
71	0xbd6672a3	-0.05626167
72	0xbc6b743d	-0.014370975
73	0x3d866090	0.065613866
74	0x3e3e795e	0.18600985
75	0xbc522785	-0.012826805
76	0x3afa6f03	0.001910657
77	0x3a98bf23	0.0011653643
78	0x3e1d87e7	0.15383874
79	0xbbb00a0b	-0.005372291
80	0xbb8b7a67	-0.004256535
81	0x3d072744	0.03299643
82	0xbbf82cfc	-0.007573722
83	0x3ed53a05	0.41645828
84	0x3bde9860	0.006793067
85	0xba58839a	-0.0008259356
86	0xbd0e2df1	-0.034711782
87	0x3cba2e25	0.022727082
88	0xbb2f0c35	-0.0026710157
89	0x3b4e4eb6	0.003148002
90	0x3a3d31a0	0.00072171725
91	0x398e428f	0.0002713394
92	0x3a552b34	0.0008131743
93	0xba34462c	-0.00068769115
94	0xba066951	-0.00051273877
95	0xbae98621	-0.0017816463
96	0x39dd4fcf	0.00042211867
97	0x404ff957	3.2495935
98	0x3cf74d34	0.03018818
99	0x3ad4f885	0.0016248381
100	0x3e0e1b3a	0.13877574
101	0xbf050038	-0.5195346
102	0xbe278198	-0.1635803
103	0x3c3c6fe0	0.011501282
104	0x3c197717	0.009366772
105	0x3c410a6a	0.011782268
106	0xbd2504ad	-0.040287662
107	0xbc96d42d	-0.01841172
108	0xbcd4782f	-0.025936214
109	0x3aeb59ea	0.0017955874
110	0x3af11fe0	0.001839634
111	0xbf081b73	-0.53166884
112	0x3e3b3eaf	0.1828563
113	0xbc74fb03	-0.014952424
114	0xbe8baa33	-0.2727829
115	0x3e61dd12	0.22056988
116	0xbeb7680b	-0.35821566
117	0x3d447888	0.04796651
118	0x3b40b2cb	0.0029403444
119	0x3c0684f7	0.008210412
120	0x3e0e612e	0.13904259
121	0x38e2b93b	0.00010811022
122	0xbb9bc7bf	-0.004754036
123	0x3d6571cc	0.05601673
124	0x3c748a46	0.014925545
125	0x3ef60f9e	0.4805879
126	0xbdd846ae	-0.10560356
127	0x3c765800	0.015035629
128	0x3e9fe8aa	0.31232196
129	0xbe37afc1	-0.17938139
130	0xbf19c554	-0.60066724
131	0x3d85021a	0.064945415
132	0xbb81f44f	-0.0039658914
133	0xbb23be07	-0.0024985091
134	0x3c9a94a9	0.018869715
135	0x3b2e43cc	0.0026590703
136	0xbba6f72b	-0.0050953827
137	0xbd46040b	-0.0483437
138	0x3cf93033	0.030418491
139	0x3ec294bd	0.38004103
140	0xbdcbf9ce	-0.09959756
141	0xbd56d64e	-0.05245047
142	0x3ce16046	0.027511727
143	0x3d60cd7d	0.05488347
144	0xbdcf2e48	-0.10116249
145	0xbe49c8bd	-0.19705482
146	0x3b97f810	0.0046377257
147	0x3b0c94df	0.0021451039
148	0xbe8ea1d0	-0.27857828
149	0x3ba9775a	0.0051716985
150	0xbbfb6c63	-0.007672833
151	0x3d3f51fe	0.046709053
152	0x3ca10804	0.019657142
153	0x3f0ee0c7	0.55811733
154	0x3dd52bbd	0.10408733
155	0x3d0068f8	0.031350106
156	0xbeabca35	-0.3355271
157	0x3e19ddf0	0.15026069
158	0x3cfb2b19	0.030660199
159	0xbcf91ef3	-0.030410266
160	0xbcb54163	-0.022125905
161	0xbb9d54bd	-0.0048013614
162	0x3e0c70f3	0.13714962
163	0x3cbf8fa1	0.023383917
164	0x3c876fc0	0.016532779
165	0xbd933a56	-0.07188861
166	0xbe063654	-0.13106662
167	0xbed0b237	-0.40760967
168	0x3ccd1c78	0.025037989
169	0x3d5aa5fd	0.053380955
170	0xbe45e38c	-0.19325083
171	0x3e1ebd88	0.15501988
172	0x3d3d91cc	0.04628162
173	0x3da6ea88	0.08150202
174	0xbbcb418b	-0.0062028817
175	0xbb2b90cb	-0.0026178833
176	0xbdb7476a	-0.08949168
177	0x3c00b2bf	0.007855116
178	0x3ab3402c	0.0013675741
179	0x3c809d3b	0.015699973
180	0x3dd4976d	0.10380445
181	0x3d3165c7	0.043309953
182	0xbde2c52c	-0.11072764
183	0x3dbda82d	0.092605926
184	0x3df55f66	0.119810864
185	0xbc7c0168	-0.015381195
186	0xbe807318	-0.2508781
187	0xbc867efd	-0.016417975
188	0xbca99a5e	-0.02070349
189	0xbbcb79c3	-0.0062095835
190	0x3e00acbe	0.12565896
191	0x3b555806	0.0032553687
192	0x3c8f6911	0.017506154
193	0x3d6e3548	0.05815628
194	0xbcd9537e	-0.02652907
195	0x3ef07e5a	0.469714
196	0xbb4f6fa8	-0.0031652246
197	0x3bc56ed2	0.0060251737
198	0x3caedb9f	0.021344958
199	0x3fb6c1dd	1.4277912
200	0xbca7d07b	-0.020485153
201	0x3c034543	0.008012119
202	0x39b1bee8	0.00033902307
203	0xbbdf8b44	-0.0068220217
204	0xbc6ce8f4	-0.014459837
205	0x3b8c7471	0.004286342
206	0xba19a223	-0.0005860647
207	0x3bac79f5	0.005263562
208	0x3ba6b80d	0.0050878585
209	0xbf3f1a93	-0.74649924
210	0xbdae2d02	-0.08504678
211	0x3cad63fc	0.02116584
212	0x3beff29b	0.007322622
213	0x3e51ae3a	0.20476618
214	0x3dc15acd	0.09441147
215	0x3d7ff717	0.062491503
216	0x3ae878ca	0.0017736193
217	0xbb8fd66f	-0.004389576
218	0xbdbaf1b5	-0.09128133
219	0x3b53b4d4	0.0032303827
220	0x3bc7f038	0.0061016344
221	0x3c96610f	0.018356828
222	0xbc786ea1	-0.015163095
223	0x3f98045d	1.1876332
224	0xbcb5d15e	-0.02219456
225	0x3aaace56	0.0013031464
226	0x3e020fc7	0.12701331
227	0xbd40c763	-0.04706515
228	0x3b929978	0.0044738613
229	0x3c7e4b6b	0.015520911
230	0xba4b806c	-0.0007762972
231	0xba99d9c2	-0.001173787
232	0xbc9cf766	-0.019160938
233	0x3b37a190	0.0028019883
234	0x3b5eb4fd	0.003398239
235	0x3af31c09	0.0018547784
236	0xbc92ad78	-0.017904982
237	0xbfa29b49	-1.2703639
238	0xbbdfe90a	-0.0068332003
239	0x3c0adff5	0.008476247
240	0x3cd8be06	0.026457798
241	0x3f3ad328	0.7297845
242	0x3c9812dc	0.01856368
243	0xbc6a2133	-0.014290142
244	0xba89ef0e	-0.0010523514
245	0xbc1a22db	-0.009407724
246	0x3cd1cbde	0.025609907
247	0x3c166697	0.009179733
248	0x3c1b4d49	0.009478875
249	0x3ccea13f	0.025223373
250	0xbcbbe784	-0.022937544
251	0x3d151345	0.03639533
252	0xbc54b854	-0.0129834
253	0xbb056865	-0.0020356413
254	0x3cbdc96a	0.02316733
255	0xbf80f264	-1.0073972

linear_list.0.bias f4 [32]
0	0x3f82e99c	1.0227542
1	0x3fa65fe7	1.2998017
2	0xbe105b58	-0.14097345
3	0x3f2792ad	0.65458184
4	0x3f2d0f38	0.67601347
5	0x3f2a7b16	0.66594064
6	0xbeb2bb2c	-0.34908426
7	0x3e25b195	0.16181023
8	0x3fbe79c6	1.4880912
9	0x3fa96d46	1.3236473
10	0x3f2a6434	0.6655915
11	0x3d672c49	0.056438718
12	0x3f21414e	0.6299027
13	0x3eca1e1b	0.39476094
14	0x3e8e1873	0.27753028
15	0x3f23edc3	0.6403467
16	0x3fc2c322	1.52158
17	0x3e417259	0.18891276
18	0x3f0117a2	0.50426686
19	0xbe179e47	-0.14806472
20	0xbe34905b	-0.17633192
21	0x3f514a7b	0.81754273
22	0xbf12286c	-0.5709293
23	0xbe1c22d4	-0.15247661
24	0x3f864966	1.049115
25	0xbeb71bf6	-0.3576352
26	0x3f66be9c	0.90134597
27	0x3cb80deb	0.022467574
28	0x3ecfe1b0	0.40601873
29	0x3f7d11be	0.988552
30	0x3e19380a	0.14962783
31	0xbe3acd7d	-0.1824245

linear_list.1.weight f4 [32, 32]
0	0xbe6fac77	-0.23405634
1	0x3f27c73f	0.655384
2	0x3d95a23a	0.07306333
3	0x3ee655c9	0.44987324
4	0xbb90f2a0	-0.0044234544
5	0xbdd56baf	-0.1042093
6	0xbf38eb17	-0.7223372
7	0x3e12cafa	0.14335242
8	0xbe261bbf	-0.16221522
9	0x3b85acaf	0.0040794234
10	0x3dabacb0	0.08382547
11	0xbd426176	-0.047456227
12	0xbce2420a	-0.02761938
13	0xbdd6f379	-0.104956575
14	0x3dbb4bcd	0.09145317
15	0xbdfb5733	-0.12272491
16	0x3e4f33b3	0.20234565
17	0x3d70ab16	0.05875691
18	0x3d4331f1	0.04765505
19	0xbf4ecc8d	-0.8078087
20	0xbf45ef5e	-0.7731837
21	0x3d997caf	0.07494485
22	0xbe0537e8	-0.13009608
23	0xbf563ac6	-0.8368343
24	0xbd9af825	-0.07566861
25	0xbe09d3b8	-0.1345967
26	0xbdf3662f	-0.11884724
27	0x3d017d40	0.03161359
28	0x3e9a5219	0.3014076
29	0xbdcd2834	-0.10017434
30	0x3c2a6fe1	0.010402651
31	0xbd30f8a9	-0.04320589
32	0xbdc76a6e	-0.09737097
33	0xbe4356bc	-0.19076055
34	0xbedde36b	-0.4333757
35	0xbca355da	-0.019938398
36	0x3b1ceaea	0.002394373
37	0xbe3e9e9a	-0.18615189
38	0xbd02eab2	-0.031962104
39	0xbe57cdac	-0.21074551
40	0xbdaf5607	-0.0856133
41	0xbd383a75	-0.044977624
42	0x3d473434	0.04863377
43	0xbe0c4989	-0.13699926
44	0xbdd0316c	-0.101656765
45	0x3c65f056	0.014034351
46	0xbd0b9b78	-0.034083813
47	0xbe143b90	-0.14475846
48	0xbe8dd3e8	-0.27700734
49	0x3e01d6db	0.12679617
50	0xbe8801ae	-0.26563781
51	0x3e837280	0.25673294
52	0xbe512655	-0.20424779
53	0xbe90242c	-0.28152597
54	0x3e466170	0.19373107
55	0x3e417d7c	0.18895525
56	0x3a65670c	0.0008751012
57	0x3ecc3301	0.39882663
58	0xbdc71512	-0.09720816
59	0xbd7d6788	-0.061866313
60	0x3c1b54e5	0.00948069
61	0xbda0059f	-0.07813572
62	0xbdbb0000	-0.091308594
63	0x3e562e7d	0.20916171
64	0xbe469da1	-0.19396068
65	0x3cc0ec81	0.023550274
66	0x3d1a9713	0.03774173
67	0xbe11f892	-0.14254978
68	0x3e1444f9	0.14479436
69	0x3d833f5a	0.06408568
70	0x3ecc5e35	0.39915624
71	0xbe0b2427	-0.1358801
72	0xbedebd17	-0.4350364
73	0xbeb73a68	-0.35786748
74	0xbdd59517	-0.10428827
75	0x3c971a86	0.018445265
76	0xbe1b4829	-0.15164246
77	0xbdb5eb02	-0.08882715
78	0xbd2724ef	-0.040806707
79	0x3d8ffff9	0.07031245
80	0xbd0430a2	-0.032272942
81	0x3e0ff1dc	0.14057106
82	0xbe9570b3	-0.29187545
83	0xbe8e1e21	-0.27757362
84	0x3e611cf1	0.21983697
85	0xbea48e2c	-0.3213972
86	0x3e4625c5	0.19350345
87	0x3d977eeb	0.073972546
88	0xbc74661e	-0.014916925
89	0x3e091206	0.13385782
90	0xbed3aae4	-0.41341317
91	0xbdfdaf7d	-0.12386987
92	0x3e2d6fa6	0.16937122
93	0xbe0123b8	-0.12611282
94	0x3d901743	0.07035687
95	0xbcb2e3b0	-0.021837085
96	0x3e770139	0.2412156
97	0xbdc14923	-0.09437778
98	0x3e19ca67	0.15018617
99	0xbd02c8c5	-0.03192975
100	0x3e45cad6	0.19315657
101	0xbe3d97b6	-0.18514904
102	0x3d9dcf64	0.07705572
103	0x3e7c8944	0.24661738
104	0xbd65a29a	-0.056063272
105	0x3eb9801c	0.36230552
106	0xbe79dfaf	-0.24401735
107	0xbca953f7	-0.02066992
108	0x3d2e245f	0.042515155
109	0xbdd6164f	-0.10453474
110	0x3b800416	0.003906737
111	0x3e4ff6ac	0.20308942
112	0x3ebacae9	0.36482933
113	0x3db27203	0.08713152
114	0xbe20895c	-0.15677398
115	0x3d7e8ad2	0.062144108
116	0xbc3c70ff	-0.01150155
117	0xbda01ec1	-0.07818366
118	0xbe7520b6	-0.2393826
119	0xbe01b9ff	-0.12668608
120	0x3dc920c8	0.09820706
121	0xbe28e496	-0.16493449
122	0x3e2f7d91	0.17137744
123	0x3bb9946c	0.005663445
124	0x3e586f45	0.21136196
125	0xbc5527c2	-0.013009967
126	0x3e2314e7	0.15925942
127	0xbec1ca10	-0.37849474
128	0xbe8f9b60	-0.2804823
129	0xbe8623fd	-0.26199332
130	0xbcf8f83b	-0.030391803
131	0xbe49a3ee	-0.1969144
132	0x3e1ccb4a	0.15311924
133	0x3dbd1e40	0.09234285
134	0xbefa0d26	-0.48838156
135	0x3ce3a114	0.027786769
136	0x3e5fe727	0.21865521
137	0x3eb1b383	0.3470727
138	0x3d0fb7d4	0.03508742
139	0xbcee8adb	-0.029118946
140	0x3e47aebd	0.19500251
141	0x3dd8e3d5	0.105903305
142	0xbdadea40	-0.08491945
143	0x3da089d5	0.078387894
144	0xbe33630c	-0.17518252
145	0x3e0f4a75	0.13993247
146	0x3cef03f8	0.029176697
147	0x3e1ac64e	0.1511471
148	0xbe7e72cf	-0.24848484
149	0xbe0bf144	-0.13666254
150	0x3d999248	0.07498604
151	0x3db0b6b3	0.08628597
152	0x3e1ef2fb	0.15522377
153	0x3e24fa87	0.16111194
154	0x3e22334f	0.15839885
155	0x3df8d3d8	0.12149781
156	0x3c741fb9	0.014900141
157	0xbde27d7b	-0.1105909
158	0x3c6bd643	0.014394346
159	0x3e25ad91	0.16179492
160	0xbe74edc5	-0.23918827
161	0xbca8c5ee	-0.020602193
162	0xbd872eb3	-0.06600704
163	0xbdaf10aa	-0.085481
164	0xbdbf017d	-0.09326456
165	0xbc64650a	-0.013940105
166	0xbe79514b	-0.24347417
167	0xbe0cc4fa	-0.13747016
168	0x3e99d1d4	0.300429
169	0x3e92f3ad	0.28701535
170	0xbdb4c0ea	-0.08825858
171	0x3dd6c09c	0.10485956
172	0xbde18230	-0.110111594
173	0x3ddc4b03	0.10756495
174	0x3d9e36d5	0.07725302
175	0xbde78df7	-0.113063745
176	0xbe76942e	-0.24079964
177	0x3d2650b5	0.040604312
178	0xbd06c98d	-0.032907058
179	0x3dd7f46f	0.10544669
180	0xbe337021	-0.17523243
181	0x3d432118	0.047638983
182	0x3d216128	0.039399296
183	0x3e3747ad	0.17898436
184	0x3e684823	0.22683768
185	0x3e336c47	0.17521773
186	0xbd189cf1	-0.037259046
187	0x3e59dc30	0.21275401
188	0xbe4bf308	-0.19916928
189	0x3ef361ae	0.4753546
190	0xbd9c9759	-0.07646055
191	0xbda220d2	-0.07916416
192	0xbe7cf23a	-0.24701777
193	0x3e277b22	0.16355565
194	0xbdbcc8c7	-0.09217983
195	0x3e2fb7aa	0.17159906
196	0x3dc68d97	0.09694975
197	0x3dc33fe8	0.095336735
198	0x3bb5403a	0.005531338
199	0x3ded0611	0.11573423
200	0xbd8ccbf1	-0.06874836
201	0x3e03834c	0.12843055
202	0xbd9f5b48	-0.077810824
203	0x3d99a81d	0.07502768
204	0xbc3b3703	-0.01142669
205	0xbd9697ef	-0.07353198
206	0xbc305f5d	-0.010764924
207	0x3d85c98e	0.06532584
208	0xbd44e467	-0.048069384
209	0x3e991b4f	0.29903647
210	0xbe873907	-0.26410696
211	0xbe1deb8d	-0.15421887
212	0x3e165c19	0.1468357
213	0xbe4e0aa1	-0.20121242
214	0xbe52b323	-0.20576148
215	0x3de697ea	0.11259444
216	0x3e967e6c	0.29393327
217	0x3e1031e8	0.14081538
218	0xbcdae2ed	-0.026719535
219	0x3d355934	0.044274524
220	0xbeb4b64a	-0.35295326
221	0xbeb30f80	-0.34972763
222	0x3d8398f7	0.0642566
223	0xbe18f4cd	-0.14937134
224	0xbe1eb4ef	-0.15498708
225	0x3d4a07ec	0.04932396
226	0x3e1e3f85	0.15453918
227	0x3d22c34b	0.039737027
228	0xbe327fb4	-0.17431527
229	0x3eddd1f8	0.43324256
230	0xbe7ae40b	-0.24501054
231	0xbcb16117	-0.021652741
232	0x3e4dee85	0.20110519
233	0x3e63c7a3	0.22244124
234	0xbe0f5d0a	-0.14000335
235	0x3b2a27ee	0.0025963741
236	0x3e1698f5	0.14706786
237	0x3e16f6df	0.14742611
238	0x3d57b2da	0.0526608
239	0x3ec1ea16	0.37873906
240	0x3e45ade3	0.19304614
241	0xbe23bb7c	-0.15989488
242	0x3ea614f2	0.32437855
243	0xbd76eb32	-0.060282893
244	0x3d9741c4	0.07385591
245	0x3e509eb9	0.20373048
246	0x3d89338a	0.066992834
247	0xba371856	-0.00069845223
248	0xbcdcf95b	-0.02697437
249	0xbe193cbf	-0.14964579
250	0xbd2fac57	-0.042888965
251	0x3df2eeb8	0.11861938
252	0xbe06882a	-0.1313788
253	0x3da8ded3	0.08245625
254	0xbe14c816	-0.14529452
255	0xbea8671f	-0.32891175

linear_list.1.bias f4 [32]
0	0x3e8e61fb	0.27809128
1	0xbe8fe13e	-0.28101534
2	0xbe8ceae2	-0.2752295
3	0x3e4044a7	0.18776189
4	0x3e8df9b5	0.27729574
5	0x3e828a8f	0.25496337
6	0xbe583a4f	-0.21115993
7	0x3e9f7ec4	0.31151402
8	0x3e2d9a87	0.16953479
9	0xbe279e85	-0.16369064
10	0x3e892561	0.2678633
11	0xbe1f5194	-0.15558463
12	0x3d2bc831	0.041938964
13	0x3e8f71d8	0.28016543
14	0xbd3832e6	-0.044970416
15	0xbcc2204d	-0.023697043
16	0xbd7beb42	-0.061503656
17	0x3e946bcc	0.28988492
18	0xbe00da33	-0.12583236
19	0x3f010047	0.5039105
20	0x3ebbf421	0.36709693
21	0xbebeb42f	-0.37246844
22	0x3e01935d	0.12653871
23	0x3d9931fd	0.07480238
24	0x3dc01f1e	0.09380935
25	0xbe556005	-0.2083741
26	0x3dccdfdc	0.10003635
27	0x3e74dad1	0.23911597
28	0x3f426377	0.7593302
29	0x3f154db0	0.58321667
30	0xbe8a88f2	-0.27057606
31	0xbfbaeb08	-1.4602976

linear_list.2.weight f4 [14, 32]
0	0x39904c3d	0.00027522622
1	0x3ad78fd1	0.0016446059
2	0xbad74637	-0.0016424124
3	0x3900719e	0.00012249357
4	0x3bc657ac	0.006052932
5	0x39f2aca6	0.0004628647
6	0xb9f9efba	-0.0004767159
7	0xba47f734	-0.00076280837
8	0xbb93653f	-0.0044981535
9	0xba2af4fc	-0.0006521491
10	0xb9f2b530	-0.00046292832
11	0x3e1fe0e3	0.15613131
12	0xbe0f3ef9	-0.13988866
13	0x3c585809	0.013204583
14	0xbb2cebf7	-0.0026385763
15	0xbb30d007	-0.0026979463
16	0xba4544ae	-0.00075251877
17	0xbadd1d74	-0.001686974
18	0xb9d72255	-0.00041033575
19	0x39d8663c	0.000412749
20	0xbb94bc44	-0.0045390446
21	0x3b21125c	0.0024577593
22	0xbb1d2e07	-0.0023983733
23	0xb95eaf82	-0.00021236952
24	0x3972e14d	0.0002316285
25	0xbe233eb1	-0.15941884
26	0x3968d7f3	0.00022205691
27	0x39e72a82	0.00044091424
28	0xb9b19e81	-0.00033878165
29	0x391eb269	0.00015134517
30	0x3b94707a	0.00453001
31	0xba0a02a3	-0.0005264675
32	0x3cace82d	0.021106804
33	0x3d39b137	0.04533502
34	0xbf394a7a	-0.7237927
35	0x3de808b5	0.11329786
36	0x3e83838f	0.2568631
37	0x3c7e1b55	0.015509446
38	0xbebcc22c	-0.3686689
39	0xbead756f	-0.33878657
40	0x3d987368	0.07443887
41	0xbc9585e5	-0.018252322
42	0xbdca2273	-0.09869852
43	0xbc9bab55	-0.019002596
44	0x3ec81d0f	0.3908467
45	0x3f368ac4	0.7130549
46	0xbdab4c63	-0.08364179
47	0xbef4d7df	-0.47820947
48	0x3da77a2d	0.081776
49	0x3e84188f	0.25799987
50	0xbcab75e4	-0.020930238
51	0x3e955416	0.29165715
52	0xbee8e166	-0.45484465
53	0xbd456d3e	-0.048199885
54	0xbe84ba99	-0.25923613
55	0xbda53c70	-0.08068168
56	0x3deaf49e	0.11472438
57	0xbbf7e085	-0.0075646066
58	0xbe5074e6	-0.20357093
59	0x3e513bf7	0.20433031
60	0xbd493e4b	-0.049131673
61	0xbd02b99d	-0.031915296
62	0x3de872e6	0.1135004
63	0x3e26331f	0.16230439
64	0x3ea9cb12	0.33162743
65	0xbc59cb33	-0.013293075
66	0x3ef9219e	0.4865846
67	0xbe28fc0e	-0.16502401
68	0xbe8b6e78	-0.27232718
69	0x3d9a1798	0.075240314
70	0x3ec55aa8	0.38545728
71	0x3d9e17e3	0.077194
72	0x3e555848	0.20834458
73	0x3e989ae9	0.29805687
74	0xbf1c65d9	-0.6109291
75	0x3dad8ddc	0.08474323
76	0xbe759857	-0.23983894
77	0xbd2b3e2e	-0.041807346
78	0x3edc5644	0.43034565
79	0x3e374c50	0.17900205
80	0x3ec7f2a2	0.39052302
81	0xbdd8c46f	-0.10584342
82	0x3d9ff0f2	0.078096285
83	0xbe2a4ef0	-0.16631675
84	0x3d9dac38	0.07698864
85	0xbee853bb	-0.4537638
86	0xbbd9c4a3	-0.0066457554
87	0xbe8211fe	-0.25404352
88	0x3e6aea0b	0.22940843
89	0xbd5f5f73	-0.054534387
90	0xbcd890c7	-0.026436223
91	0xbdfab7b3	-0.12242069
92	0xbe2e3999	-0.1701416
93	0x3e53a16e	0.2066705
94	0xbe9e2c58	-0.30893207
95	0xc0032829	-2.0493262
96	0x3faff29d	1.3745915
97	0x3e9f9710	0.3116994
98	0xbc5f64c5	-0.013634865
99	0x3e5a0cdb	0.21293966
100	0xbe28d5b1	-0.16487767
101	0xbecb2749	-0.3967841
102	0xbf48fd66	-0.78511655
103	0xbe09cf57	-0.13458
104	0x3e0ffb52	0.14060715
105	0xbf842d75	-1.0326372
106	0xbf3b946a	-0.73273337
107	0x3d975a83	0.073903106
108	0xbc162462	-0.009163948
109	0xbe1b189c	-0.15146106
110	0x3f787410	0.970521
111	0x3e5f0c30	0.21781993
112	0xbe94dc14	-0.29074156
113	0xbe3cb711	-0.1842921
114	0xbebd4ac8	-0.36971116
115	0x3e6481fb	0.22315209
116	0xbe6f9c28	-0.23399413
117	0xbc2bacbb	-0.010478194
118	0x3da9f39b	0.08298417
119	0xbf06f928	-0.5272393
120	0xbfb46550	-1.4093418
121	0x3e2c8874	0.16848928
122	0x3eec0c18	0.46102977
123	0x3ea07235	0.31337133
124	0x3f9578a8	1.1677446
125	0xbcd2d971	-0.02573845
126	0xbec89502	-0.39176184
127	0x3d309014	0.043106154
128	0xbdb9575d	-0.09049866
129	0x3e0c06f3	0.13674526
130	0xbec6d25a	-0.3883236
131	0xbf3d3396	-0.7390684
132	0xbd558de9	-0.05213729
133	0xbdb54513	-0.088510655
134	0xbee8d93f	-0.45478246
135	0x3d85f387	0.0654059
136	0x3df10eea	0.11770423
137	0xbda83514	-0.08213249
138	0xbded60a9	-0.11590702
139	0x3d699505	0.05702688
140	0x3e9817e0	0.29705715
141	0x3e400f2a	0.18755785
142	0x3ef5a12d	0.4797453
143	0x3ef2921f	0.47377107
144	0xbed2eab1	-0.4119468
145	0x3ddf6c27	0.109093
146	0x3e2cf1ea	0.16889158
147	0xbe8a6f1a	-0.2703789
148	0xbe8cb204	-0.27479565
149	0x3e9076da	0.28215677
150	0x3eb70fb3	0.35754165
151	0xbd8d1f2b	-0.068907104
152	0xbc861045	-0.01636518
153	0x3d877c0f	0.06615459
154	0xbe5357b2	-0.20638922
155	0x3e2799d7	0.16367279
156	0xbc9c455e	-0.019076046
157	0x3c5ec3b1	0.013596461
158	0x3f0f6d28	0.56025934
159	0x3daa48ba	0.08314653
160	0x3a297557	0.00064643234
161	0x3da1892b	0.07887491
162	0x3e6c2cd6	0.23063979
163	0x3e02ef37	0.12786566
164	0xbeb61972	-0.35566288
165	0xbe4dc002	-0.20092776
166	0x3eca76ab	0.3954366
167	0xbd8ef848	-0.0698095
168	0xbe60ff24	-0.21972328
169	0x3ca02394	0.019548215
170	0xbd502526	-0.050816678
171	0xbd29b571	-0.0414328
172	0xbdc675c7	-0.09690433
173	0xbe12c00e	-0.14331076
174	0x3eb0049d	0.3437852
175	0x3e5c0c42	0.21489051
176	0x3df06374	0.11737719
177	0xbb7f042c	-0.0038912399
178	0xbd6b0b72	-0.057383962
179	0xbd3a42dd	-0.045473922
180	0x3e4ca58c	0.19985026
181	0x3e7f227f	0.24915503
182	0xbea603dc	-0.3242482
183	0xbdf04000	-0.11730957
184	0x3d9bc486	0.07605843
185	0xbd87ab26	-0.06624441
186	0xbe8a660f	-0.2703099
187	0x3dd90020	0.10595727
188	0x3be90f77	0.0071124393
189	0x3d91f45d	0.07126687
190	0xbdae0835	-0.08497659
191	0xbf04035c	-0.51567626
192	0xbdefd360	-0.117102385
193	0x3d885233	0.06656303
194	0xbec1add6	-0.3782794
195	0x3e4eeb33	0.20206909
196	0xbe98938c	-0.2980007
197	0xbe79809a	-0.24365464
198	0xbed270aa	-0.4110158
199	0x3f30b03a	0.690189
200	0xbc2f9db5	-0.010718753
201	0x3dfb458f	0.122691266
202	0x3db0410b	0.08606156
203	0xbe230db8	-0.15923202
204	0x3db847d9	0.08998079
205	0x3e41294e	0.18863413
206	0xbef6f11c	-0.48230827
207	0xbd28c696	-0.04120501
208	0xbe82956e	-0.2550463
209	0x3edcc140	0.43116188
210	0xbd060c33	-0.032726478
211	0xbe4c4d93	-0.19951467
212	0xbe8693c4	-0.2628461
213	0xbe886d3f	-0.26645848
214	0xbc161819	-0.009161019
215	0x3e3c6d46	0.1840106
216	0x3d4a7b9a	0.049434282
217	0xbe14d611	-0.14534785
218	0xbd07e268	-0.033174902
219	0xbca0c16a	-0.019623477
220	0xbb0c110a	-0.002137246
221	0xbdf76e7f	-0.12081622
222	0x3e8a544d	0.2701744
223	0x3ee29e45	0.44261375
224	0x3f085973	0.5326149
225	0x3da4981d	0.08036826
226	0x3c996f41	0.018729808
227	0xbe7cc0e5	-0.24682958
228	0x3eb0668b	0.34453234
229	0x3ca252da	0.019814897
230	0x3ed28711	0.41118672
231	0x3e39e91d	0.18155332
232	0xbe1ace98	-0.15117872
233	0xbe683ca5	-0.22679384
234	0xbde0e746	-0.10981612
235	0xbdacf8a1	-0.0844586
236	0xbd477438	-0.04869482
237	0xbdf5aa6b	-0.11995395
238	0xbebefacd	-0.3730072
239	0xbe2d41f4	-0.1691969
240	0x3e298d17	0.16557728
241	0x3e9a2ffb	0.3011473
242	0xbf33fc35	-0.7030671
243	0xbe66d3ec	-0.2254178
244	0xbf240a25	-0.6407798
245	0x3e349be8	0.17637599
246	0x3e39e451	0.18153502
247	0x3c746795	0.014917274
248	0x3f1634c4	0.58674264
249	0x3e2ac27a	0.1667575
250	0x3e014b47	0.12626372
251	0x3d618abc	0.055063948
252	0x3df3b24f	0.11899244
253	0x409656f0	4.6981125
254	0xbdec2c9e	-0.115319476
255	0xbd578627	-0.052618172

linear_list.2.bias f4 [14]
0	0x3e86bfcd	0.26318207
1	0x3e5fe2b2	0.21863821
2	0x3dd54561	0.104136236
3	0xbe1e9493	-0.15486364
4	0xbe608735	-0.21926577
5	0xbcc7fcba	-0.024412502
6	0x3ea4427e	0.3208198
7	0x3c1ab0f5	0.009441604
8	0x3e35fad1	0.1777146
9	0x3e121222	0.1426473
10	0xbf0f32cb	-0.5593688
11	0x3edf990a	0.43671447
12	0x3f34c427	0.70611805
13	0xbe0e7857	-0.13913094
