prep/g0530-235328_DB_new/models/model6200.ckpt (torch, 7653 bytes, 6 tensors)

linear_list.0.weight f4 [32, 4]
000000 f6 fc 59 bd a6 76 d5 be f1 83 76 bf cc cb 3c 3e
       -0.053219758 -0.41692084 -0.96295077 0.18437117
000010 39 5f 80 3d 85 0a 99 3d 96 c1 93 be 2b f4 e7 be
       0.06268162 0.074727096 -0.28858632 -0.45303473
000020 1d dd c5 be 46 08 02 3f ce 6d c6 3e ed 5f 95 3e
       -0.3864526 0.50793874 0.3875565 0.29174748
000030 ea a9 e6 3d 1b a6 13 be e9 f9 ba 3e 3d 74 97 3e
       0.11262877 -0.14418833 0.3651879 0.2958087
000040 40 ac 56 3f ed b7 92 3e 08 92 8a be 8f b9 41 3e
       0.8385658 0.2865595 -0.27064538 0.18918441
000050 18 86 b2 3e cd 73 9a 3d 89 87 d0 be f6 7f 81 be
       0.3486793 0.075416185 -0.40728405 -0.2529294
000060 1f fd fe be 78 03 23 be c4 31 81 3f d0 06 d9 bd
       -0.4980249 -0.15919292 1.0093312 -0.105970025
000070 d5 e6 e1 be 9e ca e5 3e ce cb d4 3e af 73 09 bf
       -0.44121423 0.44881147 0.4156174 -0.53692144
000080 71 1b 6c 3a 50 73 fb 3e 78 40 e5 3e 23 5c 36 3d
       0.00090067746 0.49111414 0.44775748 0.044521462
000090 f3 9d 83 3e 4d 02 bb 3e 44 89 13 3f 95 82 48 3d
       0.25706443 0.36525193 0.57631326 0.048952658
0000a0 6a 8c 8a 3e 11 e6 30 3e 9d 2d b3 be 5e c6 ab be
       0.27060252 0.17275263 -0.34995738 -0.3354978
0000b0 51 b0 24 3e 7d 48 a3 bd e3 a3 ac be 54 19 2a 3e
       0.16082884 -0.079728104 -0.33718786 0.16611224
0000c0 e0 fa f3 be 3b 22 92 bd b2 1e 45 be 8d b1 80 3d
       -0.4765234 -0.07135435 -0.1924999 0.06283865
0000d0 62 e3 39 3d 0a a6 2a 3e 56 be d1 be 0d cd f9 be
       0.045382865 0.16664901 -0.40965527 -0.48789254
0000e0 48 81 a3 3e 90 dc c4 be ef b8 1f 3f d4 0e 72 bd
       0.3193457 -0.38449526 0.6239156 -0.059096172
0000f0 e9 24 68 3d 6b 5f 9d be 26 00 74 bd 4e 1e 5b bd
       0.056675825 -0.3073686 -0.059570454 -0.053495698
000100 53 fe d2 bc b5 21 03 3f 04 ff 2b 3e 87 48 c9 be
       -0.025756037 0.5122331 0.167965 -0.39313146
000110 5d 9f 42 bd 5d ff b6 3e ca da a3 be 87 6c ad be
       -0.047515262 0.35741702 -0.3200286 -0.33871862
000120 cb a4 28 bf 44 dc 3e 3f f4 73 b6 3e e5 ba a1 3d
       -0.65876454 0.7455485 0.3563534 0.078969754
000130 31 f6 87 be a2 fb b5 3d 9d 44 99 3e 02 e4 ce be
       -0.26555017 0.08885886 0.2993516 -0.4040833
000140 8f e7 b3 3e 08 aa 15 3f 5b 83 01 bf 8c 54 5d bd
       0.35137603 0.5846257 -0.5059106 -0.05403571
000150 97 5d c3 be aa b8 19 bf 9b 57 a1 be 56 0d a9 be
       -0.3815734 -0.600474 -0.3151215 -0.33017987
000160 b8 bd 8a 3f d7 6e de be 0d bc d8 be 4c 8b a0 3d
       1.0839148 -0.4344394 -0.4233097 0.07839069
000170 53 f3 49 bd 61 2f b9 3c 43 74 df 3d ff 80 ce be
       -0.049304318 0.0226056 0.10910847 -0.4033279
000180 7c 3f e3 be b5 24 f5 3e c7 ed 42 be e6 04 7f be
       -0.44384372 0.47879568 -0.19036017 -0.24904212
000190 f1 1f 76 3f 43 c8 24 bf ee be 26 bf 70 82 3e be
       0.9614249 -0.64368075 -0.65135086 -0.18604445
0001a0 b3 1b cd be 97 14 39 3e 7a 04 d5 bd 9e 56 9b be
       -0.40060195 0.1807426 -0.104012445 -0.3033952
0001b0 15 90 08 be 9d a1 d2 3e d9 04 47 3e 31 0c f2 be
       -0.13336213 0.41138926 0.19435443 -0.47274926
0001c0 c4 34 04 3f d2 3c 10 bf d6 6b 5d bf 56 32 71 3e
       0.51643014 -0.56342804 -0.8649267 0.23554358
0001d0 bc 51 06 bf 7b 65 99 3d 00 e6 99 be c3 91 9d 3c
       -0.52468467 0.07490059 -0.3005829 0.019234544
0001e0 9e 7c f3 3e 8c 2d ce be 18 0e 79 be a5 ab 55 3e
       0.47556013 -0.40269125 -0.24321783 0.20866258
0001f0 c0 ed a1 be f8 c6 e7 3d 94 1f 45 be ac 0a c3 be
       -0.316267 0.11317247 -0.19250327 -0.3809408

linear_list.0.bias f4 [32]
000000 61 4a 11 3f d6 7d 32 3e 25 ee ca be 34 0f a0 be
       0.5675412 0.17430815 -0.39634815 -0.312616
000010 01 aa 8e be 25 9f 02 3e db f8 df bd c2 11 98 3e
       -0.27864078 0.12756021 -0.10936137 0.29701048
000020 df bb 78 be 9d 9a aa be 46 b7 35 be 63 ae 26 3e
       -0.24290417 -0.33321086 -0.17745695 0.16277461
000030 27 44 ec be 8d 26 48 3e c7 cf e3 bd 5f 73 7d bd
       -0.46145746 0.19545956 -0.11123615 -0.061877605
000040 5d 19 1e be a4 c5 80 be 1c 61 c4 3e 57 71 06 be
       -0.15439363 -0.25150788 0.3835534 -0.13129173
000050 49 0e ae be 5b 94 db 3e e7 7b 66 be 8c 47 a9 be
       -0.33995274 0.42886624 -0.22508202 -0.33062398
000060 7f 51 60 be 6e 00 1a 3f d4 7e be 3e 0e 8c 06 3e
       -0.21906088 0.60156906 0.37206137 0.13139364
000070 16 11 d8 be 00 5f 73 3d cd 20 77 3e fc fe 88 be
       -0.42200536 0.05941677 0.24133606 -0.26757038

linear_list.1.weight f4 [32, 32]
000000 9d 8b 14 be 8a 3a 1b be 4d a4 7d 3e 9f af 1b 3e
       -0.14506383 -0.1515905 0.24769707 0.15203713
000010 42 7d 8a 3e 34 51 32 bd b7 9f 46 be 8d b5 34 bd
       0.2704869 -0.043534473 -0.19396864 -0.044118453
000020 d0 7a 06 3e 53 8a 51 3e af f3 1b be 62 da 18 3e
       0.13132787 0.20462923 -0.15229677 0.14927056
000030 36 a6 c3 bd 6c 44 5e bb b0 44 46 be 81 8c c8 3d
       -0.095531866 -0.0033915294 -0.1936214 0.09792424
000040 1d 3e bd bd e2 7c 46 3d 3e f7 2a 3e 82 2a 0a 3e
       -0.09240363 0.04845894 0.16695878 0.13492778
000050 c0 fd 2c 3e ef b2 e8 bc 14 be 1a be 53 31 16 3e
       0.16893673 -0.028405635 -0.15111572 0.14667253
000060 3d ce 1c bc 4f 00 80 3b 09 46 13 be 70 10 cf bd
       -0.009570655 0.003906287 -0.14382185 -0.10110557
000070 54 ae 12 be 44 50 a3 3d 21 db 1f bd 65 26 3f 3d
       -0.14324313 0.07974294 -0.039027337 0.046667475
000080 e8 f0 1f 3e d9 89 05 3e 19 d4 ca bd 3d f0 e4 bc
       0.15619242 0.13040866 -0.09903736 -0.027946586
000090 76 f7 c8 3d 81 54 95 3d b9 b7 b3 bb 28 b0 19 3e
       0.098128244 0.072915085 -0.005484548 0.15008605
0000a0 8d 26 17 3e b6 f0 e4 bc 16 5e 1a 3d e4 4f 03 3e
       0.147608 -0.027946811 0.037687384 0.12823445
0000b0 12 ff 43 3d c4 47 b3 3d b8 f2 80 3d 27 15 6d bd
       0.047850676 0.087539226 0.06296295 -0.0578815
0000c0 9a 8c 5b bd 37 91 b2 bd ad 62 b1 bd 72 32 55 3d
       -0.053600885 -0.08719104 -0.08661399 0.05205006
0000d0 f1 d6 a7 3a a5 e1 20 3d ab bc 47 3e 43 42 a3 3d
       0.0012805146 0.03927769 0.19505565 0.07971623
0000e0 60 6a 01 3e 9c ed 9d 3e 67 1f e5 bd 32 83 1f 3e
       0.12638235 0.30845344 -0.1118763 0.15577391
0000f0 c1 8f bc 3d a5 b3 2d be 72 52 4b 3c 65 a2 06 3e
       0.092071064 -0.1696306 0.012409793 0.13147886
000100 8b 68 82 be 61 31 09 be 52 07 81 3d 74 69 1a bd
       -0.25470385 -0.13397743 0.06300224 -0.037698224
000110 41 70 7d 3d ad 41 32 3e 99 58 44 3e 26 cf bc bd
       0.06187463 0.17407866 0.19174422 -0.09219198
000120 89 f7 5e 3e b5 97 91 3c 85 e2 37 bd 01 3e 08 be
       0.21774115 0.017772535 -0.04489376 -0.13304903
000130 a4 19 58 bd eb d5 13 be 44 dc 38 bd f2 0e d9 3d
       -0.052758828 -0.14437072 -0.045131937 0.10598554
000140 b8 bc 0a 3e cd 86 e2 3d 27 5f 1e 3e 49 49 11 be
       0.13548553 0.110608675 0.15465985 -0.14188112
000150 28 9d 82 3e c1 4e 73 bd ab 91 1c bd f7 02 d0 3c
       0.25510526 -0.059401277 -0.038224857 0.025392039
000160 22 83 5d bd 62 5e d3 3d e2 34 fc bd a3 22 6c bc
       -0.054080136 0.103207365 -0.12314774 -0.014412555
000170 ea 75 64 3d 52 5d e8 bd 3a 41 51 be f5 ae b4 bd
       0.055776514 -0.113459244 -0.20435038 -0.08822433
000180 c1 bb bd bd 45 23 12 3d b0 10 05 3e 70 64 4f be
       -0.09264327 0.035678167 0.12994647 -0.20253158
000190 35 de 26 3d 11 09 5a 3d 11 f7 69 bd 09 34 8f 3c
       0.040739257 0.053231303 -0.057120387 0.017480867
0001a0 bc b3 03 be fe ba 25 3d d1 8f 26 3e a0 f6 0c be
       -0.12861532 0.040461533 0.16265799 -0.13765955
0001b0 c3 2a 06 3e 62 a4 9e 3c 45 fc 38 be dd eb ad bc
       0.1310225 0.019365493 -0.18064983 -0.021230632
0001c0 7f 25 c9 bd 1d ad d1 bd 08 7a e3 3d c2 61 22 bd
       -0.09821605 -0.10238097 0.1110726 -0.03964401
0001d0 07 54 5c 3e 82 3b ac bd 68 ff 66 3d 28 3a 10 3e
       0.21516429 -0.08409788 0.056395918 0.14084685
0001e0 59 f0 03 3d 17 3d 22 3e 96 8a 21 be f4 52 16 3e
       0.032211635 0.15843616 -0.15775523 0.14680082
0001f0 4f 19 c9 3d c6 5f 36 3b c0 94 0f 3e b8 44 94 3d
       0.0981928 0.0027828082 0.14021587 0.072396696
000200 f2 5e 32 bd b1 83 aa 3d 57 d0 24 3e 90 c6 43 bd
       -0.04354758 0.083258994 0.160951 -0.047796786
000210 f9 2f a9 bd 29 ac 08 3e 2b 7a 00 be 05 8e 7c 3d
       -0.08261103 0.13346924 -0.12546603 0.061658878
000220 81 19 ee bd 45 84 3d 3e a7 b2 d5 bd 42 4c f9 3d
       -0.11625958 0.18507488 -0.10434466 0.12172748
000230 6f 0f 64 3d 23 22 03 3c 7b 5d 1a be 36 7b de 3c
       0.05567878 0.008003744 -0.15074722 0.02715836
000240 a0 78 30 3e 52 86 32 be 25 02 11 be d6 ad 9e 3b
       0.17233515 -0.17434052 -0.14160974 0.0048425
000250 87 63 1c bd 38 bf 43 bd 30 de a7 3c 0a 2b 8e 3d
       -0.038180854 -0.047789782 0.02049169 0.06941803
000260 7c b1 1d bd 92 a3 d2 3d 8b ff b5 3c 64 f8 14 3e
       -0.03849934 0.10285105 0.022216579 0.14547879
000270 36 f2 26 bb e6 25 e2 3c 7a f1 1a 3e 55 10 82 bc
       -0.0025473959 0.027605962 0.15131178 -0.015876928
000280 51 48 0e bc 44 87 9e 3d c9 35 05 3c d9 86 19 be
       -0.008684234 0.077406436 0.008130499 -0.14992847
000290 bc 07 d4 3d 3d 3d 4f 3d e1 62 0f be 87 c8 f5 bd
       0.10353038 0.05059551 -0.14002563 -0.12001138
0002a0 59 ce fb bd 78 08 69 bd b9 72 5c 3d 73 5b 97 bd
       -0.12295217 -0.056892842 0.053820346 -0.073904894
0002b0 af c8 18 bd 74 32 21 be 13 44 d0 bd 76 17 0d 3e
       -0.03730076 -0.15741903 -0.10169234 0.13778481
0002c0 9f e0 26 bd bd 46 23 bd e1 e0 85 bd d9 2e d0 bd
       -0.04074156 -0.039862383 -0.06537033 -0.101651855
0002d0 40 dc 10 3e 35 4e 1d be cc a9 6a bc 9e e5 20 3e
       0.14146519 -0.15361865 -0.014322709 0.15712592
0002e0 8b fe 8e bd 94 99 ca bd c2 fd 79 3d 9c 87 71 bd
       -0.06982144 -0.09892574 0.061033018 -0.058967218
0002f0 f5 37 02 3e 71 c4 57 bd 4f 6e 26 3e cf 98 12 3d
       0.12716658 -0.052677575 0.16253017 0.03579026
000300 c0 cf 2c be 3d 13 ee bd 65 57 6e 3d 71 48 0b be
       -0.16876125 -0.11624763 0.058188815 -0.13601853
000310 14 b2 64 3e b1 89 92 bc 59 92 fe bd d0 b5 fe bd
       0.22333556 -0.017887922 -0.12430257 -0.12437022
000320 ab 55 70 3e 39 97 65 3d a3 7f 5f 3d 14 d5 e9 3d
       0.2347018 0.05605242 0.054565083 0.114175946
000330 ea 3a 0d 3e e1 3d de 3c 8b ce 2d 3d 0c 31 1d 3e
       0.13792005 0.027129116 0.042433303 0.15350741
000340 ac ea f4 bd 0f 39 86 bb 8b 9b 41 3e 3b d9 28 3e
       -0.119588226 -0.0040961574 0.18906991 0.16489117
000350 3e 39 82 3e 47 61 ea bd b4 41 3e be ac de 4e bd
       0.25434297 -0.114443354 -0.18579751 -0.050505325
000360 22 c2 c8 bd 5f c1 d4 3c e8 e5 70 bd 29 e9 0a be
       -0.09802653 0.025971113 -0.058813006 -0.13565506
000370 f7 b4 81 be ec b3 8d bd 28 72 26 be 51 ed 2f be
       -0.25333378 -0.06919083 -0.16254485 -0.17180373
000380 8d e7 fc 3c c2 a9 08 be 1d 68 f0 3d 0d 52 f7 bd
       0.03087213 -0.13346007 0.11738608 -0.12076197
000390 08 b1 07 3e 79 e8 18 be fc a4 b0 3d bf a2 94 3a
       0.13251126 -0.14932431 0.08625218 0.0011340006
0003a0 2a bc 9f 3c 27 8a 2e 3e 72 6e 82 bd ab ed 55 be
       0.019498903 0.17044888 -0.06368722 -0.20891444
0003b0 f8 fe 15 3d c6 86 22 be 39 c1 b3 3d fa ba 19 be
       0.03662011 -0.15871724 0.08777089 -0.15012732
0003c0 25 48 11 be 12 22 81 3d ed 88 1f be 76 1b ee bd
       -0.14187677 0.063053265 -0.15579577 -0.116263315
0003d0 a0 9a e5 3c 60 31 e0 bd 90 55 f3 bd 65 92 32 3e
       0.028027833 -0.109469175 -0.11881554 0.17438658
0003e0 84 d0 c0 bd d7 c6 43 bd fb 44 1f 3c 18 6a c0 bd
       -0.09414771 -0.04779705 0.009721036 -0.09395236
0003f0 14 b6 2b be 9c 2a bc 3d ea be de 3c ed b2 fb 3b
       -0.16768676 0.091878146 0.027190644 0.0076812417

linear_list.1.bias f4 [32]
000000 f7 50 7f bd ae 2f 31 be 46 4e 8c be c9 08 96 bd
       -0.062333073 -0.17303345 -0.27403468 -0.073258944
000010 94 e9 17 be f5 f2 a1 bd 21 8b a5 bc 0f 54 25 bd
       -0.14835197 -0.079076685 -0.020207943 -0.040363368
000020 d8 9a a4 bc 47 58 e7 bd 07 fd b0 3d 8e 3b 68 bd
       -0.020093367 -0.112961344 0.08642011 -0.05669742
000030 e7 71 e7 bd 21 ce 33 3e ae 7a 17 3d 32 20 91 3d
       -0.11301022 0.175591 0.03698223 0.07086219
000040 bd af 0a 3e 17 40 a2 bd 40 36 91 bd 3f ca 63 3d
       0.13543601 -0.079223804 -0.070904255 0.0556128
000050 bc 2f 81 bc cf f2 03 bd 79 03 6d 3e 65 66 de bd
       -0.015769832 -0.032213982 0.23145856 -0.10859374
000060 a4 7c 5d 3e d4 04 76 be 0b ef 20 3e 87 44 87 be
       0.21629578 -0.2402528 0.15716188 -0.2641947
000070 47 a0 15 be 67 35 9c 3d 67 12 bb 3d 60 60 97 bd
       -0.14611922 0.07627373 0.09134369 -0.07391429

linear_list.2.weight f4 [2, 32]
000000 69 df 1e bd 69 37 7a 3e 4b 76 ce be 22 2b 68 be
       -0.03878728 0.244352 -0.40324625 -0.22672704
000010 3e 5b a5 bd 31 eb d6 3d 10 88 8c be 45 e9 21 3e
       -0.08074044 0.10494078 -0.27447557 0.15811642
000020 ea 1d 2e 3e 00 12 0d 3e fd 3b 15 3c 23 95 4f 3f
       0.17003599 0.13776398 0.009108541 0.8108694
000030 28 f3 a5 3e 70 8d 09 3d c1 75 5a 3e d6 13 4a 3e
       0.32412076 0.03358215 0.21333982 0.1973413
000040 ac a9 b1 3e bb 78 4e 3e 61 0b 80 3e a5 d3 e1 bd
       0.34699762 0.20163243 0.2500868 -0.11026696
000050 8d 85 6a 3c 79 e3 25 be d1 b6 40 bd 58 5e 1a bf
       0.014314068 -0.16200055 -0.047049347 -0.6030021
000060 76 29 af bc 22 24 48 be fc 08 84 bc d0 20 f4 be
       -0.021382075 -0.19545034 -0.016117565 -0.47681284
000070 5d 20 b9 3d 16 f0 04 bd ad f6 45 be 97 86 be 3e
       0.09039376 -0.032455526 -0.1933238 0.3721206
000080 ad 49 14 bf 77 e8 f9 3c 4f d8 98 bd 45 fe c8 3c
       -0.5792492 0.030506356 -0.074631326 0.024535308
000090 fa a0 b3 3d 61 6e a7 bd 45 7f bb be 8b 7e c6 3d
       0.08770938 -0.0817535 -0.36620536 0.09692105
0000a0 5e 4e 43 3d 2b 8d a3 bd dd 7b 26 bf 70 eb 7a 3d
       0.04768216 -0.0798591 -0.6503275 0.061259687
0000b0 da ae 02 3e e8 87 13 3f 30 83 c3 be 3f f5 02 3e
       0.12762013 0.5762925 -0.38186026 0.12788866
0000c0 8d f4 f9 3e 0f f6 ea 3d fd f3 23 3e 51 e8 03 3e
       0.4881939 0.11472713 0.16011043 0.1288159
0000d0 56 b5 c1 bd 22 e9 3b be 62 d4 2c 3f 80 a5 97 bd
       -0.09458415 -0.18350652 0.6751157 -0.074046135
0000e0 4e e2 de 3e 08 2c a0 be 39 3d be 3e db c3 eb bd
       0.43532032 -0.31283593 0.37156084 -0.11511966
0000f0 ca 91 ca bb 13 bf 05 3f a6 5f 7d 3e 21 61 8f be
       -0.00618193 0.5224468 0.24743518 -0.2800379

linear_list.2.bias f4 [2]
000000 14 cd ab bd c1 d4 e6 3e
       -0.08388725 0.45084193
