prep/g0530-235328_DB_new/models/model2500.ckpt (torch, 7653 bytes, 6 tensors)

linear_list.0.weight f4 [32, 4]
00000000: d546 06be fc3f f3be b8c0 0bbf 9185 543e
00000010: d4d6 903d f099 a93d 44cd 92be 141e e6be
00000020: f932 adbd da8e 003f 7b30 a63e 7b9b 603e
00000030: 1998 423e 5baa 9fbe 0a6d a73e 17e3 9b3e
00000040: af62 273f 0079 873e 4786 7abe d483 9a3e
00000050: 26a2 b53e 3357 a83d 2371 cabe c358 5abe
00000060: 400c 43be ec9b 8fbe f7ac 353f 9e6a 24be
00000070: a877 e7be e736 e83e 5b46 ed3e 5e7c eabe
00000080: 8d96 013e 0473 f13e a8ea 9d3e f0ee ee3d
00000090: 31d0 883e 378a c03e 1a70 013f c0dd 973d
000000a0: 76af 8b3e 3604 333e 199b b1be 6930 adbe
000000b0: a355 433e 7290 7ebd 0a52 51be ec43 823e
000000c0: 4465 edbe 1418 cabd f8c4 78be 66a6 673d
000000d0: b727 303d 8b40 283e 43e5 d2be e578 f9be
000000e0: 6e49 9e3e 8117 e3be 182c 093f 91c4 f53c
000000f0: 3aa8 923d 6b9e 94be 9401 7ebc 9ad9 f33a
00000100: d7f6 b3bc 56f0 fb3e 6d4a 663e e7b5 babe
00000110: 929f 42bd 5dff b63e cada a3be 876c adbe
00000120: b25d f7be 7da0 113f 2a48 943e 0ea6 8bbc
00000130: 4e6a 8dbe 791c a13d 38ed 9b3e 2b4f cbbe
00000140: 20bc b63e 3292 003f 5ca2 cbbe 8594 d23c
00000150: e078 d6be fa5c 0dbf f7ae 0bbe 5025 24be
00000160: 3a3c 433f 5fc2 52be 3356 c9be 8db5 843e
00000170: 53f3 49bd 612f b93c 4374 df3d ff80 cebe
00000180: 7c3f e3be b524 f53e c7ed 42be e604 7fbe
00000190: 009c 273f 6d26 6cbe 29da fabe 6d29 72bd
000001a0: d0e5 dfbe 1e5a e63d 5f1a f7bd f0a9 85be
000001b0: 9b28 06be 23bd d73e 09c9 493e a1cb dcbe
000001c0: 0f21 013f de79 6ebe cf04 02bf e91a be3e
000001d0: e09f 0cbf a095 633d 5c8c 5dbe 5ea3 073e
000001e0: bb05 da3e d555 bcbe 18a6 f4bd 8f55 f23d
000001f0: c0ed a1be f8c6 e73d 941f 45be ac0a c3be
-0.13112958 -0.47509754 -0.5459094 0.20754077 0.07072225 0.082813144 -0.2867223 -0.44944823
-0.08456988 0.50217974 0.32458863 0.21934311 0.19003333 -0.31184658 0.32700378 0.30446693
0.65384954 0.26459503 -0.24465285 0.30178702 0.35475272 0.08219757 -0.3953944 -0.21322922
-0.19047642 -0.28048646 0.7096705 -0.16056296 -0.45208478 0.45354387 0.4634274 -0.4579801
0.12655087 0.47158062 0.3084309 0.116666675 0.26721337 0.3760545 0.5056168 0.07415342
0.27282304 0.17482075 -0.34688643 -0.33825997 0.19075637 -0.062149473 -0.20441452 0.25442445
-0.46366322 -0.09867874 -0.24293888 0.056555174 0.043006625 0.16430871 -0.41190538 -0.48725048
0.30915397 -0.4435387 0.53582907 0.030000957 0.07160993 -0.29027113 -0.015503306 0.0018604279
-0.021968288 0.492068 0.22489329 -0.36466905 -0.04751546 0.35741702 -0.3200286 -0.33871862
-0.4831367 0.5688551 0.28961307 -0.017046954 -0.27620167 0.07866759 0.3045442 -0.39708838
0.35690403 0.50223076 -0.39772308 0.025705585 -0.41889095 -0.55219996 -0.13640963 -0.16029859
0.76263773 -0.20581959 -0.39323577 0.25919762 -0.049304318 0.0226056 0.10910847 -0.4033279
-0.44384372 0.47879568 -0.19036017 -0.24904212 0.6547241 -0.23061533 -0.48994568 -0.059121538
-0.4373002 0.11247657 -0.12065577 -0.26106215 -0.13101427 0.42136487 0.19705595 -0.43124107
0.5044107 -0.23288676 -0.5078859 0.37129906 -0.5493145 0.055562615 -0.21635574 0.13245913
0.42582497 -0.36784235 -0.11945742 0.11832725 -0.316267 0.11317247 -0.19250327 -0.3809408

linear_list.0.bias f4 [32]
00000000: b3ab e83e 6886 383e cb56 cebe adca 27be
00000010: db76 43be d227 0d3e acfa 3a3d 3da9 a53e
00000020: edd2 30be cf52 99be 0714 35be fe1b 893e
00000030: fccc ddbe 3ae1 463e 456e d7bd 616c b0bd
00000040: 74cf 1ebe a4c5 80be 2725 d63e c964 00be
00000050: 9bbd aebe 8caf d23e fae2 39be 8c47 a9be
00000060: 7f51 60be af93 063f 0004 c13e b1e4 113e
00000070: 9656 d1be c95b be3d ca9c 793e fcfe 88be
0.45443496 0.18020022 -0.40300593 -0.16385908 -0.19088309 0.13784721 0.045649216 0.3235568
-0.17267962 -0.2994599 -0.17683421 0.2677917 -0.43320453 0.19421855 -0.10519079 -0.08614422
-0.15508825 -0.25150788 0.4182522 -0.12538446 -0.34129032 0.41149557 -0.18152991 -0.33062398
-0.21906088 0.525691 0.37698364 0.14247395 -0.40886372 0.092948504 0.24376217 -0.26757038

linear_list.1.weight f4 [32, 32]
00000000: 29cb 2ebe 7985 16be dede 243e 2df5 fa3d
00000010: 3c32 833e f192 1bbd b241 4abe a434 11bd
00000020: acf8 ea3d ee40 4b3e 42e6 13be 9040 083e
00000030: 2fb5 d7bd 4214 293a 034b 0fbe d375 c83d
00000040: f146 adbd e27c 463d 293f de3d 822a 0a3e
00000050: f0ab 183e 0366 0bbd 6a41 e4bd 5331 163e
00000060: 3dce 1cbc 8762 643d f280 14be c3f7 bbbd
00000070: d5b3 01be f26e 373d ca45 8fbc 6526 3f3d
00000080: bc52 b13d 5681 063e 9b94 40bd 4642 4abd
00000090: 793d 913d f2de c23d ae8c 30bb 0e49 173e
000000a0: 2d0e eb3d 5252 96bd e7cd 253d 8ec0 fa3d
000000b0: 292f 1d3d 1e9f b53d dd1a 3d3c ef7e 95bd
000000c0: cf4d 4abd 3791 b2bd 921d 3bbd 7232 553d
000000d0: 782e 713d 7692 e3bc c136 113e 4342 a33d
000000e0: 606a 013e 94af 883e 719b e4bd 69a8 233e
000000f0: 4fbb d03c 5f5a 4bbe f61a 73bc 65a2 063e
00000100: 115b a3bd 58dd 09be 6268 5b3d d2aa 253d
00000110: 4c55 8d3d 51ee 143e 2c30 2a3e f5c3 c8bd
00000120: 84cc 473e 44af 03bc 9159 43bd c33d 2cbd
00000130: 18dc 04bd adeb 14be 78e5 00bd 7f34 cc3d
00000140: fc8c 063e cd86 e23d ac2e 2d3e 7fa3 13be
00000150: 3b7c 343e 4cbe 89bc bda8 12bd f702 d03c
00000160: 2283 5dbd 0793 903d 34c6 d1bd 6918 92bc
00000170: 7b46 7b3d c44c 4bbd 153f 03be f5ae b4bd
00000180: 698f 46bd 0ec4 0d3d 1287 253e 4df1 15be
00000190: e574 f43c 30e9 133d 6119 85bd 6d3d 993c
000001a0: 3a8f 0cbe 5994 c33c 16b9 233e 11be d9bd
000001b0: 9b45 063e 07c4 943c 0036 25be ddeb adbc
000001c0: f8df d1bd 1dad d1bd efdd 013e c261 22bd
000001d0: b05a 2f3e ab13 acbd b97c 263d 283a 103e
000001e0: 59f0 033d 9c61 043e 9b8b 21be 399c 123e
000001f0: 32e8 ce3d 33a3 653c 81bf 273e b844 943d
00000200: d1f2 15bd e0be a73d bd77 243e f27c 18bd
00000210: cc0a c7bd 356a 013e 4d91 ffbd 0b8a 623d
00000220: e0e1 02be 2cf5 303e d85d dbbd 394b ff3d
00000230: 6f0f 643d 39bf db3b b75c 16be 2dda de3c
00000240: 7b8d 273e 5286 32be 3ee9 1abe d6ad 9e3b
00000250: 7d26 4dbd 56b9 43bd aaf2 8b3c 0a2b 8e3d
00000260: 7cb1 1dbd 0655 c33d 8bff b53c aa98 0c3e
00000270: 8347 8f3a 6a57 e33c ad6c 203e 5510 82bc
00000280: ddbb 0cbc 4487 9e3d 10c4 0c3c a870 19be
00000290: 8097 d73d 456a 503d e162 0fbe 87c8 f5bd
000002a0: f039 fabd 79c1 65bd b972 5c3d bb2b 96bd
000002b0: afc8 18bd 7432 21be 1344 d0bd 7617 0d3e
000002c0: 98bb 26bd bd46 23bd 2ea2 83bd d92e d0bd
000002d0: 71e4 113e 354e 1dbe 938b 60bc 9ee5 203e
000002e0: 8bfe 8ebd f564 c9bd c2fd 793d 5783 71bd
000002f0: f537 023e 71c4 57bd 4011 273e cf98 123d
00000300: 11ee e4bd d816 eabd 00cd b63c 48f1 d9bd
00000310: 6638 543e e728 1abd c8a7 17be 1e94 eebd
00000320: d728 5a3e d653 c63c 1518 683d 0415 083e
00000330: 2c56 0a3e c77d e93c 4ef5 cf3d bf31 1d3e
00000340: b399 f3bd 0f39 86bb 05cb 163e 3bd9 283e
00000350: 3321 393e 9abd e8bd 25f7 37be acde 4ebd
00000360: 22c2 c8bd 34f3 b23c 795d 71bd ef0c 09be
00000370: d926 7ebe 4f87 7dbd ae00 0cbe 51ed 2fbe
00000380: fe27 1e3d c2a9 08be adbe 193e 6a01 dbbd
00000390: 127b f83d 4de0 18be 02ef da3d cccc b8bb
000003a0: 77f7 063c 85a3 133e 018e 82bd f5ad 41be
000003b0: 5b70 193d d586 22be 4293 7c3d c3b1 19be
000003c0: c256 1abe 1222 813d 650d e6bd 0220 eebd
000003d0: cea7 0a3d 562d d2bd 21aa 0dbe 6592 323e
000003e0: 84d0 c0bd 4b1d 85bd 10e8 2b3c 4041 cfbd
000003f0: de3e 2bbe 1f3d da3d 5c29 bc3c edb2 fb3b
-0.17069687 -0.14699353 0.16100642 0.12253795 0.25624263 -0.03798193 -0.19751623 -0.035450593
0.11473212 0.19848987 -0.14443305 0.13305879 -0.10532605 0.0006449857 -0.13993458 0.09788098
-0.084607966 0.04845894 0.108518906 0.13492778 0.14909339 -0.034032833 -0.11145289 0.14667253
-0.009570655 0.055758025 -0.14502314 -0.09178116 -0.12666257 0.04478354 -0.017489333 0.046667475
0.086583585 0.13135275 -0.04701672 -0.04937961 0.07091803 0.0951518 -0.002693932 0.14773962
0.11477313 -0.0733992 0.040479567 0.12243758 0.038375054 0.0886824 0.011542049 -0.07299601
-0.04939061 -0.08719104 -0.045682497 0.05205006 0.058882207 -0.027779799 0.14181043 0.07971623
0.12638235 0.26696455 -0.111624606 0.15982212 0.02547994 -0.19858693 -0.014837971 0.13147886
-0.07976354 -0.13463342 0.053566344 0.04044611 0.06901035 0.14544035 0.16619939 -0.09803001
0.1951161 -0.008037392 -0.04769284 -0.042051088 -0.03243646 -0.14543028 -0.03146884 0.0997095
0.13139719 0.110608675 0.16912335 -0.14417838 0.17625515 -0.016814373 -0.035805453 0.025392039
-0.054080136 0.07059293 -0.10242882 -0.017833905 0.061346512 -0.049633756 -0.12817033 -0.08822433
-0.04847661 0.0346108 0.16164806 -0.1464283 0.029840896 0.036111057 -0.06498981 0.018706048
-0.13726512 0.023874449 0.15988573 -0.106319554 0.1311249 0.01815988 -0.1613388 -0.021230632
-0.10247797 -0.10238097 0.12682317 -0.03964401 0.17124438 -0.08402189 0.04064629 0.14084685
0.032211635 0.1292786 -0.15775912 0.14317407 0.101028815 0.0140159605 0.16381647 0.072396696
-0.03660852 0.081907034 0.16061302 -0.037228532 -0.09718856 0.12638171 -0.12478886 0.05530743
-0.12781477 0.17281026 -0.10711259 0.124655195 0.05567878 0.006706145 -0.14683805 0.027203644
0.16362564 -0.17434052 -0.15128037 0.0048425 -0.050085533 -0.047784172 0.017083485 0.06941803
-0.03849934 0.09537701 0.022216579 0.13730112 0.0010931346 0.027751643 0.15666457 -0.015876928
-0.008589712 0.077406436 0.008591667 -0.14984381 0.10526943 0.050882597 -0.14002563 -0.12001138
-0.12218082 -0.056092713 0.053820346 -0.0733256 -0.03730076 -0.15741903 -0.10169234 0.13778481
-0.040706247 -0.039862383 -0.06427418 -0.101651855 0.142473 -0.15361865 -0.013705152 0.15712592
-0.06982144 -0.09833709 0.061033018 -0.058963146 0.12716658 -0.052677575 0.16315174 0.03579026
-0.1117822 -0.11430138 0.022314548 -0.10641724 0.2072464 -0.037636664 -0.14810097 -0.11649345
0.21304642 0.024209898 0.05666359 0.13289267 0.13509434 0.028502358 0.1015421 0.15351008
-0.1189455 -0.0040961574 0.14725883 0.16489117 0.18079071 -0.11364289 -0.17965372 -0.050505325
-0.09802653 0.021844484 -0.058927033 -0.1338384 -0.24819507 -0.06189662 -0.13672134 -0.17180373
0.03861236 -0.13346007 0.15014143 -0.10693629 0.12132849 -0.14929314 0.10690118 -0.005639648
0.008237711 0.14417847 -0.06374741 -0.18914016 0.037460666 -0.15871747 0.061663873 -0.15009217
-0.15072158 0.063053265 -0.112330236 -0.11627199 0.033851437 -0.102625534 -0.1383443 0.17438658
-0.09414771 -0.06499728 0.01049234 -0.10119867 -0.167232 0.10656189 0.02296894 0.0076812417

linear_list.1.bias f4 [32]
00000000: 46a9 37bd a74a 27be 50a0 10be 071d 2ebd
00000010: 374b 1dbe e246 9fbd 2666 62bb a2df 85bc
00000020: be36 81bc edcd c0bd 8791 033e 2506 983d
00000030: a397 b1bd 84f5 053e c4ea a03d e550 aa3d
00000040: ac18 073e b1a2 80bd d706 74bd 55cd 5f3d
00000050: 550e 5bbc 8808 9ebd ae9b 013e 7a74 b63d
00000060: 3129 203e 93df 18be 6a2e c03d 5b5c 05be
00000070: e1dd 16be 6123 9cbc 7bdd 7abc 3fa8 c63a
-0.044839166 -0.16337071 -0.14123654 -0.04250815 -0.15360723 -0.07777192 -0.0034545748 -0.016341988
-0.015773173 -0.09414277 0.12848483 0.07423047 -0.086715005 0.13081938 0.07857278 0.08316211
0.13193005 -0.06281031 -0.059576835 0.05463918 -0.013370116 -0.07716471 0.12657043 0.08908935
0.15640713 -0.14929037 0.09383853 -0.13023512 -0.14733078 -0.019059839 -0.015311594 0.0015156342

linear_list.2.weight f4 [2, 32]
00000000: 395b a7bd c30f 273e d196 15be 0402 7abd
00000010: 9dbc 92bd 420b d73d b5aa 64be f9a1 cf3d
00000020: 4137 2f3e 74f7 943d 3527 1dbc f2d3 f93e
00000030: 6b88 273e 8d05 83bb 5a3c 203e cf75 0d3e
00000040: e727 583d ff11 153e d064 093e 5305 dbbd
00000050: 8c6c 6a3c f8e1 d7bd 68c5 aabd 703c d0be
00000060: 8f83 89bc 1fa9 38be 983e 193d 2813 99be
00000070: 2df3 b83d 6b2e ba3c 1093 eebd 189b a83e
00000080: 148e c7be e654 f03c a45b bdbd 9f19 953c
00000090: 308c 9e3d ea6f a7bd d0b4 9bbe d3f5 de3d
000000a0: 6302 403d 5f25 81bd 1aeb 10bf 472c e33d
000000b0: 5c22 cf3d b17c ea3e 81c4 a6be 50d3 fb3d
000000c0: 11f4 e53e 6c00 d73d 7b97 1b3e 91cf 003e
000000d0: 48d6 c1bd cd02 17be 27d3 113f 7a67 e6bd
000000e0: d295 b53e 3061 80be 745d 813e d7dc febd
000000f0: da37 efbb 96f9 d83e 95fa 593e ce67 85be
-0.08171696 0.16314606 -0.14608313 -0.06103708 -0.071648814 0.10500194 -0.22330745 0.10138316
0.17110921 0.072737604 -0.009591867 0.48794514 0.16360633 -0.0039984644 0.15648022 0.13814472
0.05277243 0.14557646 0.13417363 -0.10694375 0.014308106 -0.10541147 -0.083384335 -0.4067111
-0.016786365 -0.18033265 0.03741321 -0.29897428 0.09030757 0.022727212 -0.11649144 0.32930827
-0.38975585 0.029337358 -0.09245995 0.018200694 0.077415824 -0.08175643 -0.30411386 0.10886731
0.046877276 -0.06305956 -0.56608737 0.110924296 0.101139754 0.45798257 -0.32571796 0.12296164
0.4491277 0.10498127 0.15194504 0.1257918 -0.09464699 -0.14747162 0.5696282 -0.11250205
0.35465866 -0.25074148 0.25266612 -0.124444656 -0.007300359 0.4237792 0.21286996 -0.2605576

linear_list.2.bias f4 [2]
00000000: 17bd 1b3c dca7 a23e
0.009505532 0.31768692
