prep/g0530-235328_DB_new/models/model4300.ckpt (torch, 7653 bytes, 6 tensors)

linear_list.0.weight f4 [32, 4]
00000000: f808 c2bd dd07 d7be aff8 39bf 23b1 103e
00000010: 0a46 913d 3715 aa3d 0040 92be 2693 e6be
00000020: c662 6fbe 7be3 f33e c4e2 be3e 9155 863e
00000030: 7c0e 1e3e 88ee 75be 0695 ba3e c139 903e
00000040: e942 3a3f 8e7d 8c3e 402b 98be aec0 803e
00000050: d263 ae3e 51f2 813d 19f3 ccbe b1e7 7ebe
00000060: 3b3b a5be 5e20 87be 4aa6 5d3f 4ceb 12be
00000070: f902 e3be 74df e73e 3f52 e33e 2de7 ffbe
00000080: 7238 cb3d e1e7 f63e 7742 ad3e 509d 853d
00000090: 2f01 863e 22af bc3e b77a 053f 6e56 733d
000000a0: 3fd1 873e 5f46 2b3e 4ee9 b3be 3240 adbe
000000b0: e508 313e c2b8 73bd 38be 85be f56e 563e
000000c0: 12b6 e9be 1a99 a7bd 5a57 68be 1747 0d3d
000000d0: 2938 393d 388a 2a3e 5a24 d2be 2e74 f9be
000000e0: 9abb a03e e091 d9be c935 163f dece 3ebc
000000f0: f2b0 823d 6e28 8dbe 9a6c f6bc 1907 83bd
00000100: 6334 ebbc bb16 fe3e 97b4 503e 24a6 c5be
00000110: 5d9f 42bd 5dff b63e cada a3be 876c adbe
00000120: bfbc 10bf 19ba 293f 80cb ac3e b63d f6bc
00000130: 4a47 88be 7e2b b33d 8e78 993e 5497 cebe
00000140: aad7 b33e 37d0 063f 5d5a dabe 18cf 23bb
00000150: 3626 c9be d0e2 09bf 0d92 48be 78a1 85be
00000160: d6d8 643f 4f72 91be 85d4 e9be 2da0 293e
00000170: 53f3 49bd 612f b93c 4374 df3d ff80 cebe
00000180: 7c3f e3be b524 f53e c7ed 42be e604 7fbe
00000190: 6168 403f 3911 cebe df6c 1ebf 51b6 f0bd
000001a0: cd6e dabe 02f9 173e f6ac c1bd 5f3a 8dbe
000001b0: 8c50 0bbe 03b6 d23e b54b 483e 1cd2 ebbe
000001c0: 5cfe 063f fdd4 9bbe 255f 2bbf b872 8c3e
000001d0: d35f 0bbf ef9e a23d f71d 7dbe 9ae4 763d
000001e0: 23f2 e93e bfd0 c7be 33dc 3ebe cfc3 073e
000001f0: c0ed a1be f8c6 e73d 941f 45be ac0a c3be
-0.09474367 -0.41998187 -0.72645086 0.14130072 0.07093437 0.08304828 -0.28564453 -0.4503414
-0.23377523 0.4763449 0.37282383 0.26237157 0.15435213 -0.24016774 0.3644182 0.28169063
0.72758347 0.2743954 -0.29720497 0.25147003 0.34060532 0.06345046 -0.4002922 -0.24893071
-0.32271752 -0.26391882 0.8658186 -0.14347571 -0.44338205 0.4528767 0.44398686 -0.4998106
0.099228755 0.48223785 0.3383977 0.065241456 0.26172778 0.36852366 0.52140373 0.059408598
0.2652683 0.16726063 -0.35138935 -0.3383804 0.17288549 -0.05950237 -0.26121688 0.20940764
-0.4564672 -0.08183499 -0.22689572 0.034491625 0.045219574 0.16654289 -0.4104336 -0.4872145
0.3139313 -0.42494106 0.5867582 -0.011646001 0.06381406 -0.27569908 -0.030081082 -0.06397838
-0.028711503 0.49626717 0.2038139 -0.38603318 -0.047515262 0.35741702 -0.3200286 -0.33871862
-0.56538004 0.6629959 0.33749008 -0.030058723 -0.2661689 0.0874853 0.29974788 -0.4034983
0.35125476 0.5266146 -0.42647067 -0.0024995264 -0.39286965 -0.53861713 -0.19586964 -0.26099753
0.89393365 -0.28407523 -0.45669952 0.16565008 -0.049304318 0.0226056 0.10910847 -0.4033279
-0.44384372 0.47879568 -0.19036017 -0.24904212 0.7515927 -0.40247515 -0.61884874 -0.11753524
-0.4266266 0.14841083 -0.09456818 -0.27583596 -0.13604945 0.4115449 0.1956013 -0.46058738
0.5273187 -0.30435935 -0.66942054 0.27431273 -0.5444309 0.079404704 -0.24718462 0.060276605
0.45692548 -0.39026448 -0.18638687 0.13258289 -0.316267 0.11317247 -0.19250327 -0.3809408

linear_list.0.bias f4 [32]
00000000: 8f7b fb3e fc51 383e bddd c9be 9606 81be
00000010: 5662 6fbe 6e9c fa3d 93d9 e1bc e71b a03e
00000020: 9fc4 5cbe 5ee9 a3be c4ac 39be acf6 583e
00000030: e877 ebbe 123a 483e 2375 00be 5a54 a1bd
00000040: 0dc5 22be a4c5 80be ddbc c43e 403d 06be
00000050: 7c57 b0be 05a7 d63e f1e0 46be 8c47 a9be
00000060: 7f51 60be 1e01 123f af41 c33e 663e 083e
00000070: 81f5 dabe f353 8d3d d391 743e fcfe 88be
0.49117705 0.18000025 -0.39426985 -0.25200337 -0.23377356 0.12236868 -0.027569568 0.31271288
-0.2155938 -0.32013983 -0.18132311 0.21187848 -0.4598992 0.19553402 -0.12544684 -0.07877417
-0.15895481 -0.25150788 0.3842534 -0.13109303 -0.34441745 0.419243 -0.19421746 -0.33062398
-0.21906088 0.57032955 0.3813605 0.13305053 -0.4276543 0.06900778 0.23883753 -0.26757038

linear_list.1.weight f4 [32, 32]
00000000: 318f 2ebe 6029 19be e99f 4e3e 338e 0e3e
00000010: e56c 883e 95ca 24bd e4c6 47be 2606 2ebd
00000020: bc5f 033e 5c75 573e 9845 18be e1ca 0f3e
00000030: c317 d4bd a975 bcba 66b4 28be 818c c83d
00000040: f3e4 b9bd e27c 463d 31d7 033e 822a 0a3e
00000050: 2aa2 253e a8ed 06bd 35d2 00be 5331 163e
00000060: 3dce 1cbc 8f5f ff3c f7e9 13be 39e9 c9bd
00000070: 8af6 08be 87fa 593d c6d4 fdbc 6526 3f3d
00000080: 94a3 f43d 4f1b 063e b972 87bd b8cb 20bd
00000090: 990d a43d 7436 b33d ec1a 8bbc 1375 173e
000000a0: a475 f73d 4910 80bd a501 223d eb14 053e
000000b0: 5dc6 1e3d 7ce0 b43d 9d06 f63c 8f54 8ebd
000000c0: 4b1f 51bd 3791 b2bd 77a4 83bd 7232 553d
000000d0: 22e8 103d fc53 05bc f9fd 293e 4342 a33d
000000e0: 606a 013e 4cb2 953e 719b e4bd d589 213e
000000f0: ccc8 3c3d 304d 40be 12d0 f63b 65a2 063e
00000100: c4d8 11be 7fd9 09be 3603 443d 87fb 463c
00000110: 7160 733d 48a8 1c3e 5e11 433e 0ada babd
00000120: ed8d 413e edb6 e3bb ba1e 42bd bf93 b4bd
00000130: 06c9 21bd 7fdc 14be 0ca5 1abd 0230 d33d
00000140: 4b3f 073e cd86 e23d ca9e 253e a174 12be
00000150: 1266 4e3e d1e9 bbbc 58f9 34bd f702 d03c
00000160: 2283 5dbd 93cc 913d 8ebe dfbd f2d8 89bc
00000170: 13d6 653d 0166 a9bd b9b7 1fbe f5ae b4bd
00000180: c53f 7dbd 108c 0f3d 7b6a 1f3e 2030 27be
00000190: cf85 0c3d 61ef 263d 5b97 84bd 59c5 9c3c
000001a0: 61df 09be 881b e93c 469f 243e ebea eabd
000001b0: 2c2e 063e 67dd 973c a7d5 2dbe ddeb adbc
000001c0: f5fa cebd 1dad d1bd 6e62 013e c261 22bd
000001d0: 4540 3d3e f62d acbd a249 323d 283a 103e
000001e0: 59f0 033d 0999 0c3e 548b 21be 4b57 143e
000001f0: 40b6 c93d 099c d23b ee19 233e b844 943d
00000200: eb8a 18bd 5152 a93d fb20 253e 80fb 24bd
00000210: 889e bdbd 99b1 043e c9c0 ffbd d2ab 6c3d
00000220: c098 febd e442 343e 3173 d8bd fc0b 003e
00000230: 6f0f 643d 3bfb f03b ac94 18be 2dda de3c
00000240: c0f6 2a3e 5286 32be 42a8 17be d6ad 9e3b
00000250: b74b 3abd 56b9 43bd 52fb 993c 0a2b 8e3d
00000260: 7cb1 1dbd 6d4d cb3d 8bff b53c 20f9 0f3e
00000270: ccb0 303a ce3e e33c 082c 203e 5510 82bc
00000280: ddbb 0cbc 4487 9e3d 10c4 0c3c a870 19be
00000290: 8097 d73d 456a 503d e162 0fbe 87c8 f5bd
000002a0: f039 fabd 79c1 65bd b972 5c3d bb2b 96bd
000002b0: afc8 18bd 7432 21be 1344 d0bd 7617 0d3e
000002c0: 98bb 26bd bd46 23bd 2ea2 83bd d92e d0bd
000002d0: 71e4 113e 354e 1dbe 938b 60bc 9ee5 203e
000002e0: 8bfe 8ebd f564 c9bd c2fd 793d 5783 71bd
000002f0: f537 023e 71c4 57bd 4011 273e cf98 123d
00000300: c226 0bbe 6fbe ecbd c164 183d da73 f9bd
00000310: 09ce 5c3e ec98 fdbc 853f 17be d9da f7bd
00000320: 45b8 5f3e 4fa7 093d 5080 603d aad7 023e
00000330: 085d 0a3e 5a53 e13c 9aa4 853d 0c31 1d3e
00000340: 0061 f8bd 0f39 86bb 08fd 243e 3bd9 283e
00000350: 2ce3 5a3e bc76 eabd 7929 3fbe acde 4ebd
00000360: 22c2 c8bd 8725 7f3c b321 71bd eb6f 0bbe
00000370: 333e 81be b4c7 a1bd 7bee 18be 51ed 2fbe
00000380: 3823 083d c2a9 08be eadd 073e 566e ebbd
00000390: 96c2 ff3d b82a 19be ea7b c63d 3d93 7dbb
000003a0: 1f35 243c cd7c 1d3e 018e 82bd e41b 4cbe
000003b0: 45f5 173d d586 22be 75fe 953d 95b7 19be
000003c0: 3bcb 17be 1222 813d dc75 0cbe c61b eebd
000003d0: 64c9 003d e92a d9bd 48fc 04be 6592 323e
000003e0: 84d0 c0bd 00ab 64bd ee57 243c 433b cbbd
000003f0: 75d0 2bbe e540 c43d 4a0b e93c edb2 fb3b
-0.1704681 -0.1495719 0.20178188 0.13921432 0.2664558 -0.04023226 -0.19509465 -0.042486332
0.12829489 0.21040863 -0.14870298 0.14042236 -0.10356095 -0.0014378327 -0.16475067 0.09792424
-0.09076872 0.04845894 0.12875058 0.13492778 0.16175142 -0.03294149 -0.12580188 0.14667253
-0.009570655 0.031173496 -0.1444472 -0.09858937 -0.13375297 0.053217437 -0.030985247 0.046667475
0.119452626 0.13096355 -0.066136785 -0.03925678 0.08010406 0.087506205 -0.01698061 0.14790754
0.12082985 -0.06253106 0.03955235 0.12996261 0.038763393 0.088318795 0.03003245 -0.06949722
-0.051055234 -0.08719104 -0.064278536 0.05205006 0.03537763 -0.008137699 0.16600789 0.07971623
0.12638235 0.29237592 -0.111624606 0.15775235 0.046089932 -0.18779445 0.007532128 0.13147886
-0.14242846 -0.13461874 0.047854625 0.01214493 0.059418146 0.15298569 0.19049594 -0.09123619
0.18901797 -0.0069492967 -0.047392584 -0.08817243 -0.03949835 -0.14537238 -0.037755057 0.10311891
0.13207738 0.110608675 0.16173854 -0.14302303 0.20156124 -0.02293864 -0.044183105 0.025392039
-0.054080136 0.071190976 -0.10925017 -0.01682708 0.05611236 -0.08271409 -0.15597428 -0.08822433
-0.061828393 0.035045683 0.15567963 -0.16326952 0.034307297 0.040755633 -0.06474181 0.019137071
-0.13464119 0.02845551 0.16076383 -0.11470588 0.1310355 0.01853819 -0.16976033 -0.021230632
-0.1010646 -0.10238097 0.12635204 -0.03964401 0.18481548 -0.08407204 0.043527253 0.14084685
0.032211635 0.13730253 -0.15775806 0.14486425 0.098492146 0.0064272922 0.1592786 0.072396696
-0.037241857 0.08267654 0.16125862 -0.04027891 -0.09258753 0.12958373 -0.12487943 0.057781048
-0.124314785 0.17603642 -0.10568846 0.12504572 0.05567878 0.0073541678 -0.14900464 0.027203644
0.1669569 -0.17434052 -0.14810279 0.0048425 -0.045482364 -0.047784172 0.018796597 0.06941803
-0.03849934 0.09926877 0.022216579 0.14059877 0.0006740212 0.027739909 0.15641797 -0.015876928
-0.008589712 0.077406436 0.008591667 -0.14984381 0.10526943 0.050882597 -0.14002563 -0.12001138
-0.12218082 -0.056092713 0.053820346 -0.0733256 -0.03730076 -0.15741903 -0.10169234 0.13778481
-0.040706247 -0.039862383 -0.06427418 -0.101651855 0.142473 -0.15361865 -0.013705152 0.15712592
-0.06982144 -0.09833709 0.061033018 -0.058963146 0.12716658 -0.052677575 0.16315174 0.03579026
-0.13589004 -0.1155976 0.03720546 -0.121803 0.21562971 -0.030956708 -0.14770325 -0.12102289
0.21847637 0.033606824 0.05480987 0.12777582 0.13512051 0.027505565 0.06525536 0.15350741
-0.12127876 -0.0040961574 0.16112149 0.16489117 0.21375722 -0.11448428 -0.18668164 -0.050505325
-0.09802653 0.015572912 -0.05887003 -0.13616912 -0.25242767 -0.078994185 -0.14934723 -0.17180373
0.033236712 -0.13346007 0.13268247 -0.11495654 0.12488286 -0.14957702 0.096916035 -0.0038692497
0.010022431 0.15379639 -0.06374741 -0.19932514 0.03709914 -0.15871747 0.073239245 -0.15011437
-0.1482362 0.063053265 -0.13716835 -0.11626391 0.03144206 -0.106038876 -0.12986863 0.17438658
-0.09414771 -0.05582714 0.01003073 -0.09923413 -0.16778739 0.0958269 0.028447766 0.0076812417

linear_list.1.bias f4 [32]
00000000: 0a19 68bd 081f 24be 9c8e 44be ddc3 45bd
00000010: 602e 1abe e246 9fbd f5ab 6bbc 55b1 f4bc
00000020: f9df 8ebc adab c8bd 3749 d73d 1100 913d
00000030: d79d bebd eedb 1f3e d528 863d e088 953d
00000040: e32d ff3d 0369 8bbd 8f8f 5fbd 045d 573d
00000050: 8f85 72bc bc1e 7dbd 8751 3d3e 040b bc3c
00000060: 5ebf 383e cb50 3dbe 7eee 063e daf4 2fbe
00000070: af03 17be 4c95 053d 00ab ab3c 049d ceba
-0.056664504 -0.16027462 -0.19195026 -0.048282493 -0.15056753 -0.07777192 -0.0143842595 -0.029869715
-0.017440783 -0.097983696 0.105120115 0.07080091 -0.09307449 0.1561124 0.06550757 0.073014975
0.12459924 -0.06807139 -0.054580268 0.05257894 -0.014802351 -0.06179689 0.18488131 0.022954471
0.18041751 -0.18487851 0.13176915 -0.17183247 -0.14747499 0.032613084 0.020955563 -0.0015763347

linear_list.2.weight f4 [2, 32]
00000000: 8c9b 4cbd 588c 493e 9fc9 7ebe bb6d 0cbe
00000010: 8266 9fbd 420b d73d a193 76be 7adc 003e
00000020: a609 2f3e 36e5 ca3d b370 423c de1f 213f
00000030: 8e83 6e3e f828 133c d1f2 3b3e 137c 253e
00000040: 7f16 8b3e 10db 2d3e f6bc 393e ee8a dcbd
00000050: 007a 6a3c c62b 22be 1cd3 8fbd 832f f3be
00000060: 1137 4bbc 4727 30be 6aac a23c eb62 b5be
00000070: e0ef b83d 80af e9bc 91ee 2bbe 9d22 c03e
00000080: 5353 fbbe 8216 f23c f1a0 bcbd cc1e a53c
00000090: 9d21 ac3d ea6f a7bd d9b7 adbe 9060 d43d
000000a0: cf60 403d 23bd 8fbd e9e5 1ebf a9dc 8f3d
000000b0: 11e3 e33d f0fa 073f adcc babe a314 003e
000000c0: 9eb9 f83e 70e6 dd3d 2f91 243e 477f 023e
000000d0: 09c5 c1bd 3968 2abe 5530 223f 2f65 cfbd
000000e0: 56db cc3e 9044 98be 984a a13e 6a95 fcbd
000000f0: bc8b eebb 579d f33e f843 683e 2d80 95be
-0.04995303 0.19682443 -0.248816 -0.13713734 -0.07783224 0.10500194 -0.24079753 0.12584105
0.17093524 0.09907 0.01186769 0.6293925 0.23292372 0.008981936 0.18354346 0.16160612
0.271656 0.16978097 0.18138489 -0.10768686 0.014311314 -0.1583701 -0.07022688 -0.47497186
-0.012403266 -0.17202483 0.019857604 -0.3542703 0.090301275 -0.028526068 -0.16790225 0.37526408
-0.4908701 0.029551748 -0.09210385 0.020156287 0.08404849 -0.08175643 -0.33929327 0.1036998
0.046967324 -0.07018497 -0.62069565 0.070245095 0.11127294 0.53117275 -0.3648428 0.12507872
0.48579115 0.10834968 0.16071008 0.12743865 -0.094614096 -0.1664132 0.63355 -0.10126721
0.4001109 -0.2973981 0.31502223 -0.12333186 -0.007279841 0.47580978 0.22682178 -0.29199353

linear_list.2.bias f4 [2]
00000000: 4732 18bd f625 ce3e
-0.037157323 0.40263337
