prep/g0530-235328_DB_new/models/model5100.ckpt (torch, 7653 bytes, 6 tensors)

linear_list.0.weight f4 [32, 4]
-0.07455638 -0.39308062 -0.8279411 0.14485948 0.06948248 0.0815641 -0.28600302 -0.45105627
-0.29976183 0.46881884 0.3876241 0.27347323 0.12333932 -0.19700584 0.3701974 0.28560475
0.77726096 0.27214295 -0.29244584 0.22924517 0.3398527 0.06308117 -0.4024894 -0.25485292
-0.39779806 -0.22385448 0.93093663 -0.12972891 -0.4415334 0.45214808 0.43139985 -0.51698893
0.07481243 0.479418 0.3727382 0.05755303 0.26298854 0.36316106 0.53531754 0.055731468
0.26554483 0.16758926 -0.35154632 -0.3377863 0.16588762 -0.06362188 -0.2937207 0.18443935
-0.46187845 -0.07615018 -0.21236649 0.035777505 0.04605022 0.16735664 -0.40978903 -0.48729604
0.30902088 -0.4033116 0.6021431 -0.03030269 0.05696606 -0.28250453 -0.037675157 -0.07000964
-0.028955372 0.50080895 0.19261122 -0.38989413 -0.047515262 0.35741702 -0.3200286 -0.33871862
-0.5976423 0.67980397 0.34293592 0.014923721 -0.2660211 0.08800047 0.29989755 -0.4035022
0.35236192 0.5472784 -0.4503146 -0.021285284 -0.38814864 -0.5549925 -0.23662408 -0.3005977
0.9716066 -0.34864104 -0.45610592 0.13672888 -0.049304318 0.0226056 0.10910847 -0.4033279
-0.44384372 0.47879568 -0.19036017 -0.24904212 0.8290553 -0.5091391 -0.6522878 -0.14603706
-0.4125999 0.1675406 -0.09872746 -0.29186428 -0.13737252 0.40878862 0.19457133 -0.4676342
0.53739405 -0.38465318 -0.7476269 0.25311667 -0.5361215 0.08485214 -0.2674233 0.037101015
0.46779066 -0.3910931 -0.21743172 0.15343729 -0.316267 0.11317247 -0.19250327 -0.3809408
00000000: 04b1 98bd dd41 c9be f3f3 53bf 0b56 143e
00000010: d54c 8e3d 140b a73d fd6e 92be d9f0 e6be
00000020: 627a 99be 0609 f03e ab76 c63e af04 8c3e
00000030: 5399 fc3d e6bb 49be 838a bd3e c93a 923e
00000040: 93fa 463f 5256 8b3e 76bb 95be 3fbf 6a3e
00000050: 2c01 ae3e b330 813d 1713 cebe 157c 82be
00000060: 30ac cbbe 1c3a 65be dd51 6e3f a8d7 04be
00000070: aa10 e2be f47f e73e 71e0 dc3e 6359 04bf
00000080: 4237 993d 4776 f53e 8bd7 be3e babc 6b3d
00000090: 6fa6 863e 3ff0 b93e 920a 093f ae46 643d
000000a0: 7ef5 873e 859c 2b3e e1fd b3be 53f2 acbe
000000b0: 72de 293e 304c 82bd 8f62 96be abdd 3c3e
000000c0: 557b ecbe a0f4 9bbd 9a76 59be 6f8b 123d
000000d0: 289f 3c3d 8a5f 2b3e decf d1be de7e f9be
000000e0: fc37 9e3e dc7e cebe 0d26 1a3f 593d f8bc
000000f0: 3e55 693d 6fa4 90be 4451 1abd 3761 8fbd
00000100: d133 edbc 0435 003f e03b 453e 34a0 c7be
00000110: 5d9f 42bd 5dff b63e cada a3be 876c adbe
00000120: 16ff 18bf a207 2e3f 4c95 af3e 9f82 743c
00000130: eb33 88be 9739 b43d 2c8c 993e d797 cebe
00000140: c868 b43e 701a 0c3f a38f e6be 7a5e aebc
00000150: 6bbb c6be fd13 0ebf 954d 72be f1e7 99be
00000160: 36bb 783f 1481 b2be b786 e9be a802 0c3e
00000170: 53f3 49bd 612f b93c 4374 df3d ff80 cebe
00000180: 7c3f e3be b524 f53e c7ed 42be e604 7fbe
00000190: f83c 543f f156 02bf 55fc 26bf bd8a 15be
000001a0: 4b40 d3be c38f 2b3e 9f31 cabd 3c6f 95be
000001b0: 62ab 0cbe be4c d13e b53d 473e c06d efbe
000001c0: a892 093f 43f1 c4be 7a64 3fbf 8298 813e
000001d0: 423f 09bf f5c6 ad3d b5eb 88be 3cf7 173d
000001e0: 4282 ef3e 5b3d c8be 6ca6 5ebe aa1e 1d3e
000001f0: c0ed a1be f8c6 e73d 941f 45be ac0a c3be

linear_list.0.bias f4 [32]
0.51905227 0.17890806 -0.39093077 -0.2846339 -0.253963 0.12106207 -0.06047435 0.30553517
-0.22572115 -0.32737282 -0.18099967 0.18621156 -0.464158 0.19600712 -0.12464597 -0.0727335
-0.15821977 -0.25150788 0.38893798 -0.13114929 -0.34289873 0.4239095 -0.2049687 -0.33062398
-0.21906088 0.58201003 0.37555975 0.1304951 -0.42680982 0.063181825 0.23509754 -0.26757038
00000000: 9ce0 043f ad33 373e 1428 c8be 89bb 91be
00000010: 7007 82be 64ef f73d f4b3 77bd 1b6f 9c3e
00000020: 7223 67be 699d a7be fa57 39be 3eae 3e3e
00000030: 1ea6 edbe 17b6 483e 6346 ffbd 4df5 94bd
00000040: 5d04 22be a4c5 80be e122 c73e 004c 06be
00000050: 6c90 afbe aa0a d93e 51e3 51be 8c47 a9be
00000060: 7f51 60be 9cfe 143f 5e49 c03e 82a0 053e
00000070: d186 dabe 7965 813d 69bd 703e fcfe 88be

linear_list.1.weight f4 [32, 32]
-0.16614214 -0.15050736 0.22506674 0.1461308 0.2664879 -0.041411635 -0.18788509 -0.043410506
0.13146062 0.21016642 -0.15009822 0.1416305 -0.10174029 -0.0022283406 -0.17625381 0.09792424
-0.0916027 0.04845894 0.14824753 0.13492778 0.16568148 -0.03089845 -0.136588 0.14667253
-0.009570655 0.01985006 -0.1440506 -0.09977179 -0.13937607 0.06520518 -0.03891888 0.046667475
0.14192054 0.13077916 -0.07984686 -0.02929415 0.08764375 0.08299774 -0.014554497 0.14828716
0.1293832 -0.05041686 0.039119165 0.13396282 0.04047276 0.088130005 0.045545496 -0.066329375
-0.052071266 -0.08719104 -0.06985831 0.05205006 0.021912169 0.010167943 0.17977819 0.07971623
0.12638235 0.3019585 -0.11164301 0.15678714 0.06424502 -0.18025038 0.01849353 0.13147886
-0.18635531 -0.13447082 0.041654326 -0.0069683194 0.059053995 0.15878475 0.1951321 -0.09127092
0.1916966 -0.0010663313 -0.04696373 -0.11215496 -0.046401057 -0.14520402 -0.035940096 0.1044161
0.13326837 0.110608675 0.14972812 -0.14262515 0.22016414 -0.03616227 -0.041629106 0.025392039
-0.054080136 0.0821157 -0.11655272 -0.015726728 0.055798795 -0.102649204 -0.16823883 -0.08822433
-0.073213324 0.03526302 0.14453116 -0.1776608 0.037988886 0.044261757 -0.06376612 0.018929116
-0.13236375 0.033886846 0.16120803 -0.12350593 0.13090329 0.018747037 -0.17335679 -0.021230632
-0.10014588 -0.10238097 0.12025794 -0.03964401 0.19557786 -0.08408914 0.048154138 0.14084685
0.032211635 0.14472291 -0.15775704 0.14567988 0.098215714 0.001810676 0.15568481 0.072396696
-0.03894206 0.08293117 0.1611313 -0.04303619 -0.08992759 0.13087614 -0.1250034 0.059208248
-0.121633165 0.1788424 -0.10524414 0.12387431 0.05567878 0.007582164 -0.14993694 0.027203644
0.16879827 -0.17434052 -0.14582156 0.0048425 -0.043053765 -0.047789462 0.019139027 0.06941803
-0.03849934 0.10061536 0.022216579 0.14230438 -0.00027250688 0.027680242 0.15486884 -0.015876928
-0.008589712 0.077406436 0.008591667 -0.14984381 0.10526943 0.050882597 -0.14002563 -0.12001138
-0.12218082 -0.056092713 0.053820346 -0.0733256 -0.03730076 -0.15741903 -0.10169234 0.13778481
-0.040706247 -0.039862383 -0.06427418 -0.101651855 0.142473 -0.15361865 -0.013705152 0.15712592
-0.06982144 -0.09833709 0.061033018 -0.058963146 0.12716658 -0.052677575 0.16315174 0.03579026
-0.14712211 -0.115984075 0.04410343 -0.12679055 0.21993381 -0.027002793 -0.14192532 -0.12203474
0.22289357 0.040920764 0.05439677 0.124644406 0.13530569 0.027212625 0.053976316 0.15350741
-0.12074676 -0.0040961574 0.17131904 0.16489117 0.23033495 -0.11448332 -0.18659739 -0.050505325
-0.09802653 0.018754642 -0.05883138 -0.1359032 -0.25312585 -0.07921428 -0.15090495 -0.17180373
0.03216089 -0.13346007 0.12568873 -0.11851025 0.12736501 -0.14975558 0.0895593 -0.00263137
0.013376532 0.1598878 -0.06374741 -0.20288287 0.036791123 -0.15871747 0.077888526 -0.15012732
-0.14652626 0.063053265 -0.14655396 -0.116263315 0.029851614 -0.10895685 -0.12601101 0.17438658
-0.09414771 -0.05290515 0.009723723 -0.09785548 -0.16768754 0.09299831 0.029199561 0.0076812417
00000000: 2a21 2abe 9a1e 1abe e577 663e 50a3 153e
00000010: 1a71 883e 3f9f 29bd f364 40be 37cf 31bd
00000020: 9d9d 063e de35 573e 59b3 19be 9607 113e
00000030: 375d d0bd 5a09 12bb e17b 34be 818c c83d
00000040: 329a bbbd e27c 463d 33ce 173e 822a 0a3e
00000050: 68a8 293e bf1e fdbc badd 0bbe 5331 163e
00000060: 3dce 1cbc 989c a23c 0082 13be 2755 ccbd
00000070: 9ab8 0ebe 4b8a 853d 6769 1fbd 6526 3f3d
00000080: 9e53 113e f9ea 053e c086 a3bd 49fa efbc
00000090: 917e b33d b8fa a93d fc75 6ebc 97d8 173e
000000a0: 087d 043e e981 4ebd 6b3b 203d 8d2d 093e
000000b0: c4c6 253d 817d b43d ea8d 3a3d b2d7 87bd
000000c0: ae48 55bd 3791 b2bd e011 8fbd 7232 553d
000000d0: 2681 b33c 7297 263c c617 383e 4342 a33d
000000e0: 606a 013e 4e9a 9a3e 17a5 e4bd cf8c 203e
000000f0: e592 833d 8e93 38be be7f 973c 65a2 063e
00000100: edd3 3ebe b8b2 09be ba9d 2a3d 8056 e4bb
00000110: 9ae2 713d 7898 223e b6d0 473e 40ec babd
00000120: 1d4c 443e 24c4 8bba 0a5d 40bd 80b1 e5bd
00000130: 090f 3ebd 5db0 14be ec35 13bd 1cd8 d53d
00000140: 8177 083e cd86 e23d 5452 193e 540c 12be
00000150: b572 613e e31e 14bd 4883 2abd f702 d03c
00000160: 2283 5dbd 472c a83d 31b3 eebd 57d5 80bc
00000170: 478d 643d bf39 d2bd cd46 2cbe f5ae b4bd
00000180: def0 95bd f56f 103d faff 133e b6ec 35be
00000190: 3c9a 1b3d d14b 353d d097 82bd 3c11 9b3c
000001a0: 5d8a 07be efcc 0a3d b813 253e adf0 fcbd
000001b0: 830b 063e 6393 993c 7184 31be ddeb adbc
000001c0: 4819 cdbd 1dad d1bd cb49 f63d c261 22bd
000001d0: 9045 483e ed36 acbd 463d 453d 283a 103e
000001e0: 59f0 033d 3e32 143e 108b 21be 1b2d 153e
000001f0: 5225 c93d 3454 ed3a d76b 1f3e b844 943d
00000200: b681 1fbd d1d7 a93d 9aff 243e b746 30bd
00000210: f52b b8bd 6504 063e e400 00be 5984 723d
00000220: cf1a f9bd 7622 373e 3d8a d7bd d0b1 fd3d
00000230: 6f0f 643d cd73 f83b 1289 19be 2dda de3c
00000240: 74d9 2c3e 5286 32be 3f52 15be d6ad 9e3b
00000250: 2559 30bd e2be 43bd 73c9 9c3c 0a2b 8e3d
00000260: 7cb1 1dbd 6d0f ce3d 8bff b53c 3db8 113e
00000270: 41df 8eb9 adc1 e23c f095 1e3e 5510 82bc
00000280: ddbb 0cbc 4487 9e3d 10c4 0c3c a870 19be
00000290: 8097 d73d 456a 503d e162 0fbe 87c8 f5bd
000002a0: f039 fabd 79c1 65bd b972 5c3d bb2b 96bd
000002b0: afc8 18bd 7432 21be 1344 d0bd 7617 0d3e
000002c0: 98bb 26bd bd46 23bd 2ea2 83bd d92e d0bd
000002d0: 71e4 113e 354e 1dbe 938b 60bc 9ee5 203e
000002e0: 8bfe 8ebd f564 c9bd c2fd 793d 5783 71bd
000002f0: f537 023e 71c4 57bd 4011 273e cf98 123d
00000300: 2ea7 16be 0f89 edbd cca5 343d 62d5 01be
00000310: 5436 613e f634 ddbc df54 11be 5aed f9bd
00000320: 363e 643e 889c 273d 26cf 5e3d 9145 ff3d
00000330: 938d 0a3e 03ed de3c 4516 5d3d 0c31 1d3e
00000340: 144a f7bd 0f39 86bb 426e 2f3e 3bd9 283e
00000350: eddc 6b3e 3b76 eabd 6313 3fbe acde 4ebd
00000360: 22c2 c8bd 56a3 993c 2cf9 70bd 352a 0bbe
00000370: b699 81be 193b a2bd d486 1abe 51ed 2fbe
00000380: 23bb 033d c2a9 08be 8cb4 003e 80b5 f2bd
00000390: f96b 023e 8759 19be de6a b73d 1073 2cbb
000003a0: 3e29 5b3c a1b9 233e 018e 82bd 87c0 4fbe
000003b0: 4ab2 163d d586 22be 0584 9f3d faba 19be
000003c0: fb0a 16be 1222 813d 3e12 16be 761b eebd
000003d0: 5f8b f43c c524 dfbd 0809 01be 6592 323e
000003e0: 84d0 c0bd 12b3 58bd 4050 1f3c 7468 c8bd
000003f0: 48b6 2bbe e675 be3d eb33 ef3c edb2 fb3b

linear_list.1.bias f4 [32]
-0.060383964 -0.15903953 -0.22732912 -0.057232615 -0.1499715 -0.07777192 -0.015473493 -0.03603843
-0.01893919 -0.104916565 0.10096139 0.030043077 -0.10008369 0.1676037 0.052435387 0.07078445
0.12401735 -0.07250349 -0.055639256 0.052151684 -0.015642663 -0.050118998 0.21374899 -0.027637303
0.19522643 -0.20781235 0.14512444 -0.20758754 -0.1474965 0.054717027 0.05315703 -0.034278218
00000000: 2d55 77bd 42db 22be f7c8 68be bf6c 6abd
00000010: 2192 19be e246 9fbd 8984 7dbc 089d 13bd
00000020: 5c26 9bbc 7fde d6bd d8c4 ce3d e61c f63c
00000030: adf8 ccbd 4ea0 2b3e 7dc6 563d 70f7 903d
00000040: cffc fd3d b67c 94bd fde5 63bd 019d 553d
00000050: 0b25 80bc 9449 4dbd 04e1 5a3e a067 e2bc
00000060: 70e9 473e c3cc 54be 809b 143e d491 54be
00000070: 5309 17be f61e 603d 30bb 593d 5167 0cbd

linear_list.2.weight f4 [2, 32]
-0.040806305 0.22124353 -0.3115144 -0.17245722 -0.079085164 0.10500194 -0.25157648 0.13915834
0.17066278 0.11405101 0.014188461 0.7067075 0.27385896 0.019916823 0.19925873 0.17598747
0.33010498 0.18384087 0.20867988 -0.10908211 0.014314029 -0.16431968 -0.061816297 -0.5116607
-0.0107622435 -0.17726038 0.008225683 -0.39092302 0.090271614 -0.040030718 -0.17371741 0.388559
-0.5302404 0.027020942 -0.085748054 0.021510452 0.08568817 -0.08175643 -0.3512104 0.10121504
0.04714108 -0.07412277 -0.6331162 0.061004654 0.115330175 0.55278367 -0.3713486 0.12592915
0.48263955 0.11031221 0.15920039 0.12836058 -0.0945859 -0.17392106 0.6505369 -0.093252674
0.4154425 -0.30980632 0.33980295 -0.1217262 -0.0069985576 0.49533495 0.23387185 -0.29112816
00000000: 8324 27bd aa8d 623e d17e 9fbe a098 30be
00000010: 67f7 a1bd 420b d73d a2ce 80be 867f 0e3e
00000020: 39c2 2e3e 9393 e93d b876 683c c8ea 343f
00000030: 3e37 8c3e 9b28 a33c 7b0a 4c3e 0f36 343e
00000040: 8503 a93e c840 3c3e 2eb0 553e 7166 dfbd
00000050: 6485 6a3c 6b43 28be 1633 7dbd 32fc 02bf
00000060: 1f54 30bc bf83 35be 04c5 063c 1027 c8be
00000070: 53e0 b83d 40f7 23bd fae2 31be 35f1 c63e
00000080: d6bd 07bf 065b dd3c ad9c afbd b036 b03c
00000090: 477d af3d ea6f a7bd d9d1 b3be d549 cf3d
000000a0: 0117 413d aecd 97bd e713 22bf 04e0 793d
000000b0: 3a32 ec3d 3b83 0d3f 6721 bebe 92f3 003e
000000c0: 881c f73e 5eeb e13d 6d05 233e f570 033e
000000d0: 41b6 c1bd 5d18 32be 9689 263f 42fb bebd
000000e0: e1b4 d43e ef9e 9ebe a7fa ad3e 964b f9bd
000000f0: 2854 e5bb 8b9c fd3e 1a7c 6f3e c00e 95be

linear_list.2.bias f4 [2]
-0.06673877 0.43370524
00000000: 56ae 88bd 9d0e de3e
