prep/g0530-235328_DB_new/models/model6900.ckpt (torch, 7653 bytes, 6 tensors)

linear_list.0.weight f4 [32, 4]
00000000: 6914 5cbc b11a e7be c456 83bf 2587 5a3e
00000010: d26c 513d b3db 813d 6f93 95be b787 e9be
00000020: e077 e2be c00a 123f 24a1 c63e fff3 993e
00000030: fbbd 003e b586 fbbd 4610 c13e 7c04 963e
00000040: 7f09 5e3f 6fe3 943e a078 80be 750a 2e3e
00000050: 2334 b43e 3440 a23d 4e20 d6be 059f 84be
00000060: c49f 14bf 612d f1bd 945f 873f b2f8 dcbd
00000070: 05b5 dcbe 4681 e93e e094 d33e 53d0 0bbf
00000080: 3525 92bd 9be9 033f ac6f f93e 2265 883c
00000090: eb05 783e 9bf5 c13e 4541 1d3f d949 273d
000000a0: f0b7 8f3e 7649 3b3e 6abd b2be fd07 a9be
000000b0: be03 1c3e d25b dabd 00f8 b9be 5b7e 2b3e
000000c0: 4c28 f9be 4033 88bd d69f 3dbe 80d3 b53d
000000d0: 0422 2c3d af1b 273e 7feb d1be 59aa fabe
000000e0: 4720 a63e 830e c3be 8445 253f 2f7c 8ebd
000000f0: e088 8c3d 47dd a7be 54b7 acbd a6cc 33bd
00000100: 9f2c d7bc 8bfc 033f d9e3 113e f905 ccbe
00000110: 8a8d 42bd b701 b73e 6fda a3be d06b adbe
00000120: e2cb 37bf f658 533f 9d94 ba3e 007f c83d
00000130: f56e 87be 0c5b b83d 76ba 983e 1560 cfbe
00000140: c6f2 b03e 90cd 183f 40e3 0fbf 3efd a4bd
00000150: 43f1 b9be 322b 21bf 2f7f c5be a797 abbe
00000160: e38d 913f c918 04bf f9c7 c9be 904f 553d
00000170: 53f3 49bd 612f b93c 4374 df3d ff80 cebe
00000180: 7c3f e3be b524 f53e c7ed 42be e604 7fbe
00000190: 4164 853f 45a6 3fbf 9918 27bf 9aba 56be
000001a0: 7609 cbbe 5b84 3b3e 1eae dcbd 2f4b 9cbe
000001b0: 6db6 ffbd 6ff4 d53e 36e9 4e3e f5cb f3be
000001c0: ec54 043f a324 35bf d733 7abf 7c3a 5d3e
000001d0: fe3e 03bf 2062 8a3d e218 a4be d82e 113c
000001e0: f1db f83e 3cd8 dcbe 19e6 7dbe 5f53 5c3e
000001f0: c0ed a1be f8c6 e73d 941f 45be ac0a c3be
-0.013432601 -0.4513755 -1.0260854 0.21340616 0.05112917 0.063407324 -0.29214045 -0.45611355
-0.44232082 0.57047653 0.38794816 0.30068967 0.12572472 -0.12281553 0.37707728 0.29300296
0.8673324 0.29079768 -0.2509203 0.16996177 0.35196027 0.07922402 -0.41821522 -0.25902572
-0.58056283 -0.117762335 1.0576043 -0.10789622 -0.43106857 0.4560644 0.4132452 -0.5461475
-0.07136003 0.5152833 0.4871801 0.016649786 0.24221008 0.37882695 0.6142772 0.04084191
0.2807002 0.18289742 -0.34910136 -0.33013907 0.15235803 -0.106620446 -0.3632202 0.1674742
-0.48663557 -0.066504 -0.18518004 0.08878231 0.042024627 0.16319154 -0.40999982 -0.4895809
0.324465 -0.3809701 0.645592 -0.0695728 0.06862044 -0.3278601 -0.084334046 -0.04389634
-0.026266394 0.51557225 0.14247073 -0.39848307 -0.047498263 0.35743496 -0.3200259 -0.33871317
-0.71795475 0.8255762 0.36441508 0.09789848 -0.2645184 0.09001741 0.29829758 -0.40502992
0.3456022 0.59688663 -0.5620613 -0.080561146 -0.3631688 -0.62956536 -0.38573596 -0.3351414
1.1371425 -0.5160032 -0.3941038 0.05207783 -0.049304318 0.0226056 0.10910847 -0.4033279
-0.44384372 0.47879568 -0.19036017 -0.24904212 1.042122 -0.7486308 -0.6527191 -0.2096962
-0.39655656 0.18312208 -0.10775398 -0.3052611 -0.12485967 0.4178805 0.2020615 -0.47616544
0.5169208 -0.7075903 -0.9773535 0.21604341 -0.51267993 0.06756997 -0.32050234 0.008861266
0.48605302 -0.43133724 -0.24794807 0.21516179 -0.316267 0.11317247 -0.19250327 -0.3809408

linear_list.0.bias f4 [32]
00000000: 02cb 193f cbc4 2a3e 5845 cfbe 7fe0 a2be
00000010: f0c3 93be bb5d 033e 428a 13be 5487 983e
00000020: 6709 8ebe 9755 abbe de91 2ebe 1f94 193e
00000030: 2e90 ebbe 3dba 453e 956b bcbd 473f 7bbd
00000040: 9c59 1ebe 27c4 80be 79a0 c13e f8cb 06be
00000050: 104f b0be 7916 d93e abd8 6ebe 8c47 a9be
00000060: 7f51 60be d633 1c3f d5e9 be3e 6794 0a3e
00000070: 290f debe a5c2 603d 488a 803e fcfe 88be
0.6007539 0.16676633 -0.40482593 -0.31811902 -0.28860426 0.12828724 -0.1440821 0.29790747
-0.27741548 -0.33463737 -0.17047831 0.1499791 -0.46008438 0.19309326 -0.09200207 -0.061339643
-0.15463871 -0.25149652 0.37817743 -0.13163745 -0.3443532 0.42399958 -0.2332484 -0.33062398
-0.21906088 0.61016595 0.37287775 0.13533174 -0.4337094 0.054873127 0.251055 -0.26757038

linear_list.1.weight f4 [32, 32]
00000000: 0a9c 04be 3794 1bbe 4e70 833e b8ee 213e
00000010: eb01 8d3e c495 35bd 4f71 52be f8d1 3ebd
00000020: aeb6 063e 865c 523e 3e9c 1dbe eccf 213e
00000030: fa7e b9bd 4d47 84bb 68dc 4cbe af94 c83d
00000040: b3b1 c1bd ba81 463d 5da4 2e3e 822a 0a3e
00000050: e84b 2f3e be24 e7bc cdbe 21be 5331 163e
00000060: 3dce 1cbc 33f5 7dbb 9241 13be 5b41 d4bd
00000070: b3fc 12be a313 ac3d 35e1 f3bc 6526 3f3d
00000080: 76b9 1a3e 9e2e 053e 732b dbbd bfda 01bd
00000090: a121 dc3d 06c6 823d e9b7 cebb 4a02 1f3e
000000a0: ed5e 2a3e cbf3 f5bb b8c6 0c3d 3cfd fa3d
000000b0: c589 5f3d 528d b03d 39e5 943d 3fd2 59bd
000000c0: b4c8 58bd 5195 b2bd 210d c0bd 7232 553d
000000d0: 4843 41bc 8053 483d 9ff9 523e 4342 a33d
000000e0: 606a 013e 0016 a03e 2c3d e6bd b147 213e
000000f0: 1b44 ed3d 9fbb 29be 63e1 25bb 65a2 063e
00000100: 77e8 95be 0698 08be fdcb a73d e721 6ebd
00000110: ea4a 663d b91a 423e 92a3 4c3e 4113 cabd
00000120: 9b4d 713e 7e6f cc3c 59b7 20bd d9c9 13be
00000130: 815a 34bd 8982 11be fd00 55bd 0315 df3d
00000140: 72a2 093e 008e e23d 2211 273e c950 10be
00000150: 297b 8d3e 41a4 78bd d649 02bd f702 d03c
00000160: 2283 5dbd 3891 fb3d b5d5 febd f68b 8ebc
00000170: ea75 643d b9a7 d7bd faee 75be f5ae b4bd
00000180: d3b2 d0bd 6fb1 133d 3f58 013e ca32 60be
00000190: 158c 1a3d 3950 7f3d 5848 46bd 3e21 593c
000001a0: 301f 03be 0ab8 1b3d 9e20 2a3e 81b2 16be
000001b0: 13e9 083e c119 aa3c fd1b 40be ddeb adbc
000001c0: 418a c7bd 2aa9 d1bd 7707 e33d c261 22bd
000001d0: 8e56 693e e33e acbd fa3d 833d 283a 103e
000001e0: 59f0 033d 5916 2f3e 538a 21be 2ad8 153e
000001f0: 4f19 c93d 4dd7 343c c37e fb3d b844 943d
00000200: b6fa 43bd e0e1 aa3d cc81 243e d14c 54bd
00000210: 0948 99bd 9fbb 0b3e b1a9 01be c662 7f3d
00000220: 6fa4 e7bd 925e 423e 9cee d2bd e428 f63d
00000230: 230f 643d 4a7f 0c3c 8adc 1bbe 5b87 db3c
00000240: 09c6 323e de85 32be b501 0dbe d6ad 9e3b
00000250: 8f36 08bd 4dc0 43bd 5826 b73c 0a2b 8e3d
00000260: 7cb1 1dbd 0924 d83d 8bff b53c eaf9 163e
00000270: 6a7d b1bb 9fc7 e13c 324b 183e 5510 82bc
00000280: 775d 13bc 4487 9e3d bbf8 e63b 1ba8 19be
00000290: 0168 c93d f152 4a3d e162 0fbe 87c8 f5bd
000002a0: dcd3 ffbd f893 72bd f101 5c3d 6f67 9abd
000002b0: afc8 18bd 6b34 21be 1344 d0bd 7617 0d3e
000002c0: 5e69 28bd bd46 23bd 1d61 8cbd d92e d0bd
000002d0: 73a7 0d3e 354e 1dbe 79d7 83bc 9ee5 203e
000002e0: 8bfe 8ebd ab71 cebd c2fd 793d dc44 72bd
000002f0: f537 023e 71c4 57bd 46a7 243e cf98 123d
00000300: 88c6 3bbe b8be edbd 70cf 8f3d 8a41 0fbe
00000310: 7977 663e 21d1 13bc 6efb edbd 2535 06be
00000320: 6971 7b3e 3442 8d3d 1da3 693d 7d90 dd3d
00000330: c871 143e df64 e63c 0a3a 1f3d 0c31 1d3e
00000340: 39a0 f8bd afdf 85bb 4a5f 4b3e 3bd9 283e
00000350: 8352 893e c0e0 eabd 1382 39be acde 4ebd
00000360: 22c2 c8bd e17e 0d3d 20fa 70bd ae24 0ebe
00000370: 27b5 81be df05 70bd bd67 30be 51ed 2fbe
00000380: 27e0 f93c a8a6 08be 1d61 e63d ed3c 02be
00000390: 0b8c 153e 84fb 16be bb4d a13d b2c7 ed3b
000003a0: 2480 eb3c daa7 3a3e a1d2 81bd 6a84 58be
000003b0: c6c4 133d f17c 22be 137b b93d faba 19be
000003c0: 5458 0abe 1222 813d 7978 1ebe 761b eebd
000003d0: 1eda 063d 0fb0 e0bd 812a e8bd 6592 323e
000003e0: 84d0 c0bd 90b5 2fbd fb44 1f3c d3d4 b2bd
000003f0: 14b6 2bbe 8464 ba3d 4aab c13c edb2 fb3b
-0.12950149 -0.15193258 0.2567162 0.1581372 0.27540526 -0.04433228 -0.20551036 -0.04658696
0.13155624 0.20543107 -0.15391633 0.15801972 -0.09057422 -0.00403682 -0.20005953 0.09793984
-0.094577216 0.04846356 0.17054887 0.13492778 0.171188 -0.028215762 -0.15795441 0.14667253
-0.009570655 -0.0038750886 -0.14380482 -0.10364028 -0.1435421 0.08402183 -0.029770473 0.046667475
0.1510981 0.13006064 -0.10701647 -0.031702753 0.10748602 0.06385426 -0.006308545 0.15528217
0.16637774 -0.007505869 0.0343692 0.12255332 0.054574747 0.08620705 0.07270283 -0.053179022
-0.05292578 -0.08719886 -0.09377504 0.05205006 -0.011795826 0.048907757 0.20603035 0.07971623
0.12638235 0.31266785 -0.11242136 0.15750004 0.11585256 -0.16575478 -0.0025311343 0.13147886
-0.2927892 -0.13339242 0.081932046 -0.0581378 0.056223787 0.18955506 0.19984272 -0.09866954
0.2356476 0.024955507 -0.039237354 -0.14432468 -0.044031624 -0.14209951 -0.052002896 0.108926795
0.13440874 0.110622406 0.1631513 -0.14093317 0.27633026 -0.06070352 -0.031808697 0.025392039
-0.054080136 0.12283558 -0.12443105 -0.017400723 0.055776514 -0.105300374 -0.24016944 -0.08822433
-0.10190358 0.036057886 0.1263132 -0.21894374 0.03773125 0.062332366 -0.048408836 0.013252554
-0.12804866 0.03801731 0.16614005 -0.14716531 0.13370161 0.020764234 -0.18760677 -0.021230632
-0.09743167 -0.102373436 0.11085408 -0.03964401 0.22786924 -0.08410432 0.064083055 0.14084685
0.032211635 0.17098369 -0.15775423 0.14633241 0.0981928 0.01103766 0.12280037 0.072396696
-0.04784652 0.083438635 0.16065139 -0.05183107 -0.07484443 0.1364579 -0.12662388 0.062350057
-0.1131066 0.18981388 -0.102994174 0.12019518 0.055678498 0.00857527 -0.15220848 0.026797941
0.17458357 -0.17433879 -0.13770182 0.0048425 -0.033255156 -0.047790814 0.02235715 0.06941803
-0.03849934 0.10553748 0.022216579 0.14743772 -0.005416562 0.027561007 0.14872435 -0.015876928
-0.008994452 0.077406436 0.007048694 -0.15005533 0.0983429 0.049395505 -0.14002563 -0.12001138
-0.12491581 -0.059223145 0.05371279 -0.0753926 -0.03730076 -0.15742652 -0.10169234 0.13778481
-0.04111611 -0.039862383 -0.068544604 -0.101651855 0.13833408 -0.15361865 -0.016093956 0.15712592
-0.06982144 -0.10080274 0.061033018 -0.0591477 0.12716658 -0.052677575 0.16079435 0.03579026
-0.18337452 -0.11608642 0.070219874 -0.13989845 0.22506513 -0.009022028 -0.11620222 -0.1310621
0.24554981 0.06897393 0.057040323 0.108185746 0.14496529 0.028124271 0.03887371 0.15350741
-0.12139935 -0.004085503 0.19860569 0.16489117 0.26820764 -0.11468649 -0.18116026 -0.050505325
-0.09802653 0.03454483 -0.058832288 -0.1388118 -0.2533352 -0.05859935 -0.17227073 -0.17180373
0.030502392 -0.13344824 0.11248992 -0.12718554 0.14604203 -0.14744383 0.07876154 0.0072564716
0.028747626 0.18228093 -0.063390024 -0.21144262 0.03607633 -0.15867974 0.09056678 -0.15012732
-0.13510257 0.063053265 -0.15475644 -0.116263315 0.032922857 -0.109710805 -0.11336232 0.17438658
-0.09414771 -0.04289776 0.009721036 -0.08731999 -0.16768676 0.09101203 0.023641247 0.0076812417

linear_list.1.bias f4 [32]
00000000: a4a3 75bd e24c 45be c846 9fbe a6c1 b0bd
00000010: b595 15be 03ac a9bd 2533 e6bc 00ed 1cbd
00000020: 6acf aebc dbca eebd 345b a33d 7517 14be
00000030: 6592 0bbe 3491 393e 7808 ff3c 066e 8e3d
00000040: 0c62 213e a7da b2bd 57b9 b2bd ce91 723d
00000050: bc2f 81bc 2f41 d5bc 0371 783e 093f 33be
00000060: 4e08 613e 53a2 83be b2c8 243e 549f 9bbe
00000070: 6015 12be d73f b63d 6a3d de3d 6840 cbbd
-0.059970513 -0.1926761 -0.3110869 -0.086306855 -0.1460789 -0.08284762 -0.02810056 -0.03831196
-0.021339137 -0.11659785 0.0797638 -0.14462073 -0.13630064 0.18121797 0.031131968 0.06954579
0.15760058 -0.08733111 -0.08726757 0.05922108 -0.015769832 -0.026032059 0.2426186 -0.17504515
0.21975824 -0.2570978 0.16092184 -0.30394995 -0.14265966 0.08898895 0.108515576 -0.09924394

linear_list.2.weight f4 [2, 32]
00000000: 3c6c 45bd 460f 863e 511b ebbe dea7 88be
00000010: 3626 a9bd 3303 d63d 37dd 95be 421a 2d3e
00000020: a3d0 2d3e 2521 1f3e b249 533c 44c2 5c3f
00000030: 6d31 b83e 66d8 253d 9a8d 633e 3b73 5a3e
00000040: 30e8 b63e da9e 5a3e 0bcb 8b3e bd77 e3bd
00000050: 8d85 6a3c 0d55 28be a78f 64bd 17b2 2abf
00000060: 338f d8bc 1dc9 55be 95df 20bd 6b86 0abf
00000070: 7663 be3d a3a9 f8bc d351 59be 41b8 b73e
00000080: 97a6 1bbf 9398 113d f7be 86bd bb54 d83c
00000090: be41 b73d d573 a7bd a471 c0be 0737 bf3d
000000a0: af4f 463d 51f7 a9bd 3e45 2bbf b452 923d
000000b0: 47cc 0a3e 6c3f 173f 9d77 c9be 411a 053e
000000c0: 131c fd3e 8c53 f33d 5086 273e 9ca7 043e
000000d0: 56b5 c1bd dac6 3ebe c5aa 303f cb59 7ebd
000000e0: 24e2 e43e 2712 a0be 4e50 c73e 12cf e0bd
000000f0: b470 b4bb cf1e 0b3f 06bf 853e e1c1 8dbe
-0.048198923 0.26183528 -0.45919278 -0.26690573 -0.08259241 0.10449829 -0.29270336 0.16904548
0.1697412 0.15539987 0.012895988 0.86233926 0.3597521 0.040489577 0.22221985 0.2133302
0.3572402 0.2134966 0.27303347 -0.11106823 0.014314068 -0.16438694 -0.05580106 -0.66677994
-0.02643547 -0.208775 -0.039275724 -0.54111356 0.092963144 -0.030354327 -0.2122262 0.35882762
-0.6080107 0.035545897 -0.065793924 0.02640759 0.08948086 -0.0817639 -0.375867 0.093366675
0.048415836 -0.08299125 -0.6690253 0.071446806 0.13554488 0.5908115 -0.3934907 0.12998296
0.4943548 0.1188117 0.1635983 0.12954563 -0.09458415 -0.18630543 0.69010574 -0.062097352
0.44703782 -0.3126385 0.38928455 -0.109769955 -0.0055065993 0.54343885 0.26122302 -0.2768698

linear_list.2.bias f4 [2]
00000000: 3343 aabd 7125 e33e
-0.083135985 0.44364503
