prep/g0530-235328_DB_new/models/model8000.ckpt (torch, 7653 bytes, 6 tensors)

linear_list.0.weight f4 [32, 4]
00000000: b5b0 0b3d fb8f 02bf c5a5 85bf 0fe6 6a3e
00000010: 0e78 093d abab 3d3d cf42 97be 41bf ebbe
00000020: 29b9 11bf 9ad9 263f 71f8 c03e 7f82 9f3e
00000030: 546e 273e 77f5 bfbd 81f7 d23e 5a40 823e
00000040: bcb8 693f b6cd 9c3e 7fa9 63be 6151 133e
00000050: 3437 bc3e 6329 ab3d 9822 ddbe 2fca 97be
00000060: 4f2d 2ebf e878 38bd d5d0 933f abd3 45be
00000070: 28b3 d3be ee85 f23e 2715 d83e aaeb 0dbf
00000080: 2dbe 1dbe 93db 1d3f 6394 083f 43c1 06b8
00000090: e4bb 423e 5c8b c93e c315 2e3f b1b9 1d3d
000000a0: 3c4e 933e 7bb2 3f3e 2ba1 b4be a32b aabe
000000b0: a367 063e a83a 1cbe 997a cdbe 8aba 163e
000000c0: 5503 febe fea8 42bd e525 49be 2b07 f03d
000000d0: 73c8 1d3d 6a5c 233e 7c38 d2be 66bc fbbe
000000e0: 681c a03e 2109 b9be 6ff8 2f3f cf5d 40bd
000000f0: 98e8 cb3d 98e3 bebe 4f7f 04be d2d0 00bd
00000100: 4633 cabc 6670 033f 2683 f13d e565 d6be
00000110: 5f49 28bd 973c ba3e eda9 a3be 2a88 acbe
00000120: fb02 54bf 7d73 743f af32 ca3e 9e4d fc3d
00000130: e4f2 86be 1fae bb3d 8012 983e aed6 cfbe
00000140: d25f b73e 9683 1c3f e8e6 1dbf fa8b 07be
00000150: 61ed acbe 9687 2ebf 7286 02bf 2b8f 9fbe
00000160: ee60 9a3f 3013 39bf 66da bebe d4d4 c33c
00000170: 53f3 49bd 612f b93c 4374 df3d ff80 cebe
00000180: 7c3f e3be b524 f53e c7ed 42be e604 7fbe
00000190: 6f46 9c3f 2494 66bf 33d3 2abf 674f 79be
000001a0: 1911 cbbe ea97 383e 83c0 eebd f286 9abe
000001b0: b580 f1bd dae0 d63e f4b7 553e 772e fdbe
000001c0: 977f 153f 64e8 76bf f813 9cbf 8844 283e
000001d0: 0407 fdbe 3b25 8b3d e247 b4be 2d7c 61bb
000001e0: fb08 fe3e edac ecbe b2b4 77be 5afe 483e
000001f0: c0ed a1be f8c6 e73d 941f 45be ac0a c3be
0.034104068 -0.51000947 -1.0441214 0.22939323 0.03356176 0.046306293 -0.29543158 -0.46044353
-0.56923157 0.65175784 0.37689546 0.31154248 0.1635068 -0.093729906 0.41204455 0.2543972
0.9129751 0.30625695 -0.22232626 0.14386512 0.36760867 0.08357503 -0.43190455 -0.2964644
-0.68037885 -0.04503718 1.1548105 -0.19319026 -0.41347623 0.47367805 0.42203638 -0.5543772
-0.15404578 0.6166317 0.5335142 -3.212808e-05 0.19016987 0.39364135 0.68001956 0.038507167
0.28770626 0.18720429 -0.3527921 -0.33236417 0.13125472 -0.1525675 -0.40132597 0.14719597
-0.49611917 -0.047524445 -0.19643362 0.11720117 0.03852124 0.15953222 -0.4105872 -0.49167174
0.31271672 -0.36139777 0.68738455 -0.046964463 0.09956473 -0.37283015 -0.1293919 -0.031449147
-0.024682652 0.5134338 0.11792593 -0.41874614 -0.041085597 0.3637435 -0.3196558 -0.33697635
-0.8281705 0.9548872 0.39491794 0.12319492 -0.26357186 0.0916407 0.29701614 -0.40593475
0.35815293 0.61138284 -0.6168046 -0.1323699 -0.33774856 -0.6817564 -0.509864 -0.31163916
1.206083 -0.722949 -0.37276 0.023905195 -0.049304318 0.0226056 0.10910847 -0.4033279
-0.44384372 0.47879568 -0.19036017 -0.24904212 1.2208995 -0.90069795 -0.66728514 -0.24346696
-0.39661482 0.180267 -0.116578124 -0.3018108 -0.11792127 0.41968423 0.20870954 -0.49449512
0.5839781 -0.9644835 -1.2193594 0.16432393 -0.49419415 0.067942105 -0.35211092 -0.003440629
0.49616227 -0.46225682 -0.24190024 0.19628277 -0.316267 0.11317247 -0.19250327 -0.3809408

linear_list.0.bias f4 [32]
00000000: a6be 243f a11b 1f3e 84b4 edbe f5c3 9ebe
00000010: 6706 9bbe ca2f 033e 3ce1 3dbe 810a a03e
00000020: d162 b5be 3c76 b4be 6c83 2bbe 5e0e 0b3e
00000030: 3d99 f1be 9d1d 433e fbab 32bd 9963 89bd
00000040: 8bf4 21be c23d 7dbe 0783 c53e 3803 07be
00000050: ee9e b1be e97c d53e 7149 84be 8c47 a9be
00000060: 7f51 60be eebd 1a3f 610f c23e 3557 0a3e
00000070: 52c4 febe c84d 2e3d f97c 943e fcfe 88be
0.64353406 0.15537883 -0.46426785 -0.31008878 -0.30278322 0.12811199 -0.18542951 0.31258014
-0.35426953 -0.35246456 -0.16749352 0.135797 -0.47187224 0.19054265 -0.043621045 -0.0670845
-0.15815942 -0.2473059 0.38576528 -0.13184822 -0.34691566 0.4169686 -0.2583728 -0.33062398
-0.21906088 0.6044606 0.37902358 0.1350983 -0.49759156 0.042554647 0.29001597 -0.26757038

linear_list.1.weight f4 [32, 32]
00000000: e46d d1bd de9a 1dbe 9d03 863e 4d03 263e
00000010: 94a2 923e b4db 39bd 7752 6bbe da23 56bd
00000020: 8105 0b3e 37f3 5b3e 1470 21be 7191 313e
00000030: cd15 afbd 994c e3bb 3624 52be 4dcb c83d
00000040: 9f38 cbbd 3ea1 413d 6b06 2c3e 822a 0a3e
00000050: 2e53 363e aa05 eabc 8504 29be 5331 163e
00000060: 3dce 1cbc 1dd0 42bc 6350 13be 349f dfbd
00000070: 8cbc 11be 80ac b33d 7831 5cbc 6526 3f3d
00000080: 8543 ff3d 41f2 023e 8d89 e8bd 8421 03bd
00000090: d392 043e a32d 563d e24a 01bd b4a0 263e
000000a0: 859f 4b3e 83aa c33c 2af0 ca3c b396 f23d
000000b0: 3172 813d 3c7a a23d 19a1 ad3d bbf3 40bd
000000c0: 3021 5bbd b66d b5bd 60c0 c7bd 7232 553d
000000d0: 48f4 cdbc b7f1 653d c92d 633e 4342 a33d
000000e0: 606a 013e 9f66 a33e 8b38 e8bd 8f67 223e
000000f0: 468d 1b3e 88c5 24be ae24 b5bc 65a2 063e
00000100: bc45 abbe 2870 04be 5e79 ec3d 8759 95bd
00000110: f07d 2b3d 39df 563e 9cb7 733e c9a5 e2bd
00000120: 9637 8a3e ae86 583d d64f b1bc 8ce9 23be
00000130: 34ca 99bc 718b 04be 50a7 0dbd e90c f03d
00000140: 72d1 0a3e 59df e73d fec1 1e3e 1293 0ebe
00000150: 2904 953e e936 52bd bc0e 5abc f702 d03c
00000160: 2283 5dbd d2f4 1d3e 5998 03be 5374 9fbc
00000170: ea75 643d 3136 b2bd 24f1 96be f5ae b4bd
00000180: 2534 dabd b1b8 1e3d 2c68 033e 936a 79be
00000190: f805 5d3c 008e 9b3d f120 0ebd 9735 183c
000001a0: 15a7 04be ff82 cf3c afb9 353e e9b3 26be
000001b0: 5c72 123e 1719 ec3c c317 48be ddeb adbc
000001c0: 41cc bdbd 0622 cebd 32b0 d13d c261 22bd
000001d0: ec80 733e 8040 acbd 7396 9f3d 283a 103e
000001e0: 59f0 033d c909 453e 648a 21be b54a 193e
000001f0: 4f19 c93d b2af e63c f581 b53d b844 943d
00000200: ba77 59bd ac26 ad3d c0a7 223e 7aaa 6bbd
00000210: 1ad8 7bbd 52a4 123e d55f 02be 2258 803d
00000220: ff94 e4bd 284d 463e f9eb c9bd c71f f33d
00000230: fe0c 643d 4bf9 3c3c ae0b 20be 86b2 d73c
00000240: 1d1b 363e 15d0 31be 43a8 09be d6ad 9e3b
00000250: b473 c1bc dbc0 43bd a7d9 db3c 0a2b 8e3d
00000260: 7cb1 1dbd f23f e93d 8bff b53c bee8 193e
00000270: 7594 03bc d197 e13c 9a7b 163e 5510 82bc
00000280: 863c 0abc 1fee 9d3d 6958 ff3b 6542 19be
00000290: 8a2f d03d fcfa 4a3d e162 0fbe aca7 f6bd
000002a0: dbec fdbd 24ee 6cbd f232 593d 16b9 98bd
000002b0: afc8 18bd 2df4 21be 1344 d0bd 7617 0d3e
000002c0: cd0d 2bbd 6a6e 24bd 976b 86bd d92e d0bd
000002d0: 8a0b 0f3e 354e 1dbe 29a7 82bc 9ee5 203e
000002e0: 8bfe 8ebd b9a6 cdbd c2fd 793d 9236 75bd
000002f0: f537 023e 71c4 57bd 2c18 263e cf98 123d
00000300: a8a9 4bbe 6189 ebbd c352 a33d 7242 1ebe
00000310: 1dbc 5c3e 971d d83a 5baa 02be 0206 11be
00000320: 3a47 873e 8de5 c33d f54f 843d dd23 ca3d
00000330: 9368 213e fec8 083d 2ca8 173d 0c31 1d3e
00000340: 448b fcbd 8bf3 5cbb 2b85 3d3e 3bd9 283e
00000350: b378 8f3e 0632 efbd ef98 33be acde 4ebd
00000360: 22c2 c8bd cb28 373d bc28 72bd 835e 12be
00000370: 27b5 81be d5a4 32bd c30f 49be 51ed 2fbe
00000380: 9552 f13c 22ac 08be a3fc d33d 2c6b 12be
00000390: c21d 2d3e 21e9 11be df27 893d 8bc3 833c
000003a0: f6bd 1a3d 3ac9 403e 7c8d 7fbd f5be 57be
000003b0: e8aa 0f3d cb9d 22be a5f7 a93d faba 19be
000003c0: 17f5 01be 0922 813d 8d7e 1abe 761b eebd
000003d0: 90a3 3b3d b810 e1bd e8c6 e3bd 6592 323e
000003e0: 84d0 c0bd 8031 11bd 432f 1f3c c299 a0bd
000003f0: 14b6 2bbe 89d6 b83d 42b2 863c edb2 fb3b
-0.10226038 -0.15391108 0.26174632 0.16212197 0.28639662 -0.04537554 -0.22980677 -0.052280284
0.13576318 0.21479498 -0.1576541 0.17340638 -0.0854908 -0.0069366214 -0.20521626 0.098044015
-0.09922909 0.047272913 0.16799323 0.13492778 0.17805168 -0.028567154 -0.1650563 0.14667253
-0.009570655 -0.011890438 -0.14386134 -0.109190375 -0.14232081 0.08773136 -0.013439529 0.046667475
0.1246405 0.12787725 -0.11354361 -0.032014385 0.12946634 0.052289616 -0.031565554 0.16272241
0.1988507 0.023885017 0.024772722 0.1184515 0.063206084 0.079334706 0.084779926 -0.04710744
-0.053498447 -0.08858816 -0.097534895 0.05205006 -0.025140896 0.05613872 0.22185434 0.07971623
0.12638235 0.3191423 -0.1133891 0.15859817 0.1519061 -0.16090977 -0.022112217 0.13147886
-0.3345164 -0.12933409 0.115465865 -0.072924666 0.04186815 0.2098359 0.2380051 -0.11066777
0.26995534 0.052862816 -0.021644514 -0.1600706 -0.018773176 -0.12943818 -0.03458339 0.117212124
0.1355646 0.11321897 0.1550369 -0.1392329 0.29104736 -0.051321898 -0.013309177 0.025392039
-0.054080136 0.15425423 -0.12851085 -0.019464647 0.055776514 -0.087017424 -0.2948085 -0.08822433
-0.10654477 0.038750354 0.12832707 -0.24357061 0.013490193 0.07595444 -0.034699384 0.009290121
-0.12954362 0.025331018 0.17746614 -0.16279568 0.14301437 0.028820558 -0.19540314 -0.021230632
-0.09267474 -0.10065083 0.10238685 -0.03964401 0.23779649 -0.0841074 0.07792368 0.14084685
0.032211635 0.19242014 -0.15775448 0.14969905 0.0981928 0.02815995 0.08862678 0.072396696
-0.053092696 0.08454642 0.15884304 -0.057535626 -0.061485387 0.14320496 -0.1273187 0.0626681
-0.11161231 0.1936537 -0.09859461 0.118712954 0.055676453 0.011534045 -0.15629455 0.026330244
0.1778378 -0.17364533 -0.13443093 0.0048425 -0.023614742 -0.047791343 0.026837183 0.06941803
-0.03849934 0.1138915 0.022216579 0.1503019 -0.008031 0.027538212 0.14695588 -0.015876928
-0.0084372815 0.077114336 0.0077925217 -0.14966734 0.10165317 0.049555764 -0.14002563 -0.120436996
-0.12398692 -0.057844296 0.0530271 -0.07457177 -0.03730076 -0.15815802 -0.10169234 0.13778481
-0.04176121 -0.04014436 -0.0656349 -0.101651855 0.13969246 -0.15361865 -0.015948849 0.15712592
-0.06982144 -0.100415654 0.061033018 -0.059866495 0.12716658 -0.052677575 0.16220158 0.03579026
-0.19888937 -0.11500812 0.0797477 -0.15455034 0.21556135 0.0016488311 -0.12760298 -0.14162448
0.2642153 0.09565268 0.06460563 0.09870122 0.15762548 0.033394806 0.037025616 0.15350741
-0.1233125 -0.00337145 0.18507831 0.16489117 0.28021774 -0.11679463 -0.17538808 -0.050505325
-0.09802653 0.044716638 -0.05912088 -0.14293866 -0.2533352 -0.043614227 -0.19634919 -0.17180373
0.029458323 -0.13346913 0.10350921 -0.14298695 0.16905883 -0.14249088 0.06697058 0.016084453
0.037778817 0.18826762 -0.06239079 -0.21068938 0.0350751 -0.15880506 0.082991876 -0.15012732
-0.1269115 0.0630532 -0.15087338 -0.116263315 0.045810282 -0.10989517 -0.11121923 0.17438658
-0.09414771 -0.035447598 0.009715858 -0.07841827 -0.16768676 0.09025294 0.016442422 0.0076812417

linear_list.1.bias f4 [32]
00000000: e565 6fbd 88e7 68be 822b c1be 4521 f7bd
00000010: 2bc2 11be 0209 a4bd 62fe 89bd bc4a 15bd
00000020: 66b5 b6bc 685a f4bd 74ac a23d 2963 97be
00000030: 5ca6 33be e932 443e 208d 913c 9b7a 793d
00000040: 1a80 4a3e dde6 d5bd e21c 00be 16a7 a63d
00000050: a630 81bc fa37 b3bc a2a1 853e 350a 8ebe
00000060: 217a 623e f12e 9bbe d461 283e d962 c6be
00000070: 63ca 10be 8d22 b53d 3f0d 043e 41a4 1ebe
-0.058446784 -0.22744572 -0.37728506 -0.120668925 -0.14234225 -0.080095306 -0.06737973 -0.036448225
-0.022303294 -0.11931306 0.07943049 -0.2956784 -0.1754393 0.19160046 0.017767489 0.06090794
0.1977543 -0.10444424 -0.12511018 0.08137338 -0.015770268 -0.021877278 0.2609988 -0.27742162
0.22116901 -0.3030925 0.16443568 -0.3874729 -0.14139704 0.08844481 0.12895678 -0.15492345

linear_list.2.weight f4 [2, 32]
00000000: 20b9 2ebd 71ac 903e 8e6a 05bf 09be a5be
00000010: 0df9 bfbd f63d d63d 822e 95be 225e 333e
00000020: 03a4 323e 012f 283e ba93 ac3c ceec 703f
00000030: 8a61 e33e 5394 573d c8fa 5e3e a85c 6a3e
00000040: 98fd da3e f2c0 673e 68fc aa3e e6b5 f3bd
00000050: b48b 6a3c ae46 24be 3adb b9bd 3f11 42bf
00000060: a4dc f3bc 41cb 77be 5e6e 9dbd d71c 23bf
00000070: ce8a d33d 137a 05bc 6935 73be cf50 b63e
00000080: 9b0a 27bf 901c 1c3d bfbc 5bbd da3c dc3c
00000090: f9d1 c23d ea4a abbd 8804 ccbe ae8e b53d
000000a0: 74f8 483d 077b b0bd f8f5 34bf 350e 9a3d
000000b0: 8ac9 0b3e 6039 1c3f 9198 d8be a19a 073e
000000c0: 892b 003f 8605 023e 79e6 2c3e 7c5c 043e
000000d0: 56b5 c1bd 16fc 51be 9ac6 353f 4032 60bd
000000e0: 7cac ed3e 5c0e a1be 45e6 d33e bee4 dcbd
000000f0: 743b 8dbb d7c7 123f c1a8 853e 164b 95be
-0.042657018 0.28256562 -0.52115715 -0.32371548 -0.093736745 0.10461037 -0.29137045 0.17516378
0.17445378 0.1642418 0.021066535 0.94111335 0.44410354 0.052631687 0.21775353 0.22886908
0.42771602 0.22632197 0.33395696 -0.11899929 0.014315534 -0.16042587 -0.09075017 -0.75807565
-0.029768296 -0.24198629 -0.076870665 -0.6371588 0.10329209 -0.008146781 -0.23750843 0.35608527
-0.6525056 0.038113177 -0.0536468 0.026884485 0.09512705 -0.08363898 -0.39847207 0.088651046
0.04906507 -0.086172156 -0.7068782 0.07522241 0.136511 0.6102505 -0.423039 0.1324258
0.5006643 0.1269742 0.16884793 0.12925905 -0.09458415 -0.2050632 0.71006167 -0.054735422
0.46420658 -0.31456268 0.4138662 -0.107858166 -0.004310066 0.5733618 0.26105312 -0.2915885

linear_list.2.bias f4 [2]
00000000: 803a e9bd f8df d53e
-0.11388111 0.41772437
