prep/g0530-235328_DB_new/models/model2200.ckpt (torch, 7653 bytes, 6 tensors)

linear_list.0.weight f4 [32, 4]
-0.13327488 -0.48018757 -0.52685195 0.22098857 0.07055861 0.08265776 -0.28698903 -0.4493222
-0.0671613 0.49876088 0.32053128 0.21476342 0.19263335 -0.31655017 0.32273838 0.3097142
0.64736706 0.2596875 -0.22850053 0.3101979 0.35828868 0.08806316 -0.39495334 -0.20306434
-0.17644368 -0.27249977 0.68881947 -0.16062832 -0.45106182 0.45382628 0.46320385 -0.45615196
0.1335169 0.4688746 0.30443418 0.12200134 0.2690486 0.37613985 0.5036473 0.079286434
0.27526474 0.17726144 -0.34559864 -0.33811137 0.19419546 -0.06499993 -0.19793038 0.26150402
-0.46545652 -0.10000706 -0.24308378 0.060767766 0.04282101 0.16412008 -0.41204056 -0.48723307
0.305199 -0.4391408 0.5282205 0.04255489 0.069663726 -0.2905217 -0.017604524 0.00444735
-0.019139184 0.4925589 0.22940062 -0.3580874 -0.04751602 0.35741702 -0.3200286 -0.33871862
-0.4652535 0.551758 0.2838933 -0.007356966 -0.27893975 0.076235175 0.305824 -0.3952363
0.35847947 0.5003401 -0.3951109 0.028651327 -0.42439702 -0.5555853 -0.13449141 -0.14936997
0.74768454 -0.19836332 -0.37594688 0.2773598 -0.049304318 0.0226056 0.10910847 -0.4033279
-0.44384372 0.47879568 -0.19036017 -0.24904212 0.6433136 -0.21545333 -0.4699355 -0.056346696
-0.43463138 0.11136512 -0.1248494 -0.26467764 -0.12953621 0.42407566 0.1973957 -0.42311987
0.4988937 -0.22894034 -0.4875135 0.38035312 -0.547004 0.051989563 -0.21653126 0.13973407
0.414358 -0.36549813 -0.107968666 0.124060564 -0.316267 0.11317247 -0.19250327 -0.3809408
00000000: 3679 08be 25db f5be c5df 06bf d44a 623e
00000010: 0881 903d 7948 a93d 3af0 92be 8f0d e6be
00000020: dd8b 89bd 965d ff3e ad1c a43e f1ea 5b3e
00000030: ad41 453e dd12 a2be f73d a53e dc92 9e3e
00000040: d9b9 253f c3f5 843e 0bfc 69be 42d2 9e3e
00000050: 9d71 b73e 755a b43d 5337 cabe 19f0 4fbe
00000060: a7ad 34be 1785 8bbe 7956 303f c07b 24be
00000070: 93f1 e6be eb5b e83e 0e29 ed3e c08c e9be
00000080: a7b8 083e 5510 f03e ccde 9b3e d7db f93d
00000090: bdc0 893e 6795 c03e 08ef 003f ed60 a23d
000000a0: 80ef 8c3e 0684 353e 4ef2 b0be ef1c adbe
000000b0: 2ddb 463e af1e 85bd 43ae 4abe dbe3 853e
000000c0: 5150 eebe 80d0 ccbd f4ea 78be 9fe7 783d
000000d0: 1565 2f3d 180f 283e fbf6 d2be 9d76 f9be
000000e0: 0b43 9c3e 10d7 e0be 7539 073f 094e 2e3d
000000f0: dbab 8e3d 43bf 94be 5d37 90bc 13bb 913b
00000100: c7c9 9cbc ae30 fc3e ffe7 6a3e 3b57 b7be
00000110: 28a0 42bd 5dff b63e cada a3be 876c adbe
00000120: b535 eebe 0340 0d3f 765a 913e b412 f1bb
00000130: 31d1 8ebe 3021 9c3d f794 9c3e 6a5c cabe
00000140: 9f8a b73e 4a16 003f fa4b cabe 30b6 ea3c
00000150: 914a d9be d73a 0ebf 1eb8 09be 71f4 18be
00000160: 4168 3f3f c11f 4bbe 1c7c c0be 1b02 8e3e
00000170: 53f3 49bd 612f b93c 4374 df3d ff80 cebe
00000180: 7c3f e3be b524 f53e c7ed 42be e604 7fbe
00000190: 33b0 243f cc9f 5cbe 639b f0be cbcb 66bd
000001a0: 0188 debe 6513 e43d 0bb1 ffbd d483 87be
000001b0: 24a5 04be 7220 d93e 1922 4a3e 2ba3 d8be
000001c0: ff6e ff3e 566f 6abe 5f9b f9be a5bd c23e
000001d0: 7408 0cbf 02f3 543d 5fba 5dbe 7316 0f3e
000001e0: bb26 d43e 9222 bbbe ad1e ddbd 7713 fe3d
000001f0: c0ed a1be f8c6 e73d 941f 45be ac0a c3be

linear_list.0.bias f4 [32]
0.44864812 0.18015611 -0.39960158 -0.15185449 -0.18474942 0.14221519 0.055330876 0.3233187
-0.16484834 -0.29482892 -0.1753673 0.27621654 -0.42896482 0.19411817 -0.09992142 -0.09003586
-0.1530985 -0.25150788 0.4276511 -0.12378348 -0.34043643 0.40869105 -0.18149978 -0.33062398
-0.21906088 0.5146509 0.3726165 0.14505701 -0.41001236 0.09561559 0.24539222 -0.26757038
00000000: 35b5 e53e d87a 383e 9498 ccbe be7f 1bbe
00000010: f42e 3dbe dca0 113e a1a2 623d 078a a53e
00000020: 01ce 28be d1f3 96be 7c93 33be 416c 8d3e
00000030: 47a1 dbbe eac6 463e 9aa3 ccbd b964 b8bd
00000040: dac5 1cbe a4c5 80be 16f5 da3e 3182 fdbd
00000050: af4d aebe f43f d13e 14db 39be 8c47 a9be
00000060: 7f51 60be 29c0 033f 97c7 be3e d389 143e
00000070: 24ed d1be 1bd2 c33d 1948 7b3e fcfe 88be

linear_list.1.weight f4 [32, 32]
-0.16817096 -0.14646098 0.15620047 0.1205911 0.25275332 -0.03781676 -0.19663538 -0.03337173
0.11236095 0.19546321 -0.14337592 0.13237765 -0.10548514 0.0011014532 -0.13632184 0.0979716
-0.08295602 0.04845894 0.108636044 0.13492778 0.1463441 -0.033220295 -0.11148595 0.14667253
-0.009570655 0.05983457 -0.14498089 -0.090051115 -0.1277744 0.04695532 -0.015839389 0.046667475
0.083416045 0.13143463 -0.044749163 -0.047619868 0.06995189 0.09656526 0.0015995417 0.14772798
0.1148675 -0.073340334 0.04070893 0.121925846 0.038406067 0.08876618 0.012231266 -0.0727098
-0.049185228 -0.08719104 -0.042000674 0.05205006 0.061959773 -0.029326828 0.14000861 0.07971623
0.12638235 0.26271468 -0.111624606 0.16018304 0.024742637 -0.20035742 -0.016362933 0.13147886
-0.07232784 -0.13460027 0.05259459 0.04185754 0.07071804 0.14440975 0.16116916 -0.09920476
0.195807 -0.008816022 -0.047677703 -0.036622144 -0.032014187 -0.14541233 -0.031201078 0.099121794
0.13156818 0.110608675 0.16882883 -0.14433038 0.17360577 -0.01692074 -0.033703856 0.025392039
-0.054080136 0.07319124 -0.10200806 -0.017773647 0.06236959 -0.04531648 -0.12430099 -0.08822433
-0.047498442 0.03453854 0.16175826 -0.1447342 0.030373812 0.03557773 -0.06491213 0.018571127
-0.13702804 0.024290884 0.15971777 -0.105523795 0.13112655 0.018092692 -0.1599615 -0.021230632
-0.10266483 -0.10238097 0.12633932 -0.03964401 0.17030004 -0.0840213 0.041330047 0.14084685
0.032211635 0.12927885 -0.15775938 0.14291939 0.10156735 0.014321265 0.16481492 0.072396696
-0.03660852 0.08173027 0.16057208 -0.036675215 -0.09765865 0.12573616 -0.1247796 0.05480063
-0.12812412 0.17258002 -0.10750066 0.12462769 0.05567878 0.0065469393 -0.14638795 0.027203644
0.1629854 -0.17434052 -0.15162016 0.0048425 -0.050804816 -0.047784172 0.016939554 0.06941803
-0.03849934 0.094778866 0.022216579 0.13663033 0.0010641952 0.027751643 0.15672877 -0.015876928
-0.008589712 0.077406436 0.008591667 -0.14984381 0.10526943 0.050882597 -0.14002563 -0.12001138
-0.12218082 -0.056092713 0.053820346 -0.0733256 -0.03730076 -0.15741903 -0.10169234 0.13778481
-0.040706247 -0.039862383 -0.06427418 -0.101651855 0.142473 -0.15361865 -0.013705152 0.15712592
-0.06982144 -0.09833709 0.061033018 -0.058963146 0.12716658 -0.052677575 0.16315174 0.03579026
-0.10667154 -0.1140032 0.018961983 -0.10387295 0.20684133 -0.038930297 -0.14820306 -0.11519511
0.21221104 0.02287123 0.057188522 0.13433306 0.13520126 0.028744122 0.10822618 0.15351662
-0.11797062 -0.0040961574 0.14472081 0.16489117 0.17582254 -0.1130136 -0.17737298 -0.050505325
-0.09802653 0.025662838 -0.05890188 -0.1329636 -0.2472861 -0.057860646 -0.13286746 -0.17180373
0.038682755 -0.13346007 0.14852685 -0.10868744 0.11787947 -0.14940439 0.106503256 -0.0058354083
0.0053624604 0.1406882 -0.06374741 -0.19067825 0.037460666 -0.15871747 0.05954726 -0.15009217
-0.15106165 0.063053265 -0.113484934 -0.11627199 0.033086337 -0.102625534 -0.14044915 0.17438658
-0.09414771 -0.06704257 0.01049234 -0.101425536 -0.16741712 0.10669232 0.02126484 0.0076812417
00000000: 0235 2cbe def9 15be 04f3 1f3e 77f8 f63d
00000010: e268 813e bfe5 1abd c95a 49be ccb0 08bd
00000020: 7f1d e63d 8227 483e 23d1 12be 028e 073e
00000030: 9808 d8bd a35e 903a f497 0bbe 56a5 c83d
00000040: d9e4 a9bd e27c 463d 937c de3d 822a 0a3e
00000050: 3adb 153e 0112 08bd bf52 e4bd 5331 163e
00000060: 3dce 1cbc 1815 753d df75 14be b86c b8bd
00000070: 4bd7 02be 3954 403d 9bc1 81bc 6526 3f3d
00000080: 08d6 aa3d cd96 063e e64a 37bd 0d0d 43bd
00000090: f042 8f3d 02c4 c53d b7a7 d13a 0146 173e
000000a0: a73f eb3d 7533 96bd 68be 263d 42b4 f93d
000000b0: ae4f 1d3d 0bcb b53d a665 483c e0e8 94bd
000000c0: 7376 49bd 3791 b2bd e608 2cbd 7232 553d
000000d0: 88c9 7d3d d13e f0bc 6b5e 0f3e 4342 a33d
000000e0: 606a 013e 8a82 863e 719b e4bd 0607 243e
000000f0: 12b1 ca3c 7f2a 4dbe 8f0b 86bc 65a2 063e
00000100: 9e20 94bd a7d4 09be 6d6d 573d d072 2b3d
00000110: 9fd4 903d 26e0 133e 8709 253e dd2b cbbd
00000120: a181 483e 1471 10bc b249 43bd 1a01 16bd
00000130: 4f21 03bd f8e6 14be 6799 ffbc 5e00 cb3d
00000140: cfb9 063e cd86 e23d 77e1 2c3e 58cb 13be
00000150: b6c5 313e 5d9d 8abc 0e0d 0abd f702 d03c
00000160: 2283 5dbd 4ae5 953d 9ae9 d0bd 0a9a 91bc
00000170: 4177 7f3d c69d 39bd 8491 febd f5ae b4bd
00000180: ba8d 42bd 4978 0d3d f5a3 253e 3435 14be
00000190: 80d2 f83c f4b9 113d a7f0 84bd 7a22 983c
000001a0: 1451 0cbe adfd c63c 0e8d 233e dc1c d8bd
000001b0: 0a46 063e 2037 943c f3cc 23be ddeb adbc
000001c0: f041 d2bd 1dad d1bd 185f 013e c261 22bd
000001d0: 2263 2e3e 5c13 acbd b249 293d 283a 103e
000001e0: 59f0 033d ad61 043e ad8b 21be 7659 123e
000001f0: 8b02 d03d bda3 6a3c 3ec5 283e b844 943d
00000200: d1f2 15bd 3362 a73d 026d 243e c038 16bd
00000210: 4201 c8bd fbc0 003e 728c ffbd a076 603d
00000220: f832 03be d1b8 303e 4e29 dcbd cd3c ff3d
00000230: 6f0f 643d b587 d63b b9e6 15be 2dda de3c
00000240: a5e5 263e 5286 32be 5142 1bbe d6ad 9e3b
00000250: b618 50bd 56b9 43bd d2c4 8a3c 0a2b 8e3d
00000260: 7cb1 1dbd 6c1b c23d 8bff b53c d2e8 0b3e
00000270: 777c 8b3a 6a57 e33c 827d 203e 5510 82bc
00000280: ddbb 0cbc 4487 9e3d 10c4 0c3c a870 19be
00000290: 8097 d73d 456a 503d e162 0fbe 87c8 f5bd
000002a0: f039 fabd 79c1 65bd b972 5c3d bb2b 96bd
000002b0: afc8 18bd 7432 21be 1344 d0bd 7617 0d3e
000002c0: 98bb 26bd bd46 23bd 2ea2 83bd d92e d0bd
000002d0: 71e4 113e 354e 1dbe 938b 60bc 9ee5 203e
000002e0: 8bfe 8ebd f564 c9bd c2fd 793d 5783 71bd
000002f0: f537 023e 71c4 57bd 4011 273e cf98 123d
00000300: 9c76 dabd 827a e9bd 2956 9b3c 57bb d4bd
00000310: 37ce 533e 6075 1fbd 8bc2 17be 6aeb ebbd
00000320: da4d 593e 725c bb3c 833e 6a3d 9b8e 093e
00000330: 3372 0a3e cb78 eb3c b0a5 dd3d 7633 1d3e
00000340: 959a f1bd 0f39 86bb b131 143e 3bd9 283e
00000350: d30a 343e ad73 e7bd 43a1 35be acde 4ebd
00000360: 22c2 c8bd df3a d23c 1943 71bd 9c27 08be
00000370: 9138 7dbe 49ff 6cbd 680e 08be 51ed 2fbe
00000380: cf71 1e3d c2a9 08be 6c17 183e 8597 debd
00000390: cb6a f13d 77fd 18be 611e da3d f436 bfbb
000003a0: 94b7 af3b 9110 103e 018e 82bd 2941 43be
000003b0: 5b70 193d d586 22be d4e7 733d c3b1 19be
000003c0: e8af 1abe 1222 813d ca6a e8bd 0220 eebd
000003d0: 8a85 073d 562d d2bd e7d1 0fbe 6592 323e
000003e0: 84d0 c0bd 9d4d 89bd 10e8 2b3c 31b8 cfbd
000003f0: 656f 2bbe 8181 da3d 9a33 ae3c edb2 fb3b

linear_list.1.bias f4 [32]
-0.040778674 -0.16397917 -0.13566469 -0.04196082 -0.1539858 -0.07777192 -0.00011633826 -0.018934958
-0.015773173 -0.09430837 0.13298802 0.06697018 -0.08603155 0.1271478 0.079897225 0.08460423
0.1309878 -0.062201947 -0.06208797 0.05554175 -0.013152784 -0.07511459 0.122138575 0.09841417
0.1538553 -0.14530641 0.08672412 -0.12454178 -0.14733078 -0.026296558 -0.016540805 0.0007212234
00000000: 8a07 27bd 28ea 27be afeb 0abe 1cdf 2bbd
00000010: 74ae 1dbe e246 9fbd a1fa f3b8 7c1d 9bbc
00000020: be36 81bc bf24 c1bd 032e 083e a927 893d
00000030: 4f31 b0bd 0833 023e 28a1 a33d fc44 ad3d
00000040: aa21 063e 78c7 7ebd f54f 7ebd bf7f 633d
00000050: c67e 57bc aed5 99bd ca23 fa3d 5e8d c93d
00000060: 3e8c 1d3e 34cb 14be 6a9c b13d c30f ffbd
00000070: e1dd 16be e16b d7bc 9580 87bc 7c10 3d3a

linear_list.2.weight f4 [2, 32]
-0.08635374 0.16280907 -0.1334914 -0.0490522 -0.07034208 0.10500194 -0.22243628 0.099389695
0.17110921 0.0694496 -0.010624501 0.46705976 0.15885437 -0.01032904 0.15503201 0.13565235
0.028814506 0.14317846 0.12790763 -0.107039355 0.014307118 -0.0972037 -0.083386056 -0.39204702
-0.01620337 -0.1805201 0.03770363 -0.2902778 0.09030757 0.0267791 -0.106604815 0.3246135
-0.37123626 0.029307555 -0.08964339 0.018469714 0.07556047 -0.08175643 -0.29717204 0.10911377
0.046877276 -0.062273934 -0.55145305 0.12001745 0.09942974 0.4408958 -0.31431112 0.12231881
0.43369856 0.10446558 0.14877293 0.12575027 -0.094653144 -0.1447068 0.55430996 -0.1152898
0.34540796 -0.24121659 0.241853 -0.12440803 -0.007300359 0.41409492 0.20869337 -0.25001654
00000000: 3bda b0bd 6cb7 263e f8b1 08be f6ea 48bd
00000010: 820f 90bd 420b d73d 56c6 63be d38c cb3d
00000020: 4137 2f3e 983b 8e3d 6312 2ebc 7522 ef3e
00000030: b8aa 223e 223b 29bc b6c0 1e3e 73e8 0a3e
00000040: 660c ec3c 609d 123e 38fa 023e 7337 dbbd
00000050: 6768 6a3c bc12 c7bd 4fc6 aabd 63ba c8be
00000060: eebc 84bc 43da 38be 1f6f 1a3d 4b9f 94be
00000070: 2df3 b83d d85f db3c a053 dabd be33 a63e
00000080: ae12 bebe 6616 f03c f496 b7bd cc4d 973c
00000090: 73bf 9a3d ea6f a7bd ef26 98be 0a77 df3d
000000a0: 6302 403d f412 7fbd 072c 0dbf b5cb f53d
000000b0: d2a1 cb3d 18bd e13e 63ed a0be 4982 fa3d
000000c0: bd0d de3e 0df2 d53d ee57 183e aec4 003e
000000d0: 82d9 c1bd 052e 14be 42e7 0d3f 0f1d ecbd
000000e0: 50d9 b03e 7b01 77be 50a8 773e a3c9 febd
000000f0: da37 efbb 4004 d43e b7b3 553e 2b02 80be

linear_list.2.bias f4 [2]
0.019075183 0.29891676
00000000: 8f43 9c3c 9e0b 993e
