prep/g0530-235328_DB_new/models/model4800.ckpt (torch, 7653 bytes, 6 tensors)

linear_list.0.weight f4 [32, 4]
000000 72 69 a3 bd d8 6d cd be d2 88 4a bf 0a 6e 0c 3e
       -0.079790965 -0.40122867 -0.7911502 0.13713852
000010 20 1a 90 3d 7f e2 a8 3d 0d 46 92 be 9c c5 e6 be
       0.07036233 0.08246326 -0.2856907 -0.4507264
000020 4d f2 8d be 76 ba ef 3e e7 18 c5 3e d5 db 89 3e
       -0.27723923 0.46821946 0.3849556 0.2692553
000030 d3 fd 09 3e 27 97 5a be 58 4a bd 3e 03 cd 90 3e
       0.13475733 -0.21346723 0.36970782 0.28281412
000040 c0 3d 42 3f 6b 60 8b 3e 53 56 97 be e9 a9 73 3e
       0.75875473 0.27222 -0.29558048 0.23795284
000050 b3 dc ad 3e 60 04 80 3d 59 a5 cd be 64 b8 81 be
       0.33957443 0.062508345 -0.40165213 -0.2533599
000060 82 b2 bd be e2 39 76 be 17 7d 68 3f 07 a7 0a be
       -0.37050253 -0.24045518 0.9081587 -0.13540278
000070 e6 f2 e1 be 15 f3 e7 3e 26 08 df 3e a9 fb 02 bf
       -0.4413063 0.45302644 0.43560904 -0.5116525
000080 ca 83 af 3d 03 fa f5 3e b9 38 b7 3e 85 77 73 3d
       0.08570059 0.48042306 0.35785463 0.059440155
000090 36 5b 86 3e 3f f0 ba 3e ae 7c 07 3f 61 f2 6b 3d
       0.26241463 0.36511418 0.5292462 0.057604197
0000a0 a2 bd 87 3e cc 25 2b 3e 7e 0b b4 be dc 19 ad be
       0.26511866 0.16713637 -0.35165018 -0.33808792
0000b0 e1 6d 2d 3e 15 9c 7a bd 89 0b 90 be 9d 0a 46 3e
       0.16936447 -0.061184008 -0.281338 0.19339986
0000c0 fd 38 eb be c0 b0 9f bd ad 23 5f be b3 a6 0b 3d
       -0.45941916 -0.07797384 -0.21790953 0.034094524
0000d0 d3 a9 3b 3d 1e 25 2b 3e 36 eb d1 be d1 77 f9 be
       0.045816254 0.16713378 -0.40999764 -0.48724225
0000e0 1c a1 9e 3e 04 85 d2 be 08 e3 18 3f 5d 52 b4 bc
       0.30982292 -0.41117108 0.5972142 -0.02201193
0000f0 2d fc 73 3d 28 a2 8e be a8 ca 0e bd 78 87 8f bd
       0.059566665 -0.2785809 -0.034861237 -0.070082605
000100 07 c2 ef bc fc 4e ff 3e 01 c5 49 3e fd 12 c7 be
       -0.029267324 0.49864948 0.19704057 -0.38881674
000110 5d 9f 42 bd 5d ff b6 3e ca da a3 be 87 6c ad be
       -0.047515262 0.35741702 -0.3200286 -0.33871862
000120 7f 1d 16 bf 4b 27 2d 3f ef ef ae 3e cf ef 3f bc
       -0.5863876 0.6763808 0.3416743 -0.01171489
000130 55 25 88 be 6d 0b b4 3d c9 7c 99 3e 8d a4 ce be
       -0.26590982 0.08791242 0.29978016 -0.40359917
000140 e5 ea b3 3e 1a cc 09 3f 4f 8d e1 be c8 3d 68 bc
       0.35140148 0.5382706 -0.44053122 -0.014174886
000150 f1 3e c7 be e7 ee 0b bf fc 94 62 be 0d 91 93 be
       -0.38915208 -0.5466141 -0.22127146 -0.28821602
000160 1a 00 71 3f f0 8b a5 be 31 e4 ea be b1 37 17 3e
       0.9414078 -0.32333326 -0.4587722 0.14767338
000170 53 f3 49 bd 61 2f b9 3c 43 74 df 3d ff 80 ce be
       -0.049304318 0.0226056 0.10910847 -0.4033279
000180 7c 3f e3 be b5 24 f5 3e c7 ed 42 be e6 04 7f be
       -0.44384372 0.47879568 -0.19036017 -0.24904212
000190 b6 64 4b 3f 19 94 f1 be 4b 29 25 bf 5a e0 0b be
       0.7945055 -0.47183302 -0.64516133 -0.13659802
0001a0 fe b8 d5 be df dc 24 3e c0 0a c6 bd b3 aa 92 be
       -0.417427 0.1609988 -0.09670019 -0.28645858
0001b0 d6 3f 0c be 7c c4 d1 3e 37 b2 47 3e 68 3d ee be
       -0.13696226 0.40970218 0.19501577 -0.46531224
0001c0 93 75 08 3f dc 99 b4 be 30 e8 37 bf c7 7d 85 3e
       0.53304404 -0.35273635 -0.71838665 0.26072523
0001d0 bc ee 09 bf 7c 32 ac 3d f3 07 85 be 36 0c 34 3d
       -0.53879905 0.08408067 -0.25982627 0.043956958
0001e0 01 a7 ed 3e fd fe c7 be 40 51 53 be 91 fb 14 3e
       0.46416476 -0.39061728 -0.20636463 0.1454909
0001f0 c0 ed a1 be f8 c6 e7 3d 94 1f 45 be ac 0a c3 be
       -0.316267 0.11317247 -0.19250327 -0.3809408

linear_list.0.bias f4 [32]
000000 60 ab 01 3f 11 d8 37 3e 7e 45 c8 be 9f 21 8c be
       0.5065212 0.17953517 -0.39115518 -0.273694
000010 7a 26 7c be 8e eb f7 3d 39 35 46 bd 88 a2 9d 3e
       -0.24624053 0.12105475 -0.0483906 0.30788064
000020 8d dd 63 be 08 30 a6 be 60 af 39 be 12 29 48 3e
       -0.22252484 -0.3245852 -0.18133307 0.19546917
000030 72 24 ed be 60 95 48 3e 95 aa 00 be e6 c2 9a bd
       -0.46316868 0.19588232 -0.12565072 -0.07556705
000040 de 9e 22 be a4 c5 80 be e1 c9 c4 3e e8 5c 06 be
       -0.15880916 -0.25150788 0.3843527 -0.13121378
000050 cf 24 b0 be 87 d5 d7 3e 51 d3 4c be 8c 47 a9 be
       -0.34403083 0.42155096 -0.20002486 -0.33062398
000060 7f 51 60 be 46 ca 13 3f a8 57 c1 3e a0 7e 06 3e
       -0.21906088 0.5773052 0.3776219 0.13134241
000070 89 de da be ea 2e 84 3d 3f a7 72 3e fc fe 88 be
       -0.42747906 0.06454261 0.23696612 -0.26757038

linear_list.1.weight f4 [32, 32]
000000 4e 43 2c be 4c c5 19 be db e8 5d 3e 30 b3 13 3e
       -0.1682255 -0.15016669 0.21670859 0.14423823
000010 36 9b 88 3e ae c6 27 bd 39 e5 42 be 16 ff 30 bd
       0.26680917 -0.04096096 -0.19032754 -0.04321202
000020 11 e6 05 3e 2d 21 58 3e 7f 2b 19 be e5 c8 10 3e
       0.13076045 0.21106406 -0.14957999 0.14139135
000030 55 18 d2 bd e1 db fc ba 92 96 2f be 81 8c c8 3d
       -0.10258547 -0.0019291603 -0.17147282 0.09792424
000040 cb 3d bb bd e2 7c 46 3d 9d 36 10 3e 82 2a 0a 3e
       -0.091426454 0.04845894 0.14083333 0.13492778
000050 b5 3a 28 3e 05 dc 01 bd a3 54 07 be 53 31 16 3e
       0.16428645 -0.031703968 -0.1321588 0.14667253
000060 3d ce 1c bc 64 46 c6 3c 10 9f 13 be 43 b1 cb bd
       -0.009570655 0.024203487 -0.14416146 -0.09945919
000070 3a aa 0c be ca 22 78 3d b7 60 12 bd 65 26 3f 3d
       -0.13736811 0.060580052 -0.035736766 0.046667475
000080 5b 93 09 3e c4 ff 05 3e 29 02 98 bd 06 d9 02 bd
       0.13435118 0.13085848 -0.07422287 -0.03194525
000090 a8 1a ae 3d 1d e1 ad 3d 19 5d 82 bc cb ba 17 3e
       0.08501178 0.084902026 -0.015913533 0.1481735
0000a0 28 21 01 3e c2 33 61 bd 8e 05 21 3d a2 97 08 3e
       0.12610304 -0.054981 0.039311938 0.13339093
0000b0 5e e8 21 3d 66 aa b4 3d ce c7 24 3d fa c1 8a bd
       0.039528243 0.088215634 0.04022961 -0.06775279
0000c0 47 4c 53 bd 37 91 b2 bd ad e8 89 bd 72 32 55 3d
       -0.051586416 -0.08719104 -0.067338325 0.05205006
0000d0 f4 ff de 3c a9 89 33 3b fb 1d 33 3e 43 42 a3 3d
       0.027221657 0.0027395284 0.17491905 0.07971623
0000e0 60 6a 01 3e 6a 1a 99 3e 7a 9c e4 bd 19 ff 20 3e
       0.12638235 0.29902965 -0.11162658 0.15722312
0000f0 c3 e0 6a 3d 2e 87 3b be b2 98 80 3c 65 a2 06 3e
       0.057343256 -0.18313286 0.01569781 0.13147886
000100 f2 2b 2d be 8e c6 09 be b0 91 2b 3d 44 ed 10 ba
       -0.16911295 -0.13454649 0.041886985 -0.00055285194
000110 90 37 6c 3d ad fd 1f 3e c0 ca 46 3e 44 a3 ba bd
       0.057670176 0.15624113 0.1941328 -0.09113172
000120 d0 42 41 3e 10 36 9f bb a6 3c 41 bd 7f 47 d6 bd
       0.18873143 -0.0048587397 -0.04717698 -0.104628555
000130 8a 2b 32 bd 80 c7 14 be ab d1 16 bd 71 d8 d4 3d
       -0.043498553 -0.14529228 -0.03682105 0.103928454
000140 63 d5 07 3e cd 86 e2 3d d8 4d 1c 3e 36 32 12 be
       0.13264994 0.110608675 0.1526407 -0.14276966
000150 d8 67 59 3e 55 15 f8 bc 8f d7 2f bd f7 02 d0 3c
       0.2123102 -0.03028361 -0.042930182 0.025392039
000160 22 83 5d bd 08 7d 9e 3d 58 cb e8 bd 32 4b 85 bc
       -0.054080136 0.077386916 -0.1136691 -0.016271207
000170 11 c9 64 3d 6b 7e c3 bd 54 97 27 be f5 ae b4 bd
       0.055855814 -0.09545597 -0.16366321 -0.08822433
000180 18 24 8c bd d6 11 10 3d f5 4c 19 3e e5 9c 2f be
       -0.06842822 0.03517326 0.14970763 -0.17149694
000190 51 31 16 3d a8 13 2f 3d cc 3b 83 bd b2 a3 9b 3c
       0.036668126 0.042743355 -0.0640789 0.018998954
0001a0 ba 5d 08 be 7e de 01 3d 2f e1 24 3e 18 42 f5 bd
       -0.13317004 0.031706326 0.16101526 -0.11975497
0001b0 2c 1d 06 3e 01 d4 98 3c 94 13 30 be dd eb ad bc
       0.13097066 0.018655779 -0.17194968 -0.021230632
0001c0 71 fd cd bd 1d ad d1 bd 0f fd fc 3d c2 61 22 bd
       -0.10058106 -0.10238097 0.123529546 -0.03964401
0001d0 f4 c4 43 3e 79 33 ac bd c0 71 3d 3d 28 3a 10 3e
       0.191181 -0.08408255 0.04625106 0.14084685
0001e0 59 f0 03 3d 4b 19 11 3e f4 8a 21 be bf cd 14 3e
       0.032211635 0.14169805 -0.15775663 0.14531611
0001f0 0c 46 c9 3d e2 57 67 3b 68 34 21 3e b8 44 94 3d
       0.098278135 0.0035300185 0.15742648 0.072396696
000200 ce 23 1c bd 18 a6 a9 3d 85 0f 25 3e e9 8e 2b bd
       -0.038120084 0.08283633 0.16119201 -0.041884337
000210 27 8e ba bd 2b 7f 05 3e 5b e0 ff bd a5 0f 70 3d
       -0.09109145 0.13036792 -0.12493964 0.05860867
000220 93 72 fb bd 2d e0 35 3e cc e4 d7 bd 42 ce fe 3d
       -0.12277713 0.17761298 -0.105416864 0.12441684
000230 6f 0f 64 3d d5 85 f5 3b 2e 36 19 be 2d da de 3c
       0.05567878 0.0074927607 -0.14962074 0.027203644
000240 e9 10 2c 3e 52 86 32 be 1a 4b 16 be d6 ad 9e 3b
       0.16803326 -0.17434052 -0.14677086 0.0048425
000250 5d 5a 34 bd c2 bc 43 bd b6 c1 9b 3c 0a 2b 8e 3d
       -0.04403149 -0.047787435 0.019013267 0.06941803
000260 7c b1 1d bd 94 12 cd 3d 8b ff b5 3c 62 ff 10 3e
       -0.03849934 0.10013309 0.022216579 0.14159921
000270 12 7a 23 39 e3 f4 e2 3c bc 54 1f 3e 55 10 82 bc
       0.00015590366 0.027704662 0.15559667 -0.015876928
000280 dd bb 0c bc 44 87 9e 3d 10 c4 0c 3c a8 70 19 be
       -0.008589712 0.077406436 0.008591667 -0.14984381
000290 80 97 d7 3d 45 6a 50 3d e1 62 0f be 87 c8 f5 bd
       0.10526943 0.050882597 -0.14002563 -0.12001138
0002a0 f0 39 fa bd 79 c1 65 bd b9 72 5c 3d bb 2b 96 bd
       -0.12218082 -0.056092713 0.053820346 -0.0733256
0002b0 af c8 18 bd 74 32 21 be 13 44 d0 bd 76 17 0d 3e
       -0.03730076 -0.15741903 -0.10169234 0.13778481
0002c0 98 bb 26 bd bd 46 23 bd 2e a2 83 bd d9 2e d0 bd
       -0.040706247 -0.039862383 -0.06427418 -0.101651855
0002d0 71 e4 11 3e 35 4e 1d be 93 8b 60 bc 9e e5 20 3e
       0.142473 -0.15361865 -0.013705152 0.15712592
0002e0 8b fe 8e bd f5 64 c9 bd c2 fd 79 3d 57 83 71 bd
       -0.06982144 -0.09833709 0.061033018 -0.058963146
0002f0 f5 37 02 3e 71 c4 57 bd 40 11 27 3e cf 98 12 3d
       0.12716658 -0.052677575 0.16315174 0.03579026
000300 a2 fc 11 be 3a 46 ed bd e8 2d 2a 3d d9 2a ff bd
       -0.14256528 -0.1158566 0.041547686 -0.124593444
000310 49 45 60 3e 7b f9 ea bc 8f 68 14 be f3 67 f9 bd
       0.2190143 -0.028683415 -0.14493011 -0.1217803
000320 be 83 62 3e 8b 80 1c 3d ba 4c 5f 3d 25 6f 01 3e
       0.22120568 0.038208526 0.05451653 0.12640055
000330 e2 77 0a 3e 34 b5 df 3c aa a9 6e 3d 0c 31 1d 3e
       0.13522294 0.027308084 0.058267273 0.15350741
000340 7d 15 f8 bd 0f 39 86 bb b5 02 2b 3e 3b d9 28 3e
       -0.121134736 -0.0040961574 0.16700251 0.16489117
000350 14 50 65 3e 28 76 ea bd 39 cc 3e be ac de 4e bd
       0.22393829 -0.11448318 -0.18632592 -0.050505325
000360 22 c2 c8 bd 70 d8 8d 3c 04 00 71 bd f7 6c 0b be
       -0.09802653 0.01731512 -0.058837906 -0.13615786
000370 99 7f 81 be b9 46 a3 bd 46 4f 19 be 51 ed 2f be
       -0.25292662 -0.07972474 -0.14971647 -0.17180373
000380 d3 81 04 3d c2 a9 08 be 01 a0 02 3e 44 51 f2 bd
       0.032350373 -0.13346007 0.12756349 -0.118319064
000390 e0 28 01 3e 5f 47 19 be 38 f4 b9 3d 7c db 51 bb
       0.12613249 -0.14968632 0.09079784 -0.0032021692
0003a0 41 a6 42 3c c9 0d 21 3e 01 8e 82 bd 66 94 4e be
       0.011880458 0.15727915 -0.06374741 -0.20173797
0003b0 2f 1a 17 3d d5 86 22 be e1 1c 9a 3d d7 ba 19 be
       0.036890205 -0.15871747 0.075250395 -0.1501268
0003c0 b4 c0 16 be 12 22 81 3d 8a 62 13 be 76 1b ee bd
       -0.14721948 0.063053265 -0.14393058 -0.116263315
0003d0 3c b4 f9 3c 6c ea dd bd a6 c0 02 be 65 92 32 3e
       0.03048145 -0.10835728 -0.12768802 0.17438658
0003e0 84 d0 c0 bd e5 05 5d bd fb f4 1f 3c b3 8e c9 bd
       -0.09414771 -0.0539607 0.009762998 -0.09841671
0003f0 32 bb 2b be 0f a3 bf 3d 05 e5 eb 3c ed b2 fb 3b
       -0.16770628 0.09357273 0.028795728 0.0076812417

linear_list.1.bias f4 [32]
000000 0a f9 6f bd bd df 21 be 45 85 5c be 04 59 59 bd
       -0.05858711 -0.15808006 -0.21535213 -0.053063408
000010 07 c5 19 be e2 46 9f bd 7f 34 73 bc d1 a9 0e bd
       -0.15016566 -0.07777192 -0.014844059 -0.03482992
000020 0e 9f 97 bc 13 5b d1 bd 04 d1 d1 3d c2 ec 41 3d
       -0.01850846 -0.10222449 0.10244945 0.04734493
000030 ca 93 c6 bd 42 e3 27 3e aa 1c 6c 3d c9 e8 90 3d
       -0.09696157 0.16395286 0.057644524 0.0707565
000040 54 b5 ff 3d 72 c8 91 bd cc 7b 5e bd a5 ae 54 3d
       0.124857575 -0.0711831 -0.05431728 0.051924367
000050 7e d1 7b bc af 93 5e bd 86 b4 50 3e 69 ba 00 bc
       -0.015369771 -0.05434006 0.20381364 -0.007856944
000060 af 9c 41 3e 22 ac 4b be f3 13 10 3e a9 59 45 be
       0.18907426 -0.19889882 0.1407011 -0.19272484
000070 1b 17 17 be 09 18 43 3d 9f 7c 27 3d e9 ec ac bc
       -0.14754908 0.047630344 0.040890332 -0.021109061

linear_list.2.weight f4 [2, 32]
000000 c2 22 37 bd 78 2d 5a 3e ec 23 93 be 25 e1 22 be
       -0.044710882 0.21306407 -0.28738344 -0.15906198
000010 5f 24 a1 bd 42 0b d7 3d 61 94 7d be 04 18 09 3e
       -0.07868265 0.10500194 -0.24763633 0.13388067
000020 98 d7 2e 3e 0f bc dd 3d d1 39 65 3c 86 ab 2d 3f
       0.1707443 0.10826885 0.013990835 0.6783985
000030 f2 7a 84 3e e6 b1 71 3c dd 12 46 3e c5 7e 2e 3e
       0.2587505 0.014751887 0.19343133 0.17040546
000040 1a 21 a1 3e b5 df 36 3e 54 f6 4a 3e 14 2d de bd
       0.31470567 0.17858775 0.19820529 -0.10848442
000050 f2 82 6a 3c 47 c9 27 be e8 9a 87 bd 7e ef fd be
       0.014313446 -0.16385375 -0.06621343 -0.4959678
000060 6e 34 31 bc c7 28 33 be e8 ac 4c 3c 47 4d c0 be
       -0.010815723 -0.17496024 0.012492396 -0.37558958
000070 48 e7 b8 3d e7 76 1b bd e1 51 30 be 3a b5 c5 3e
       0.090284884 -0.03795519 -0.17218734 0.38614827
000080 29 1a 04 bf 15 1c e5 3c ae 1d b5 bd 7c 3b ac 3c
       -0.5160242 0.027967492 -0.088435516 0.021024458
000090 0b 53 ae 3d ea 6f a7 bd e3 9b b1 be 46 15 d1 3d
       0.08511933 -0.08175643 -0.34689245 0.10209136
0000a0 7e bc 40 3d a5 dc 94 bd ac 0a 21 bf 1e 05 83 3d
       0.04705476 -0.07268647 -0.6290691 0.063974604
0000b0 ec ab e8 3d ae 90 0b 3f b7 43 bd be 67 93 00 3e
       0.113609165 0.5451764 -0.36965725 0.1255623
0000c0 fd c5 f7 3e da 2e e0 3d 92 d4 23 3e b2 2e 03 3e
       0.4839324 0.10946436 0.15999058 0.12810782
0000d0 12 ba c1 bd 5f 24 2f be b7 fe 24 3f c9 6f c6 bd
       -0.09459318 -0.17103718 0.64451164 -0.0968929
0000e0 ec d9 d1 3e 54 d5 9c be 37 42 a9 3e 22 61 fb bd
       0.40986574 -0.30631506 0.3305833 -0.12274386
0000f0 17 48 ea bb 46 f8 f9 3e fd a7 6c 3e af ed 95 be
       -0.007149707 0.4882223 0.23110957 -0.292829

linear_list.2.bias f4 [2]
000000 54 f0 6c bd 3f ed d7 3e
       -0.057846382 0.42173192
