prep/g0530-235328_DB_new/models/model8300.ckpt (torch, 7653 bytes, 6 tensors)

linear_list.0.weight f4 [32, 4]
00000000: 9cae 4c3d ba8f 07bf 0fb2 85bf e0b1 5e3e
00000010: 3041 073d 6380 3b3d 1146 97be 0dd9 ebbe
00000020: ad8a 19bf 9ef9 2a3f 3670 c13e fd93 a63e
00000030: 8feb 2d3e 553b c8bd de1f d73e 42cf 713e
00000040: ae2b 6d3f e67b 9c3e 1956 63be e4fb 1f3e
00000050: 0062 bd3e 6bca aa3d ff4a debe 781d 9dbe
00000060: 199c 31bf 63a4 33bd 0065 993f 9fcf 34be
00000070: 462e d2be 4a1c f43e 28c2 d93e 8b14 0ebf
00000080: 5b4b 32be a393 273f 4bd8 0a3f 118c d13b
00000090: e5f8 353e a84b cf3e 7f2b 313f 8493 193d
000000a0: 0dfd 933e bb7e 403e 0ddc b4be abdb aabe
000000b0: 6817 063e f089 25be de0f d2be 9f0d 193e
000000c0: e83e ffbe 90fe 1dbd 6838 4ebe 9be9 fb3d
000000d0: e9bf 203d 27fb 233e 3823 d2be dce2 fbbe
000000e0: fb76 9c3e 2eea b0be bbfc 323f 7fc7 19bd
000000f0: ea77 de3d 5f0b c5be affa 0dbe a92c bfbc
00000100: 0851 babc c9bb 033f 9efa ed3d d16c d8be
00000110: 7a23 23bd c5d7 ba3e 4b9c a3be 076a acbe
00000120: 2c7b 5cbf b43c 793f 8a0e d03e 87bf fa3d
00000130: 78ea 86be 1347 bc3d 8dfa 973e a3df cfbe
00000140: 1029 b83e 3f71 1d3f c18e 1fbf 9cdb 0dbe
00000150: 9d61 abbe e30a 32bf 15a4 09bf 08ad 97be
00000160: ed16 9e3f 266f 45bf f7d1 c3be ece1 993c
00000170: 53f3 49bd 612f b93c 4374 df3d ff80 cebe
00000180: 7c3f e3be b524 f53e c7ed 42be e604 7fbe
00000190: ddb4 a23f 5185 6ebf 6882 2fbf a6f0 7fbe
000001a0: da37 ccbe 5500 363e 5b80 f4bd 091d 99be
000001b0: 67bb eebd 870c d73e 7e44 573e de4e ffbe
000001c0: 8a6a 213f 7ab6 81bf 584c a4bf c9a4 3a3e
000001d0: f817 fbbe c577 8f3d 26ee b7be 8443 07bb
000001e0: 3d2a 003f 58a0 f2be d34a 7cbe 2597 373e
000001f0: c0ed a1be f8c6 e73d 941f 45be ac0a c3be
0.049971208 -0.52953684 -1.0444964 0.21747541 0.033021152 0.045776736 -0.29545644 -0.46064034
-0.5997723 0.66787136 0.37780923 0.3253478 0.1698439 -0.09776942 0.420165 0.23614219
0.92644775 0.30563277 -0.22200812 0.15623432 0.3698883 0.083393894 -0.43416592 -0.30686545
-0.6937881 -0.043857943 1.1983948 -0.17657326 -0.4105093 0.47677833 0.42530942 -0.55500096
-0.17411558 0.6545965 0.54236287 0.006394871 0.17770727 0.4048741 0.69206995 0.037494197
0.28904 0.18798344 -0.35324135 -0.33370718 0.13094866 -0.161659 -0.4102773 0.14946602
-0.4985268 -0.038572848 -0.20138705 0.12300416 0.03924552 0.16013776 -0.41042495 -0.49196517
0.30559525 -0.34553665 0.69916886 -0.03754377 0.108627155 -0.38485238 -0.1386516 -0.023336725
-0.022743717 0.5145841 0.11620067 -0.4227052 -0.039828755 0.36492744 -0.3195518 -0.33674642
-0.86125445 0.9735825 0.40636092 0.12243562 -0.2635076 0.09193244 0.29683343 -0.4060031
0.35968828 0.61500925 -0.623272 -0.13853306 -0.3347291 -0.6954786 -0.53765994 -0.296242
1.2350746 -0.77122724 -0.38246128 0.018784486 -0.049304318 0.0226056 0.10910847 -0.4033279
-0.44384372 0.47879568 -0.19036017 -0.24904212 1.2711445 -0.93172175 -0.6855836 -0.24994144
-0.3988636 0.17773564 -0.11938544 -0.29904965 -0.11656838 0.42001745 0.21022221 -0.49864858
0.6305319 -1.0133812 -1.2835798 0.18226923 -0.49041724 0.07005266 -0.3592388 -0.0020639608
0.5006445 -0.47387958 -0.24637918 0.17928751 -0.316267 0.11317247 -0.19250327 -0.3809408

linear_list.0.bias f4 [32]
00000000: 161c 263f 2dba 1e3e 169f f4be 323d a0be
00000010: bc81 9cbe 0a4c 023e 4e19 2fbe e3d7 a13e
00000020: a4c7 bdbe 74dc b8be 360c 2bbe 4a60 073e
00000030: 4270 f4be ed7c 433e aed2 06bd 0ec2 8bbd
00000040: bd79 21be 6f6d 7cbe ce1d c93e c3fd 06be
00000050: aa5e b1be fa3e d53e 7921 8abe 8c47 a9be
00000060: 7f51 60be f642 183f 899f c33e 212f 0a3e
00000070: 03a9 04bf f93b 213d 03fa 953e fcfe 88be
0.64886606 0.15500708 -0.47777623 -0.31296688 -0.3056773 0.12724319 -0.17099497 0.3161002
-0.37066376 -0.36105692 -0.16703877 0.13220325 -0.47741896 0.19090624 -0.032915764 -0.06824122
-0.15769096 -0.2465112 0.39280552 -0.1318274 -0.34642535 0.4164961 -0.26978663 -0.33062398
-0.21906088 0.59477174 0.38207653 0.13494541 -0.5182039 0.039363835 0.29292306 -0.26757038

linear_list.1.weight f4 [32, 32]
00000000: fcd1 c5bd 6b3b 1ebe 6e8d 893e 87de 2a3e
00000010: 6581 933e 67ec 3cbd 3bac 6dbe 3f44 5fbd
00000020: bf70 0b3e 407f 5c3e f388 22be 8a1e 353e
00000030: f16e abbd 8041 00bc 0537 52be abc9 c83d
00000040: e0f2 cebd 8aaa 3f3d 6abe 323e 822a 0a3e
00000050: a405 373e ee05 ebbc 4348 29be 5331 163e
00000060: 3dce 1cbc 7325 59bc 3b53 13be f0f1 e3bd
00000070: 3aae 11be 2076 b63d 01f0 06bc 6526 3f3d
00000080: 1672 f73d 7e40 023e 5770 edbd 5d6a 07bd
00000090: 63fa 083e d2a5 4f3d 8ad6 21bd 3a11 273e
000000a0: c72b 513e a142 dd3c a1e0 bc3c 6e8a f23d
000000b0: 54fa 833d 2d30 9f3d 2b6d ae3d 247f 3bbd
000000c0: 12be 5cbd d6a0 b6bd 436d cdbd 7232 553d
000000d0: 242f d8bc cd4e 673d b40c 673e 4342 a33d
000000e0: 606a 013e f9c5 a43e 86ac e8bd 9f23 223e
000000f0: 0f73 243e 4cd0 23be e367 ccbc 65a2 063e
00000100: 357f aebe f523 03be 0dbb 073e f2e7 8bbd
00000110: 874c 203d 60bc 593e e61c 863e 6201 e4bd
00000120: 877a 8f3e 177f 7c3d 0126 97bc 0c24 25be
00000130: 21f4 33bc 657c 01be 59d2 bbbc b7da f43d
00000140: 499f 0b3e 391c ea3d d331 293e 1229 0ebe
00000150: bd78 953e bf05 47bd 3a0c 30bc f702 d03c
00000160: 2283 5dbd a604 223e 0858 05be b5ca 9bbc
00000170: ea75 643d 94c0 aabd f9f9 9bbe f5ae b4bd
00000180: 7819 d8bd 163e 223d cefd 093e c6f5 7dbe
00000190: f7a5 1e3c ffb5 a03d 7fbc 0ebd 5b3a 323c
000001a0: 5630 01be 4454 d33c 2f1c 383e 2ea9 28be
000001b0: e6f7 143e dd48 fc3c 9122 49be ddeb adbc
000001c0: cb06 b9bd a59f ccbd 96a5 dc3d c261 22bd
000001d0: c5e8 743e 8c40 acbd 3a0b a43d 283a 103e
000001e0: 59f0 033d 9ba6 483e 1b8b 21be cabb 1b3e
000001f0: 4f19 c93d aaf0 033d 9160 a53d b844 943d
00000200: a895 5cbd a4db ad3d da9d 223e b5d6 6cbd
00000210: 1560 70bd 0e02 143e 6b64 02be e575 813d
00000220: 9581 e3bd ad55 473e f107 c8bd deb3 f23d
00000230: fe0c 643d 1efb 483c 3222 20be 0635 d73c
00000240: 8b08 373e 2284 31be a5fd 08be d6ad 9e3b
00000250: 3eb3 b2bc dbc0 43bd 418b e33c 0a2b 8e3d
00000260: 7cb1 1dbd 5411 ed3d 8bff b53c 5cd4 1a3e
00000270: d24d 08bc d197 e13c f0a4 163e 5510 82bc
00000280: 2ace 08bc bcc3 9d3d 18e5 013c 3022 19be
00000290: 0f71 d43d 6abe 4c3d e162 0fbe fbd3 f6bd
000002a0: eeb1 fcbd 6f7a 69bd 6d52 593d 8f28 98bd
000002b0: afc8 18bd 2611 22be 2444 d0bd 7617 0d3e
000002c0: 1ac2 2abd f9c1 24bd 66ae 83bd d92e d0bd
000002d0: d81d 103e 354e 1dbe b9ad 80bc 9ee5 203e
000002e0: 8bfe 8ebd e132 ccbd c2fd 793d 9612 75bd
000002f0: f537 023e 71c4 57bd 74c3 263e cf98 123d
00000300: 1528 4dbe 4df0 eabd 239e b03d f34e 20be
00000310: a40a 573e 773a 2d3b 1367 04be 69ae 12be
00000320: 5500 893e 82e3 ca3d 385f 863d f4f3 c83d
00000330: 5e36 253e 5fe4 0c3d 9798 133d 0c31 1d3e
00000340: 9bd4 fdbd 809e 4abb ef35 3f3e 3bd9 283e
00000350: a0dd 8f3e d2f3 efbd 69d0 33be acde 4ebd
00000360: 22c2 c8bd 3618 383d 4371 72bd ce51 13be
00000370: 27b5 81be 8b77 22bd 9f0a 4fbe 51ed 2fbe
00000380: 4e3d ec3c 2bb3 08be ddab d03d 1053 15be
00000390: c84a 323e f3e5 10be 4848 873d 6b5a 8d3c
000003a0: 8af8 213d b042 413e 9ea9 7ebd efc2 57be
000003b0: 9886 0f3d dfac 22be c7bc a53d faba 19be
000003c0: b3c7 00be 3f18 813d 5f51 19be 761b eebd
000003d0: 1951 453d 3d14 e1bd 88e2 e3bd 6592 323e
000003e0: 84d0 c0bd 3f95 0abd be25 1f3c ba07 9ebd
000003f0: 14b6 2bbe 10cf b83d 61fb 703c edb2 fb3b
-0.09659192 -0.15452354 0.26865715 0.1668645 0.28809658 -0.04612389 -0.23210232 -0.054508444
0.13617228 0.21532917 -0.15872554 0.17687431 -0.0837077 -0.007828116 -0.20528801 0.0980409
-0.101049185 0.046793498 0.1745545 0.13492778 0.17873245 -0.028689351 -0.16531472 0.14667253
-0.009570655 -0.0132535575 -0.14387219 -0.1113013 -0.14226618 0.08909249 -0.008235932 0.046667475
0.12082307 0.12719914 -0.11593693 -0.03306042 0.13376765 0.050695248 -0.03951124 0.16315165
0.20426856 0.02700931 0.02305633 0.118428096 0.06444231 0.07772861 0.08516916 -0.045775548
-0.053892203 -0.08917396 -0.10030606 0.05205006 -0.026389666 0.056471635 0.2256344 0.07971623
0.12638235 0.3218229 -0.11361031 0.15833901 0.16059516 -0.15997428 -0.02495188 0.13147886
-0.34081426 -0.12806685 0.13254948 -0.068313494 0.039135482 0.21263266 0.26193923 -0.11133076
0.28023168 0.06164464 -0.018450739 -0.16127032 -0.010983498 -0.12645109 -0.02292745 0.11955779
0.13634981 0.11431164 0.16522913 -0.13882855 0.29193678 -0.048589464 -0.010745103 0.025392039
-0.054080136 0.15822086 -0.13021863 -0.019017557 0.055776514 -0.083375126 -0.30464152 -0.08822433
-0.10551733 0.03960999 0.13475725 -0.24800786 0.009683124 0.07847213 -0.034847733 0.010878171
-0.12616095 0.025797017 0.17979501 -0.16470787 0.14547691 0.030796463 -0.19642092 -0.021230632
-0.09034499 -0.09991387 0.107737705 -0.03964401 0.2391692 -0.08410749 0.08009954 0.14084685
0.032211635 0.19594805 -0.15775721 0.15208355 0.0981928 0.032211937 0.08075059 0.072396696
-0.05385366 0.08489159 0.15880528 -0.057821948 -0.05868538 0.14453909 -0.12733619 0.06321315
-0.111087 0.19466276 -0.0976714 0.11850713 0.055676453 0.012266902 -0.15638044 0.0262704
0.17874353 -0.17335561 -0.13378008 0.0048425 -0.021813985 -0.047791343 0.027776362 0.06941803
-0.03849934 0.11575571 0.022216579 0.15120071 -0.008319335 0.027538212 0.14711356 -0.015876928
-0.008349935 0.07703349 0.007928155 -0.14954448 0.10373127 0.04998628 -0.14002563 -0.12052151
-0.12338625 -0.057001527 0.053057123 -0.07429611 -0.03730076 -0.15826854 -0.10169247 0.13778481
-0.041689016 -0.04022405 -0.06429748 -0.101651855 0.14073884 -0.15361865 -0.015707837 0.15712592
-0.06982144 -0.09970642 0.061033018 -0.059832178 0.12716658 -0.052677575 0.16285497 0.03579026
-0.20034821 -0.11471615 0.08623912 -0.15655117 0.21000153 0.0026432553 -0.12929945 -0.14324345
0.26758066 0.09906675 0.0656113 0.09812155 0.1613402 0.03439748 0.036034193 0.15350741
-0.12394067 -0.0030917227 0.18672918 0.16489117 0.28098774 -0.11716427 -0.17559971 -0.050505325
-0.09802653 0.044944964 -0.059190046 -0.14386675 -0.2533352 -0.039664786 -0.20218895 -0.17180373
0.028837826 -0.13349597 0.1018903 -0.14582467 0.1741134 -0.14150219 0.066055834 0.017255029
0.039543666 0.18873096 -0.06217348 -0.21070455 0.035040468 -0.15886258 0.08092647 -0.15012732
-0.12576179 0.06303453 -0.14972447 -0.116263315 0.048173044 -0.10990188 -0.11127192 0.17438658
-0.09414771 -0.03383374 0.009713588 -0.077163175 -0.16768676 0.09023869 0.014708371 0.0076812417

linear_list.1.bias f4 [32]
00000000: eaba 69bd ba05 72be 09a2 c6be e1b8 01be
00000010: 0f8f 10be cdfc a0bd 8433 9ebd 87e5 13bd
00000020: d318 babc f626 f1bd c7f4 a23d dde4 a9be
00000030: b0ce 3bbe e003 483e 4eca 393c 3033 6b3d
00000040: d584 513e 906b dbbd 0e51 03be 849a b03d
00000050: a630 81bc 63e4 abbc 49af 873e e670 98be
00000060: d4a7 643e 37dc a0be 79bc 293e 6ac5 cfbe
00000070: 5015 13be 2a55 bc3d a06e 083e 57aa 2dbe
-0.05706302 -0.23634997 -0.38795498 -0.12668182 -0.14117073 -0.07860718 -0.077246696 -0.036107566
-0.022716915 -0.11775009 0.07956844 -0.3318242 -0.18340564 0.19532728 0.011339737 0.057421863
0.20460828 -0.10713875 -0.12823889 0.086232215 -0.015770268 -0.020982927 0.2650092 -0.29773635
0.22329646 -0.3141801 0.16575803 -0.40580302 -0.14363599 0.09195931 0.1332345 -0.1695951

linear_list.2.weight f4 [2, 32]
00000000: 4107 33bd bd5b 943e b2e8 07bf bcc4 abbe
00000010: 17ff c5bd f1e2 d63d 3247 94be d0c4 353e
00000020: e7dd 333e dbbe 293e b475 8c3c de55 773f
00000030: ebde ed3e d302 733d 0f7b 5e3e 1ee1 6c3e
00000040: 0589 dd3e 229a 6a3e 2c1d b53e e23a f7bd
00000050: b48b 6a3c 2829 1fbe 0a7c cabd 0958 47bf
00000060: 54cc d8bc 22f4 80be b5fc 95bd 32cc 28bf
00000070: 9b6c d83d a80a cb3b 5681 68be e55d bc3e
00000080: d341 2abf 36c4 173d 5dea 52bd 9a0c d93c
00000090: 376a c53d f024 acbd 97a8 cebe 6ebd b43d
000000a0: a344 4a3d ffcc afbd 86de 37bf eed1 943d
000000b0: 0272 073e d6d5 1d3f e46b dcbe baf9 073e
000000c0: b5c5 fc3e 5666 033e 1755 303e 420d 043e
000000d0: 56b5 c1bd 02f1 57be 4cf0 363f 24af 5dbd
000000e0: fe3c f03e 9e86 a1be 03bd d63e 1c23 ddbd
000000f0: f002 77bb e829 153f e66c 833e 3beb 97be
-0.04370809 0.2897624 -0.5308944 -0.33548534 -0.09667795 0.104925044 -0.28960568 0.1775086
0.17565118 0.16576712 0.017145969 0.966154 0.46459135 0.059328865 0.2172663 0.2313275
0.432686 0.2291036 0.3537382 -0.12071778 0.014315534 -0.15543044 -0.0988694 -0.77868706
-0.026464619 -0.2518626 -0.07323591 -0.6593658 0.1056759 0.0061963387 -0.22705588 0.36790386
-0.6650669 0.037052356 -0.051493037 0.026495267 0.096393995 -0.08405483 -0.40363 0.08825193
0.049381863 -0.08584022 -0.7182392 0.072666034 0.13227084 0.6165441 -0.43051064 0.13278857
0.49369588 0.12832007 0.17219959 0.12895682 -0.09458415 -0.21088031 0.71460414 -0.054122105
0.46921533 -0.31548017 0.4194108 -0.10797712 -0.003769096 0.5826707 0.2566902 -0.29671654

linear_list.2.bias f4 [2]
00000000: d8ee f5bd eeef d23e
-0.120084465 0.41198677
