prep/g0530-235328_DB_new/models/model1100.ckpt (torch, 7653 bytes, 6 tensors)

linear_list.0.weight f4 [32, 4]
0	0xbe13ab2e	-0.14420769
1	0xbefe6e8f	-0.49693725
2	0xbef75c9f	-0.48312852
3	0x3e8283d8	0.25491214
4	0x3d8c3a6e	0.06847082
5	0x3da51a35	0.08061639
6	0xbe93c906	-0.28864306
7	0xbee601d6	-0.44923276
8	0xbb8cde55	-0.004298965
9	0x3ef3583e	0.4752826
10	0x3e9bf29a	0.30458528
11	0x3e4f8048	0.20263779
12	0x3e557c64	0.20848233
13	0xbea24344	-0.31691945
14	0x3ea123c7	0.31472608
15	0x3ea64ab8	0.3247888
16	0x3f1eb5fd	0.6199644
17	0x3e664ed1	0.22491004
18	0xbe207bab	-0.15672176
19	0x3eb2172a	0.34783298
20	0x3eb9defc	0.36302936
21	0x3ddb55dc	0.10709736
22	0xbecba321	-0.39772895
23	0xbe24f856	-0.16110358
24	0xbde2abc1	-0.11067916
25	0xbe5797d5	-0.21054013
26	0x3f206340	0.62651443
27	0xbe16b9cc	-0.14719313
28	0xbee1cbba	-0.44100744
29	0x3ee839c8	0.45356584
30	0x3ee8b525	0.45450702
31	0xbeed46c2	-0.46343046
32	0x3e234df8	0.15947711
33	0x3ee7265a	0.45146447
34	0x3e8de41c	0.27713096
35	0x3e00b5a4	0.1256929
36	0x3e8f773f	0.28020665
37	0x3ec189d3	0.37800464
38	0x3efa6811	0.4890752
39	0x3db20974	0.08693209
40	0x3e954d74	0.29160655
41	0x3e463f81	0.19360162
42	0xbeacde64	-0.3376342
43	0xbeac22cf	-0.33620307
44	0x3e4cbb8d	0.1999342
45	0xbdb11feb	-0.08648666
46	0xbe35aa3a	-0.17740718
47	0x3e97ec6d	0.29672566
48	0xbef0b22c	-0.47010934
49	0xbdcbe985	-0.0995665
50	0xbe793d3b	-0.24339764
51	0x3d933bfa	0.07189174
52	0x3d303257	0.043016758
53	0x3e2840d3	0.16430978
54	0xbed304fa	-0.41214734
55	0xbef958c5	-0.48700538
56	0x3e97ce5d	0.2964963
57	0xbecf60b5	-0.4050347
58	0x3f00a66d	0.50253946
59	0x3dd0e8c0	0.102006435
60	0x3d361f6a	0.044463553
61	0xbe91a765	-0.28448024
62	0xbd060d0d	-0.03272729
63	0x3bc85c05	0.006114485
64	0xbb5e9375	-0.0033962403
65	0x3efd7c2f	0.49508807
66	0x3e80f980	0.25190353
67	0xbea61dd9	-0.32444647
68	0xbd42c262	-0.04754866
69	0x3eb6fa9f	0.35738084
70	0xbea3dc8a	-0.32004195
71	0xbead6cf3	-0.33872184
72	0xbecdb6c2	-0.40178496
73	0x3ef70c9d	0.4825181
74	0x3e817f76	0.25292557
75	0x3ca345b0	0.01993069
76	0xbe92848c	-0.2861675
77	0x3d8e44fd	0.06946752
78	0x3e9d8c70	0.30771208
79	0xbec81b72	-0.3908344
80	0x3ebbff5b	0.36718258
81	0x3f000f24	0.500231
82	0xbec67ff5	-0.38769498
83	0x3d2dbe25	0.042417664
84	0xbee4caa7	-0.4468586
85	0xbf0f6eeb	-0.5602862
86	0xbe12359c	-0.14278263
87	0xbdf4dece	-0.11956559
88	0x3f30d649	0.69076973
89	0xbe3ae46b	-0.18251197
90	0xbe9e3873	-0.30902442
91	0x3ea327f1	0.3186641
92	0xbd49f353	-0.049304318
93	0x3cb92f61	0.0226056
94	0x3ddf7443	0.10910847
95	0xbece80ff	-0.4033279
96	0xbee33f7c	-0.44384372
97	0x3ef524b5	0.47879568
98	0xbe42edc7	-0.19036017
99	0xbe7f04e6	-0.24904212
100	0x3f1600cc	0.58594966
101	0xbe460a38	-0.19339836
102	0xbecbfa4f	-0.39839408
103	0xbd2f4d14	-0.042798117
104	0xbedc20d9	-0.4299381
105	0x3ddef9b7	0.10887473
106	0xbe094284	-0.1340428
107	0xbe8b7631	-0.2723861
108	0xbe00f1f4	-0.12592298
109	0x3ede5207	0.43421957
110	0x3e4c7803	0.19967656
111	0xbec2bd41	-0.38035014
112	0x3eeba22f	0.46022174
113	0xbe701da0	-0.23448801
114	0xbed53aff	-0.41646573
115	0x3ed048ad	0.40680447
116	0xbf08fe05	-0.53512603
117	0x3d1d97be	0.03847479
118	0xbe6baa59	-0.23014201
119	0x3e29d5eb	0.1658551
120	0x3ebeab2f	0.37239978
121	0xbeb4604f	-0.35229728
122	0xbd559333	-0.052142333
123	0x3e24cbd8	0.16093385
124	0xbea1edc0	-0.316267
125	0x3de7c6f8	0.11317247
126	0xbe451f94	-0.19250327
127	0xbec30aac	-0.3809408

linear_list.0.bias f4 [32]
0	0x3ed76dbd	0.4207591
1	0x3e375326	0.17902812
2	0xbec263b5	-0.37966695
3	0xbde48d4c	-0.11159763
4	0xbe276870	-0.16348433
5	0x3e1f36ec	0.15548295
6	0x3dd1c3cb	0.10242423
7	0x3ea2eb1f	0.31820008
8	0xbe0e26b0	-0.13881946
9	0xbe8fb7d9	-0.28069952
10	0xbe297643	-0.1654902
11	0x3e9bd00e	0.3043217
12	0xbed5d34b	-0.41762766
13	0x3e46f4b0	0.19429278
14	0xbd97c88d	-0.07411299
15	0xbdcfdad7	-0.10149162
16	0xbe11b275	-0.14228232
17	0xbe80c809	-0.25152615
18	0x3eef0a9a	0.46687776
19	0xbdf53a98	-0.119740665
20	0xbeab5a32	-0.3346725
21	0x3ec9b87f	0.39398572
22	0xbe452d8d	-0.19255657
23	0xbea9478c	-0.33062398
24	0xbe60517f	-0.21906088
25	0x3ef3e523	0.47635755
26	0x3eb93924	0.36176407
27	0x3e201f75	0.15637
28	0xbed8c540	-0.4233799
29	0x3dd57b54	0.104239136
30	0x3e800c80	0.25009537
31	0xbe88fefc	-0.26757038

linear_list.1.weight f4 [32, 32]
0	0xbe166168	-0.14685595
1	0xbe13de30	-0.14440227
2	0x3e0dd3f6	0.13850388
3	0x3dea2793	0.114333294
4	0x3e6b7f4f	0.22997783
5	0xbd11ca1a	-0.03559313
6	0xbe3f6e6a	-0.18694463
7	0xbcb354de	-0.021891054
8	0x3dcde462	0.10053326
9	0x3e3659b2	0.17807654
10	0xbe0c9186	-0.13727388
11	0x3e05effd	0.1307983
12	0xbdd71b43	-0.10503247
13	0x3b449aa1	0.0029999393
14	0xbe02bf79	-0.12768354
15	0x3dcad7f2	0.099044695
16	0xbd96ca08	-0.07362753
17	0x3d467d14	0.048459128
18	0x3df14c2d	0.117821075
19	0x3e0a2a82	0.13492778
20	0x3e0cd547	0.13753234
21	0xbcc44e38	-0.023963079
22	0xbdf7ef79	-0.12106223
23	0x3e163153	0.14667253
24	0xbc1cce3d	-0.009570655
25	0x3d9ead5f	0.07747912
26	0xbe1442a1	-0.14478542
27	0xbda510c0	-0.080598354
28	0xbe0c87b2	-0.13723639
29	0x3d8edb85	0.06975464
30	0xbc825bc0	-0.01591289
31	0x3d3f2665	0.046667475
32	0x3d95de3e	0.0731778
33	0x3e06e647	0.13173781
34	0xbd13e4ba	-0.036106803
35	0xbd147ec1	-0.036253694
36	0x3d81065f	0.06300043
37	0x3dd052a5	0.10172013
38	0x3ca3094b	0.019901892
39	0x3e17374a	0.14767185
40	0x3deb0010	0.11474621
41	0xbd920d6b	-0.071314655
42	0x3d2b4837	0.041816916
43	0x3df225b5	0.11823598
44	0x3d1e6613	0.038671564
45	0x3db67e7b	0.08910843
46	0x3ca84259	0.02053945
47	0xbd90ca6e	-0.070698604
48	0xbd480673	-0.048834275
49	0xbdb29137	-0.08719104
50	0xbced3552	-0.02895609
51	0x3d553272	0.05205006
52	0x3d91ebd5	0.071250595
53	0xbd0662e0	-0.03280914
54	0x3e07ae94	0.1325019
55	0x3da34243	0.07971623
56	0x3e016a60	0.12638235
57	0x3e76bf2b	0.24096362
58	0xbde49b71	-0.111624606
59	0x3e2574e0	0.16157866
60	0x3cb98a17	0.022648854
61	0xbe546dfe	-0.20745084
62	0xbc9c1634	-0.019053556
63	0x3e06a265	0.13147886
64	0xbd3f4d79	-0.046704743
65	0xbe099054	-0.13433963
66	0x3d370c42	0.044689424
67	0x3d27c3bf	0.040958162
68	0x3d98bb8b	0.07457646
69	0x3e11861a	0.14211312
70	0x3e147c43	0.14500527
71	0xbdcc5efb	-0.099790536
72	0x3e46f74f	0.19430278
73	0xbc87b62a	-0.016566355
74	0xbd406a6b	-0.046976488
75	0xbca7b2e8	-0.020471051
76	0xbcfa847b	-0.03058075
77	0xbe14b005	-0.14520271
78	0xbd0d84ab	-0.03455035
79	0x3dc700a2	0.097169176
80	0x3e08a881	0.13345529
81	0x3de286cd	0.110608675
82	0x3e2bcd06	0.16777429
83	0xbe13de40	-0.1444025
84	0x3e2b2261	0.16712333
85	0xbc7fba80	-0.01560843
86	0xbcde018e	-0.02710035
87	0x3cd002f7	0.025392039
88	0xbd5d8322	-0.054080136
89	0x3db02366	0.08600502
90	0xbdcd10c6	-0.10012965
91	0xbc86b158	-0.016441986
92	0x3d8878d9	0.06663675
93	0xbcf39e18	-0.02973847
94	0xbdeb7030	-0.114960074
95	0xbdb4aef5	-0.08822433
96	0xbd3a39e0	-0.04546535
97	0x3d0c9538	0.034321994
98	0x3e271966	0.16318282
99	0xbe0e91be	-0.13922784
100	0x3d0f3010	0.034957945
101	0x3d0cb4e0	0.034352183
102	0xbd83a3c6	-0.06427722
103	0x3c927426	0.01787765
104	0xbe09c838	-0.13455284
105	0x3ce0bf65	0.027435014
106	0x3e22dd90	0.15904832
107	0xbdd04ee1	-0.10171295
108	0x3e06467a	0.13112822
109	0x3c927bd2	0.017881308
110	0xbe1f3109	-0.15546049
111	0xbcadebdd	-0.021230632
112	0xbdd3b0b5	-0.103364386
113	0xbdd1ad1d	-0.10238097
114	0x3e012b17	0.12614094
115	0xbd2261c2	-0.03964401
116	0x3e2d246a	0.16908422
117	0xbdac1303	-0.08402064
118	0x3d3a92a2	0.045549996
119	0x3e103a28	0.14084685
120	0x3d03f059	0.032211635
121	0x3e06462a	0.13112703
122	0xbe218bad	-0.15775938
123	0x3e1165fa	0.14199057
124	0x3dd4c535	0.10389177
125	0x3c6ad4f2	0.014332997
126	0x3e2cf65f	0.16890858
127	0x3d9444b8	0.072396696
128	0xbd15f2d1	-0.03660852
129	0x3da5f55a	0.08103438
130	0x3e23fb66	0.1601387
131	0xbd0a6d59	-0.03379569
132	0xbdcc1be6	-0.09966259
133	0x3dfb00a5	0.12255982
134	0xbdfee3e5	-0.12445811
135	0x3d5573cc	0.052112386
136	0xbe04e718	-0.1297878
137	0x3e2f65f0	0.1712873
138	0xbde09dcd	-0.10967598
139	0x3dff6252	0.12469925
140	0x3d640f6f	0.05567878
141	0x3bc05d0e	0.005870468
142	0xbe1391bc	-0.14411062
143	0x3cdeda2d	0.027203644
144	0x3e2389a5	0.15970476
145	0xbe328652	-0.17434052
146	0xbe1cf07f	-0.15326117
147	0x3b9eadd6	0.0048425
148	0xbd5e9b92	-0.054347582
149	0xbd43b956	-0.047784172
150	0x3c87ce13	0.016577756
151	0x3d8e2b0a	0.06941803
152	0xbd1db17c	-0.03849934
153	0x3dbca121	0.092104204
154	0x3cb5ff8b	0.022216579
155	0x3e0868ac	0.13321179
156	0x3a829343	0.00099621
157	0x3ce3576a	0.027751643
158	0x3e211531	0.1573074
159	0xbc821055	-0.015876928
160	0xbc0cbbdd	-0.008589712
161	0x3d9e8744	0.077406436
162	0x3c0cc410	0.008591667
163	0xbe1970a8	-0.14984381
164	0x3dd79780	0.10526943
165	0x3d506a45	0.050882597
166	0xbe0f62e1	-0.14002563
167	0xbdf5c887	-0.12001138
168	0xbdfa39f0	-0.12218082
169	0xbd65c179	-0.056092713
170	0x3d5c72b9	0.053820346
171	0xbd962bbb	-0.0733256
172	0xbd18c8af	-0.03730076
173	0xbe213274	-0.15741903
174	0xbdd04413	-0.10169234
175	0x3e0d1776	0.13778481
176	0xbd26bb98	-0.040706247
177	0xbd2346bd	-0.039862383
178	0xbd83a22e	-0.06427418
179	0xbdd02ed9	-0.101651855
180	0x3e11e471	0.142473
181	0xbe1d4e35	-0.15361865
182	0xbc608b93	-0.013705152
183	0x3e20e59e	0.15712592
184	0xbd8efe8b	-0.06982144
185	0xbdc964f5	-0.09833709
186	0x3d79fdc2	0.061033018
187	0xbd718357	-0.058963146
188	0x3e0237f5	0.12716658
189	0xbd57c471	-0.052677575
190	0x3e271140	0.16315174
191	0x3d1298cf	0.03579026
192	0xbd9beb88	-0.076132834
193	0xbde6c2a7	-0.11267596
194	0xbb1006fe	-0.0021976824
195	0xbdcb636b	-0.09931072
196	0x3e4e7615	0.20162232
197	0xbd2b98a5	-0.04189362
198	0xbe180903	-0.14847188
199	0xbddacb39	-0.10683293
200	0x3e4e7658	0.20162332
201	0x3be953a6	0.0071205674
202	0x3d79d1fe	0.06099128
203	0x3e10ed6b	0.14153068
204	0x3e0b7ad5	0.13621075
205	0x3cf51158	0.029915497
206	0x3e01d1dd	0.12677713
207	0x3e1d41fd	0.15357204
208	0xbde344c8	-0.11097103
209	0xbb863707	-0.0040959152
210	0x3e07c612	0.13259152
211	0x3e28d93b	0.16489117
212	0x3e2442bc	0.16041082
213	0xbdda4778	-0.10658163
214	0xbe2ce6bc	-0.16884893
215	0xbd4edeac	-0.050505325
216	0xbdc8c222	-0.09802653
217	0x3d493036	0.049118243
218	0xbd70f391	-0.058826033
219	0xbe01dbbd	-0.1268148
220	0xbe77013f	-0.24121569
221	0xbd148493	-0.036259245
222	0xbdf49a07	-0.11943441
223	0xbe2fed51	-0.17180373
224	0x3d1e64d8	0.03867039
225	0xbe08a9c2	-0.13346007
226	0x3e15a750	0.14614606
227	0xbde39da7	-0.11114054
228	0x3de729ae	0.11287247
229	0xbe192743	-0.14956383
230	0x3dd8a236	0.10577814
231	0xbbc16704	-0.005902173
232	0x3aaad693	0.0013033919
233	0x3e0b1fc4	0.13586336
234	0xbd828e01	-0.06374741
235	0xbe45ab1d	-0.19303556
236	0x3d19705b	0.037460666
237	0xbe2286d5	-0.15871747
238	0x3d6800bd	0.05664133
239	0xbe19b1c3	-0.15009217
240	0xbe1b4187	-0.15161715
241	0x3d812212	0.063053265
242	0xbdebed10	-0.115198255
243	0xbdee2002	-0.11627199
244	0x3d01dde9	0.03170577
245	0xbdd22d56	-0.102625534
246	0xbe130b4a	-0.14359775
247	0x3e329265	0.17438658
248	0xbdc0d084	-0.09414771
249	0xbd8fb443	-0.07016804
250	0x3c2be810	0.01049234
251	0xbdd040f8	-0.10168642
252	0xbe2bd4f9	-0.16780461
253	0x3dda755c	0.10666916
254	0x3c9a8f29	0.018867092
255	0x3bfbb2ed	0.0076812417

linear_list.1.bias f4 [32]
0	0xbcaaadc9	-0.02083482
1	0xbe2d7493	-0.16939001
2	0xbdf30cc5	-0.1186767
3	0xbd1ef598	-0.038808435
4	0xbe1f881e	-0.15579268
5	0xbd9f46e2	-0.07777192
6	0x3c72d1f7	0.014820567
7	0xbcb85518	-0.022501513
8	0xbc8136be	-0.015773173
9	0xbdc227b8	-0.09480232
10	0x3e1daa41	0.15396978
11	0x3d1f4913	0.03888805
12	0xbdb435f6	-0.08799355
13	0x3df02248	0.11725289
14	0x3da8e68d	0.08247099
15	0x3db25894	0.08708301
16	0x3e0204d8	0.1269716
17	0xbd70a851	-0.05875427
18	0xbd92e543	-0.071726345
19	0x3d765f98	0.06014976
20	0xbc207a5b	-0.009794797
21	0xbd83a0d9	-0.06427164
22	0x3df4671f	0.11933731
23	0x3e0b1d28	0.13585341
24	0x3e1e0b2b	0.15433948
25	0xbe0850f0	-0.13312125
26	0x3d681647	0.05666187
27	0xbdcfe1c0	-0.1015048
28	0xbe16ddb0	-0.14733005
29	0xbd46fd54	-0.048581436
30	0xbc75e484	-0.015008096
31	0xbb9f0067	-0.004852343

linear_list.2.weight f4 [2, 32]
0	0xbdb64b50	-0.089010835
1	0x3e26501f	0.16241501
2	0xbda6f91d	-0.08152983
3	0xbc16fa1a	-0.009214902
4	0xbd85b13d	-0.06527946
5	0x3dd70b42	0.10500194
6	0xbe5bcfab	-0.21465938
7	0x3dc96885	0.09834389
8	0x3e2f3741	0.17110921
9	0x3d7acab4	0.06122847
10	0x39accf3f	0.00032960807
11	0x3ecb7bdd	0.39742938
12	0x3e13c5a2	0.1443086
13	0xbd3d06d0	-0.046149075
14	0x3e220478	0.15822017
15	0x3e0604ef	0.1308782
16	0xbd24ea31	-0.040262405
17	0x3e0dc73d	0.13845535
18	0x3df13552	0.11777748
19	0xbddd1f58	-0.10796994
20	0x3c6aabca	0.014323184
21	0xbd68b46a	-0.05681268
22	0xbd705700	-0.05867672
23	0xbea50030	-0.32226706
24	0xbb5423f6	-0.0032370067
25	0xbe28ced0	-0.16485143
26	0x3d24868d	0.04016738
27	0xbe7d29f8	-0.24723041
28	0x3db8f32d	0.09030757
29	0x3d25c23d	0.040468443
30	0xbd5a6dbe	-0.053327315
31	0x3e9c2b4d	0.30501786
32	0xbe945477	-0.28970692
33	0x3c8a52b2	0.016885135
34	0xbda226f6	-0.079175875
35	0x3c8bcb11	0.017064603
36	0x3d8343c3	0.06409409
37	0xbda76fea	-0.08175643
38	0xbe87dd78	-0.26536155
39	0x3ddfa692	0.10920443
40	0x3d400263	0.046877276
41	0xbd774f6a	-0.06037847
42	0xbef23bf0	-0.47311354
43	0x3e0db91a	0.13840142
44	0x3dad2f17	0.08456247
45	0x3eb466b0	0.35234594
46	0xbe8369f3	-0.2566677
47	0x3df22885	0.11824135
48	0x3eac596d	0.33661976
49	0x3dd0d2e5	0.10196475
50	0x3e051616	0.12996706
51	0x3e003de4	0.1252361
52	0xbdc2d0fe	-0.09512518
53	0xbe0dcdfe	-0.13848111
54	0x3eefc5df	0.4683065
55	0xbe0809be	-0.13284966
56	0x3e9a2456	0.30105847
57	0xbe48d2d2	-0.19611672
58	0x3e542961	0.2071891
59	0xbe012889	-0.12613119
60	0xbbef387c	-0.0073004346
61	0x3ebc7d73	0.3681446
62	0x3e26e181	0.1629696
63	0xbe50f504	-0.20405966

linear_list.2.bias f4 [2]
0	0x3d199b73	0.037501764
1	0x3e57f9fb	0.21091454
