prep/g0530-235328_DB_new/models/model4700.ckpt (torch, 7653 bytes, 6 tensors)

linear_list.0.weight f4 [32, 4]
0	0xbda8f2ea	-0.08249457
1	0xbecf349b	-0.40469822
2	0xbf4734e5	-0.77815086
3	0x3e0c4a52	0.13700226
4	0x3d907bb3	0.07054844
5	0x3da9467d	0.08265398
6	0xbe923fc2	-0.28564268
7	0xbee6b9c5	-0.45063606
8	0xbe89e288	-0.26930642
9	0x3ef022de	0.46901602
10	0x3ec4351b	0.38321766
11	0x3e8914bf	0.2677364
12	0x3e0e0b70	0.1387155
13	0xbe602fbe	-0.21893212
14	0x3ebcf6c1	0.36907008
15	0x3e907735	0.28215948
16	0x3f409bca	0.75237715
17	0x3e8b8a4b	0.27253947
18	0xbe97b463	-0.29629812
19	0x3e76f0f7	0.24115358
20	0x3eade8d8	0.33966708
21	0x3d801a3a	0.06255002
22	0xbecd80bc	-0.4013728
23	0xbe815945	-0.2526342
24	0xbeb8cf8e	-0.36095852
25	0xbe7b77d0	-0.24557424
26	0x3f6668d9	0.90003735
27	0xbe0c9ea0	-0.13732386
28	0xbee20d66	-0.44150847
29	0x3ee7fe7d	0.45311347
30	0x3edfd6d9	0.43718603
31	0xbf0271fb	-0.5095517
32	0x3db5932e	0.08865963
33	0x3ef6235a	0.48073846
34	0x3eb517a2	0.35369593
35	0x3d79279d	0.060828794
36	0x3e863b73	0.2621723
37	0x3ebb4670	0.36577177
38	0x3f07081e	0.5274676
39	0x3d6e4471	0.05817074
40	0x3e87b766	0.2650711
41	0x3e2b1784	0.16708189
42	0xbeb409ef	-0.3516383
43	0xbead23d2	-0.3381639
44	0x3e2e6597	0.17030941
45	0xbd77ead0	-0.06052667
46	0xbe8dfff5	-0.27734342
47	0x3e49244f	0.19642757
48	0xbeeae40e	-0.45877117
49	0xbda14947	-0.07875305
50	0xbe60fa50	-0.21970487
51	0x3d0b2c46	0.03397777
52	0x3d3b3add	0.045710433
53	0x3e2b09f1	0.16703011
54	0xbed1f5ec	-0.41007936
55	0xbef97661	-0.48723128
56	0x3e9ef9ed	0.31050053
57	0xbed3ea52	-0.4138971
58	0x3f1871de	0.5954875
59	0xbc9e1628	-0.019297674
60	0x3d773701	0.06035519
61	0xbe8e3239	-0.27772692
62	0xbd0b0a8d	-0.03394561
63	0xbd8e3185	-0.06943039
64	0xbcef650c	-0.029222988
65	0x3eff0632	0.49809414
66	0x3e4b3a08	0.19846356
67	0xbec6d588	-0.38834786
68	0xbd429f5d	-0.047515262
69	0x3eb6ff5d	0.35741702
70	0xbea3daca	-0.3200286
71	0xbead6c87	-0.33871862
72	0xbf1518af	-0.5824079
73	0x3f2c9802	0.67419446
74	0x3eaeb2d6	0.34120816
75	0xbc8d3c3b	-0.017240634
76	0xbe88259a	-0.26591188
77	0x3db3f079	0.08786101
78	0x3e997993	0.29975566
79	0xbecea57c	-0.4036063
80	0x3eb3db12	0.35128075
81	0x3f092245	0.53567916
82	0xbedffc55	-0.43747202
83	0xbc41195e	-0.011785833
84	0xbec7840b	-0.38967928
85	0xbf0b5b47	-0.54436153
86	0xbe5d6a4d	-0.21622582
87	0xbe913b8c	-0.28365743
88	0x3f6e7bce	0.9315766
89	0xbea156ed	-0.31511632
90	0xbeeafe67	-0.4589722
91	0x3e1afff9	0.15136708
92	0xbd49f353	-0.049304318
93	0x3cb92f61	0.0226056
94	0x3ddf7443	0.10910847
95	0xbece80ff	-0.4033279
96	0xbee33f7c	-0.44384372
97	0x3ef524b5	0.47879568
98	0xbe42edc7	-0.19036017
99	0xbe7f04e6	-0.24904212
100	0x3f48d64d	0.78452
101	0xbeea9e75	-0.45824018
102	0xbf243182	-0.6413804
103	0xbe089720	-0.133389
104	0xbed69f14	-0.41918242
105	0x3e226863	0.15860133
106	0xbdc4bd70	-0.09606445
107	0xbe91a9c5	-0.28449836
108	0xbe0c103e	-0.13678071
109	0x3ed1f3a7	0.41006204
110	0x3e47d64d	0.19515343
111	0xbeedc9f6	-0.46443146
112	0x3f0810c7	0.531506
113	0xbeaf745e	-0.3426847
114	0xbf3569d9	-0.70864636
115	0x3e86b75d	0.2631177
116	0xbf0a3976	-0.5399393
117	0x3daabe3e	0.08337067
118	0xbe83b841	-0.25726512
119	0x3d4018f7	0.04689881
120	0x3eed0245	0.46290794
121	0xbec7e745	-0.39043632
122	0xbe4f7970	-0.20261168
123	0x3e1222f9	0.14271154
124	0xbea1edc0	-0.316267
125	0x3de7c6f8	0.11317247
126	0xbe451f94	-0.19250327
127	0xbec30aac	-0.3809408

linear_list.0.bias f4 [32]
0	0x3f00cb40	0.50310135
1	0x3e37fca8	0.17967474
2	0xbec86f2f	-0.39147326
3	0xbe8a1568	-0.26969457
4	0xbe797332	-0.2436035
5	0x3df83edd	0.12121365
6	0xbd35aa26	-0.04435172
7	0x3e9e1947	0.3087866
8	0xbe626a17	-0.22110783
9	0xbea5b6be	-0.32365984
10	0xbe39bc22	-0.18138173
11	0x3e4b5835	0.19857867
12	0xbeecdd14	-0.4626242
13	0x3e48858d	0.19582196
14	0xbe00bf93	-0.1257308
15	0xbd9c467a	-0.0763063
16	0xbe22b562	-0.15889505
17	0xbe80c5a4	-0.25150788
18	0x3ec47cd5	0.3837649
19	0xbe065d5e	-0.13121554
20	0xbeb03bfb	-0.3442076
21	0x3ed778dc	0.42084396
22	0xbe4b74ff	-0.19868849
23	0xbea9478c	-0.33062398
24	0xbe60517f	-0.21906088
25	0x3f135827	0.57556385
26	0x3ec1b802	0.378357
27	0x3e06d4e5	0.1316715
28	0xbedafde2	-0.42771822
29	0x3d85b548	0.06528717
30	0x3e730da0	0.23735666
31	0xbe88fefc	-0.26757038

linear_list.1.weight f4 [32, 32]
0	0xbe2cc009	-0.1687013
1	0xbe19a698	-0.15004957
2	0x3e5af826	0.21383724
3	0x3e12e372	0.14344576
4	0x3e889acd	0.26680604
5	0xbd272d8f	-0.040814932
6	0xbe43c63d	-0.1911859
7	0xbd308dc7	-0.04310396
8	0x3e058017	0.13037144
9	0x3e582af8	0.21110141
10	0xbe18fe1e	-0.14940688
11	0x3e10b0a2	0.1412988
12	0xbdd2917b	-0.102816544
13	0xbaefd799	-0.0018298506
14	0xbe2e19d8	-0.17002046
15	0x3dc88c81	0.09792424
16	0xbdbb0b9b	-0.09133073
17	0x3d467ce2	0.04845894
18	0x3e0dc2c6	0.13843831
19	0x3e0a2a82	0.13492778
20	0x3e27bae5	0.16379888
21	0xbd02cd13	-0.031933855
22	0xbe05f406	-0.13081369
23	0x3e163153	0.14667253
24	0xbc1cce3d	-0.009570655
25	0x3cd1cc47	0.025610102
26	0xbe13ab2d	-0.14420767
27	0xbdcb6806	-0.0993195
28	0xbe0bf2c2	-0.13666824
29	0x3d7218d9	0.059105728
30	0xbd0e40c1	-0.034729723
31	0x3d3f2665	0.046667475
32	0x3e06aa5f	0.13150929
33	0x3e0605d3	0.1308816
34	0xbd94452e	-0.072397575
35	0xbd0770d5	-0.03306659
36	0x3dac3c80	0.08409977
37	0x3daf0981	0.085467346
38	0xbc850f1f	-0.016242562
39	0x3e17ac8f	0.1481192
40	0x3e000d2a	0.12505022
41	0xbd6746b0	-0.056463897
42	0x3d213dc8	0.03936556
43	0x3e0826d3	0.1329606
44	0x3d210033	0.03930683
45	0x3db4b6c2	0.08823921
46	0x3d1d1d40	0.038357973
47	0xbd8b92f5	-0.06815139
48	0xbd52cd30	-0.051465213
49	0xbdb29137	-0.08719104
50	0xbd888f9f	-0.066680185
51	0x3d553272	0.05205006
52	0x3ceccde9	0.02890678
53	0x39be48e5	0.00036293935
54	0x3e3160e1	0.17322113
55	0x3da34243	0.07971623
56	0x3e016a60	0.12638235
57	0x3e987de5	0.2978355
58	0xbde49ba0	-0.111624956
59	0x3e211d32	0.15733793
60	0x3d617d83	0.055051338
61	0xbe3c83df	-0.1840968
62	0x3c6c2a4d	0.014414382
63	0x3e06a265	0.13147886
64	0xbe27889f	-0.1636071
65	0xbe09cb79	-0.13456525
66	0x3d2f3192	0.042771883
67	0x3ae90cce	0.0017780305
68	0x3d6c92f8	0.057757348
69	0x3e1f3e87	0.15551196
70	0x3e45fadf	0.19333981
71	0xbdba93ef	-0.09110247
72	0x3e40f807	0.18844615
73	0xbbb69c45	-0.005572828
74	0xbd417494	-0.04723032
75	0xbdd00f85	-0.1015921
76	0xbd2e9227	-0.04261985
77	0xbe14cd00	-0.14531326
78	0xbd1865bc	-0.037206396
79	0x3dd482c8	0.10376507
80	0x3e07b015	0.13250764
81	0x3de286cd	0.110608675
82	0x3e1de620	0.15419817
83	0xbe123e9d	-0.14281698
84	0x3e5703ac	0.20997494
85	0xbceb0e2d	-0.028693283
86	0xbd315988	-0.043298274
87	0x3cd002f7	0.025392039
88	0xbd5d8322	-0.054080136
89	0x3d9b9594	0.07596889
90	0xbde6e344	-0.11273816
91	0xbc865e52	-0.016402397
92	0x3d64ef3a	0.055892207
93	0xbdbe7c54	-0.093010575
94	0xbe260b32	-0.16215208
95	0xbdb4aef5	-0.08822433
96	0xbd8936b0	-0.06699884
97	0x3d0ff542	0.035146005
98	0x3e1abaa0	0.15110254
99	0xbe2dc3bb	-0.16969196
100	0x3d1430d4	0.03617938
101	0x3d2d45eb	0.042303007
102	0xbd838a04	-0.06422809
103	0x3c9be556	0.019030254
104	0xbe08af1f	-0.13348053
105	0x3cfdee72	0.030997489
106	0x3e24d2c4	0.16096026
107	0xbdf2fb6b	-0.118643604
108	0x3e062139	0.13098611
109	0x3c989d4a	0.018629689
110	0xbe2fa013	-0.17150907
111	0xbcadebdd	-0.021230632
112	0xbdce381b	-0.10069295
113	0xbdd1ad1d	-0.10238097
114	0x3dfe737b	0.1242437
115	0xbd2261c2	-0.03964401
116	0x3e425e71	0.18981339
117	0xbdac3283	-0.08408072
118	0x3d3aff55	0.04565366
119	0x3e103a28	0.14084685
120	0x3d03f059	0.032211635
121	0x3e1023df	0.14076184
122	0xbe218af0	-0.15775657
123	0x3e14b430	0.14521861
124	0x3dc95648	0.0983091
125	0x3b86060f	0.0040900777
126	0x3e21aa69	0.15787663
127	0x3d9444b8	0.072396696
128	0xbd1b4dc3	-0.037915956
129	0x3da99590	0.0828048
130	0x3e251378	0.16120708
131	0xbd2a3091	-0.041550223
132	0xbdbb3971	-0.091418155
133	0x3e055595	0.13020928
134	0xbdffd9bc	-0.124927014
135	0x3d6f5392	0.05842931
136	0xbdfc2103	-0.12310984
137	0x3e358422	0.17726186
138	0xbdd8017f	-0.1054716
139	0x3dff19f6	0.124561235
140	0x3d640f6f	0.05567878
141	0x3bf4976f	0.0074643414
142	0xbe1919f5	-0.14951308
143	0x3cdeda2d	0.027203644
144	0x3e2bd4b0	0.16780353
145	0xbe328652	-0.17434052
146	0xbe169591	-0.14705493
147	0x3b9eadd6	0.0048425
148	0xbd35947b	-0.044331055
149	0xbd43bbe2	-0.0477866
150	0x3c9b6bc4	0.018972285
151	0x3d8e2b0a	0.06941803
152	0xbd1db17c	-0.03849934
153	0x3dccbcc6	0.09996943
154	0x3cb5ff8b	0.022216579
155	0x3e10c79b	0.14138643
156	0x398ecd4a	0.00027237303
157	0x3ce30401	0.02771187
158	0x3e1f8623	0.15578513
159	0xbc821055	-0.015876928
160	0xbc0cbbdd	-0.008589712
161	0x3d9e8744	0.077406436
162	0x3c0cc410	0.008591667
163	0xbe1970a8	-0.14984381
164	0x3dd79780	0.10526943
165	0x3d506a45	0.050882597
166	0xbe0f62e1	-0.14002563
167	0xbdf5c887	-0.12001138
168	0xbdfa39f0	-0.12218082
169	0xbd65c179	-0.056092713
170	0x3d5c72b9	0.053820346
171	0xbd962bbb	-0.0733256
172	0xbd18c8af	-0.03730076
173	0xbe213274	-0.15741903
174	0xbdd04413	-0.10169234
175	0x3e0d1776	0.13778481
176	0xbd26bb98	-0.040706247
177	0xbd2346bd	-0.039862383
178	0xbd83a22e	-0.06427418
179	0xbdd02ed9	-0.101651855
180	0x3e11e471	0.142473
181	0xbe1d4e35	-0.15361865
182	0xbc608b93	-0.013705152
183	0x3e20e59e	0.15712592
184	0xbd8efe8b	-0.06982144
185	0xbdc964f5	-0.09833709
186	0x3d79fdc2	0.061033018
187	0xbd718357	-0.058963146
188	0x3e0237f5	0.12716658
189	0xbd57c471	-0.052677575
190	0x3e271140	0.16315174
191	0x3d1298cf	0.03579026
192	0xbe108b5f	-0.14115666
193	0xbded2ce5	-0.115808286
194	0x3d26cef1	0.0407247
195	0xbdfdd248	-0.123936236
196	0x3e5fb5e6	0.21846732
197	0xbcef07a2	-0.029178444
198	0xbe1521c1	-0.14563657
199	0xbdf924c4	-0.121652156
200	0x3e61f22d	0.22065039
201	0x3d18b9b7	0.037286486
202	0x3d5f827b	0.054567795
203	0x3e01db88	0.12681401
204	0x3e0a718c	0.13519877
205	0x3ce002ab	0.027345022
206	0x3d7465b3	0.0596673
207	0x3e1d310c	0.15350741
208	0xbdf837f8	-0.1212005
209	0xbb86390f	-0.0040961574
210	0x3e29b31d	0.16572233
211	0x3e28d93b	0.16489117
212	0x3e632efd	0.22185893
213	0xbdea764c	-0.114483446
214	0xbe3ed204	-0.18634802
215	0xbd4edeac	-0.050505325
216	0xbdc8c222	-0.09802653
217	0x3c8a6fd9	0.016899036
218	0xbd7103e4	-0.0588416
219	0xbe0b7567	-0.13619004
220	0xbe817505	-0.2528459
221	0xbda346c7	-0.07972484
222	0xbe1921b1	-0.14954259
223	0xbe2fed51	-0.17180373
224	0x3d04f234	0.032457545
225	0xbe08a9c2	-0.13346007
226	0x3e038a18	0.12845647
227	0xbdf16567	-0.11786919
228	0x3e00e35a	0.12586728
229	0xbe194136	-0.14966282
230	0x3dbbd535	0.091715254
231	0xbb5c3ff4	-0.0033607455
232	0x3c3c0ac3	0.011477175
233	0x3e204c8e	0.15654203
234	0xbd828e01	-0.06374741
235	0xbe4e1ce1	-0.20128204
236	0x3d174cb9	0.036938403
237	0xbe2286d5	-0.15871747
238	0x3d98eab5	0.07466642
239	0xbe19bac3	-0.1501265
240	0xbe16f98e	-0.14743635
241	0x3d812212	0.063053265
242	0xbe122d48	-0.14275086
243	0xbdee1b76	-0.116263315
244	0x3cfb7041	0.030693175
245	0xbddd2b6f	-0.107993
246	0xbe0338dd	-0.1281466
247	0x3e329265	0.17438658
248	0xbdc0d084	-0.09414771
249	0xbd5e70c5	-0.054306764
250	0x3c209665	0.009801482
251	0xbdc9ea8c	-0.098591894
252	0xbe2bbe61	-0.16771843
253	0x3dc051a0	0.09390569
254	0x3ceb79ed	0.028744662
255	0x3bfbb2ed	0.0076812417

linear_list.1.bias f4 [32]
0	0xbd6da64a	-0.058019914
1	0xbe21f0e6	-0.15814552
2	0xbe57f64e	-0.21090052
3	0xbd54c639	-0.051946852
4	0xbe19d9a2	-0.15024427
5	0xbd9f46e2	-0.07777192
6	0xbc7078fe	-0.014677284
7	0xbd0b64f9	-0.034031842
8	0xbc95e65d	-0.018298322
9	0xbdcf877d	-0.10133264
10	0x3dd255ad	0.102702476
11	0x3d58cb72	0.052928396
12	0xbdc49c68	-0.096001446
13	0x3e2662dc	0.1624865
14	0x3d738e2b	0.059461754
15	0x3d916cb6	0.07100813
16	0x3dffb0f0	0.1248492
17	0xbd908ab4	-0.070577055
18	0xbd5e3603	-0.05425073
19	0x3d54e82f	0.05197924
20	0xbc79fc74	-0.015257943
21	0xbd63a0a3	-0.055573117
22	0x3e4cf02c	0.20013493
23	0xbaa256bd	-0.0012385469
24	0x3e3fc323	0.18726783
25	0xbe48d7f9	-0.19613637
26	0x3e0e5aa6	0.13901767
27	0xbe40ac71	-0.18815781
28	0xbe171834	-0.14755327
29	0x3d37ac24	0.0448419
30	0x3d16fef5	0.03686424
31	0xbc8bb9d9	-0.017056393

linear_list.2.weight f4 [2, 32]
0	0xbd3b74da	-0.045765735
1	0x3e57031a	0.20997277
2	0xbe8f0c04	-0.27938855
3	0xbe1e5a7f	-0.15464209
4	0xbda0d9ee	-0.07854067
5	0x3dd70b42	0.10500194
6	0xbe7c23d4	-0.24623042
7	0x3e075d8c	0.13219279
8	0x3e2ee0c2	0.17077926
9	0x3dd9d7cd	0.10636864
10	0x3c629810	0.0138302
11	0x3f2b2fe7	0.6686997
12	0x3e81d920	0.25360966
13	0x3c5b17a0	0.013372332
14	0x3e441a6b	0.19150703
15	0x3e2c9f9b	0.1685776
16	0x3e9d960b	0.30778536
17	0x3e3509f3	0.17679577
18	0x3e47696e	0.19473812
19	0xbdddcaa2	-0.10829665
20	0x3c6a811e	0.0143130105
21	0xbe272fee	-0.16326877
22	0xbd89da98	-0.067311466
23	0xbefb89b4	-0.49128497
24	0xbc35302d	-0.011058849
25	0xbe326957	-0.17422996
26	0x3c65a38a	0.0140160415
27	0xbebde2d7	-0.37087128
28	0x3db8e926	0.090288445
29	0xbd15ec23	-0.03660215
30	0xbe2facb6	-0.17155728
31	0x3ec4eac4	0.38460362
32	0xbf02d91c	-0.5111253
33	0x3ce829f0	0.02834031
34	0xbdb6d0ce	-0.08926545
35	0x3caad716	0.020854514
36	0x3dade998	0.0849182
37	0xbda76fea	-0.08175643
38	0xbeb0dc9b	-0.3454331
39	0x3dd1b86a	0.10240252
40	0x3d40a56a	0.04703275
41	0xbd93d778	-0.07218832
42	0xbf20a3c0	-0.6274986
43	0x3d856a0e	0.06514369
44	0x3de7acea	0.113122776
45	0x3f0ae0f1	0.54249483
46	0xbebcd945	-0.36884513
47	0x3e0077fe	0.12545773
48	0x3ef7fdaf	0.48435733
49	0x3ddfaeb0	0.10921991
50	0x3e241164	0.16022259
51	0x3e03122e	0.12799904
52	0xbdc1bc55	-0.094597496
53	0xbe2e2d0a	-0.17009369
54	0x3f247701	0.64244086
55	0xbdc8940e	-0.09793864
56	0x3ed0dfc7	0.4079573
57	0xbe9c0eae	-0.3047995
58	0x3ea7ae88	0.32750344
59	0xbdfbd927	-0.12297278
60	0xbbeb938a	-0.007189219
61	0x3ef8bd7d	0.48582068
62	0x3e6bc46b	0.23024146
63	0xbe95ff36	-0.29296273

linear_list.2.bias f4 [2]
0	0xbd5d5be1	-0.0540427
1	0x3ed5f16d	0.41785756
