prep/g0530-235328_DB_new/models/model1000.ckpt (torch, 7653 bytes, 6 tensors)

linear_list.0.weight f4 [32, 4]
00000000: e5e4 15be bd61 ffbe d387 f6be beb5 823e
00000010: c87d 8b3d 8061 a43d f7e4 93be 1907 e6be
00000020: f8a3 493b c3be f13e 825b 9a3e 33e6 4b3e
00000030: f82f 583e 5ab7 a1be f50a a13e 183a a73e
00000040: 687b 1d3f 4266 603e 5602 19be b6be b43e
00000050: 209a b93e 3fdb dd3d c9dc cbbe 0de4 20be
00000060: 4965 d3bd 6197 50be 67d0 1e3f 3faa 15be
00000070: e938 e1be a539 e83e 9f02 e83e 8ef7 edbe
00000080: e71b 263e e3a8 e53e 8cda 8b3e 9f97 003e
00000090: b32f 903e c951 c13e 84f3 f83e 3d89 ac3d
000000a0: faa0 963e 64e8 483e c145 acbe a0ed abbe
000000b0: 5187 4c3e 6f62 b6bd ac07 34be 8f90 9a3e
000000c0: 7fb5 f0be df57 cbbd b3b2 79be 4bdd 943d
000000d0: 2544 313d 9484 283e 63f8 d2be 934f f9be
000000e0: e9bf 973e 332f cdbe 820a 003f 7c83 dc3d
000000f0: 660e 223d c2e3 90be 9599 0cbd 783f a83b
00000100: 0a6f a5ba c899 fd3e d75f 823e 3725 a4be
00000110: 17cf 42bd eaf8 b63e 37dd a3be 256d adbe
00000120: 7c81 cabe c290 f33e 3913 7e3e 5abe 9b3c
00000130: 17a6 92be 21a7 8d3d 1e72 9d3e 9016 c8be
00000140: b07d bc3e 651c 003f d42a c6be 9207 353d
00000150: 2342 e6be c93f 0fbf c120 14be d7df f1bd
00000160: 923f 2f3f 2f3a 3cbe 38b3 9abe c16c a43e
00000170: 53f3 49bd 612f b93c 4374 df3d ff80 cebe
00000180: 7c3f e3be b524 f53e c7ed 42be e604 7fbe
00000190: dc18 143f 6371 46be 4187 c8be 06c0 32bd
000001a0: 5f1c dcbe c047 de3d a101 0abe 849e 8bbe
000001b0: b498 00be 5ae4 de3e cb34 4d3e 80fa bfbe
000001c0: d1ca e83e 9ac3 71be 9ab6 d1be c337 d13e
000001d0: d685 08bf dd7e 193d 7439 6ebe 15a8 2b3e
000001e0: bb73 bc3e 6496 b3be 1af6 3abd 9ebf 293e
000001f0: c0ed a1be f8c6 e73d 941f 45be ac0a c3be
-0.14638098 -0.49879256 -0.481505 0.25529283 0.068111 0.08026409 -0.28885624 -0.4492729
0.00307679 0.47215852 0.3014794 0.19912033 0.21112049 -0.315852 0.31453672 0.3266151
0.6151643 0.21914008 -0.14942297 0.3530175 0.362504 0.108328335 -0.39816883 -0.15711994
-0.10322053 -0.20370246 0.62036747 -0.14615725 -0.43988732 0.4535648 0.453145 -0.46477932
0.16221581 0.44855413 0.27315176 0.12557839 0.28161392 0.3775771 0.48623288 0.084246136
0.2941969 0.196199 -0.33646968 -0.3357973 0.19973494 -0.089054935 -0.17581052 0.30188414
-0.4701347 -0.099288695 -0.24384575 0.07268771 0.04327788 0.16456825 -0.4120513 -0.48693523
0.29638603 -0.40075073 0.50016034 0.10767266 0.039564513 -0.28298765 -0.034326155 0.005134519
-0.0012621593 0.49531388 0.25463745 -0.32059643 -0.047560778 0.3573678 -0.3200471 -0.33872333
-0.39551914 0.4757138 0.2481202 0.019011665 -0.28642341 0.06916643 0.30751127 -0.39079714
0.36814642 0.50043327 -0.3870455 0.044196673 -0.44972333 -0.55956703 -0.1446562 -0.11810272
0.68456376 -0.1838157 -0.30214858 0.32114223 -0.049304318 0.0226056 0.10910847 -0.4033279
-0.44384372 0.47879568 -0.19036017 -0.24904212 0.5785043 -0.19379191 -0.3916569 -0.04364016
-0.42990395 0.10853529 -0.13477184 -0.27269375 -0.12558252 0.43533593 0.2003967 -0.37495804
0.45467237 -0.23609772 -0.40959626 0.40862855 -0.5332922 0.037474502 -0.23264104 0.16763337
0.36807045 -0.35075676 -0.045644857 0.16577002 -0.316267 0.11317247 -0.19250327 -0.3809408

linear_list.0.bias f4 [32]
00000000: 11a9 d53e 191c 373e de96 c1be 5202 ddbd
00000010: c165 25be 8e04 203e 67d1 db3d b17f a23e
00000020: 2c80 0bbe a9bd 8fbe a3db 27be 3843 9d3e
00000030: fe70 d5be cf1f 473e 531b 92bd ad4b d1bd
00000040: c351 10be 00c9 80be addc f03e ed01 f5bd
00000050: 6602 abbe 6ad1 c83e 3848 47be 8c47 a9be
00000060: 7f51 60be a482 f13e fafe b83e 0a8c 213e
00000070: 0ae8 d9be 1c8f d63d 0222 803e fcfe 88be
0.4173055 0.17881812 -0.37810415 -0.10791458 -0.16152097 0.15626737 0.107333 0.31738046
-0.13623112 -0.28074387 -0.16392379 0.30715346 -0.4168777 0.19445728 -0.07134118 -0.10219512
-0.1409369 -0.2515335 0.47043362 -0.11963258 -0.33400267 0.3922227 -0.19461143 -0.33062398
-0.21906088 0.47169983 0.36132032 0.15776077 -0.42559844 0.10476515 0.25025946 -0.26757038

linear_list.1.weight f4 [32, 32]
00000000: d7df 12be d6ae 13be 04a1 0b3e f69d e83d
00000010: 00ba 673e 8a48 0fbd c1ab 3dbe 59cd a7bc
00000020: fe00 ca3d 889f 333e 1eac 0bbe aba8 053e
00000030: 38bc d6bd 459d 513b 8ba8 02be 0d37 cb3d
00000040: 744e 94bd 467d 463d 259e f43d 822a 0a3e
00000050: 6165 0c3e c6af b4bc eb5b fcbd 5331 163e
00000060: 3dce 1cbc e1bb a23d 4f3b 14be 4797 a2bd
00000070: b337 0ebe f8c8 963d 7b4f 87bc 6526 3f3d
00000080: f314 953d 74ec 063e 03e5 10bd 03f0 0bbd
00000090: d090 7d3d e2dd d03d db3f b53c cc26 173e
000000a0: 1a68 ea3d afcb 91bd b4be 2b3d 84c1 f13d
000000b0: 9c80 1e3d 678f b63d ce90 b73c 0535 90bd
000000c0: e680 48bd 3791 b2bd 4c82 e4bc 7232 553d
000000d0: 2be3 923d 1dec 05bd bccc 063e 4342 a33d
000000e0: 606a 013e b5cb 733e 719b e4bd f382 253e
000000f0: 3f74 b93c b2ec 54be 1bd4 99bc 65a2 063e
00000100: 16b7 33bd 3886 09be d6ff 313d f6ee 273d
00000110: bbe2 983d 919b 113e 83a3 133e 360f ccbd
00000120: 5d5a 463e 2ef2 90bc 67a5 3fbd 400f 9cbc
00000130: 24f7 f9bc 7ca5 14be 753f 0ebd a9ec c63d
00000140: c308 093e cd86 e23d fc96 2b3e fddf 13be
00000150: ebe3 2a3e 6e02 74bc 72f4 d9bc f702 d03c
00000160: 2283 5dbd 7ff7 b23d 51b8 ccbd 9932 84bc
00000170: e471 893d 17fe e6bc 9081 e9bd f5ae b4bd
00000180: 2524 3abd 3687 0c3d 233b 273e e62f 0ebe
00000190: ad15 113d 977e 0c3d 1586 83bd ffdb 913c
000001a0: c18a 09be 2d3a e33c c3cc 223e 72b0 cfbd
000001b0: 2446 063e 005c 923c 1adc 1ebe ddeb adbc
000001c0: eece d3bd 1dad d1bd 5428 013e c261 22bd
000001d0: 8c27 2d3e 3213 acbd 7335 3c3d 283a 103e
000001e0: 59f0 033d fb79 063e ad8b 21be 9e52 113e
000001f0: fd27 d53d a086 683c 954e 2d3e b844 943d
00000200: d1f2 15bd c1d6 a53d caeb 233e 160f 09bd
00000210: 317d ccbd 5f49 fa3d b4bb febd 2144 543d
00000220: 7a16 05be 9342 2f3e fe30 e1bd 4c70 ff3d
00000230: 6f0f 643d ce26 be3b 2349 13be 2dda de3c
00000240: d72c 233e 5286 32be 981d 1dbe d6ad 9e3b
00000250: 8d40 60bd 56b9 43bd e5b2 873c 0a2b 8e3d
00000260: 7cb1 1dbd 6316 bc3d 8bff b53c 7a08 083e
00000270: f629 833a 6a57 e33c 532d 213e 5510 82bc
00000280: ddbb 0cbc 4487 9e3d 10c4 0c3c a870 19be
00000290: 8097 d73d 456a 503d e162 0fbe 87c8 f5bd
000002a0: f039 fabd 79c1 65bd b972 5c3d bb2b 96bd
000002b0: afc8 18bd 7432 21be 1344 d0bd 7617 0d3e
000002c0: 98bb 26bd bd46 23bd 2ea2 83bd d92e d0bd
000002d0: 71e4 113e 354e 1dbe 938b 60bc 9ee5 203e
000002e0: 8bfe 8ebd f564 c9bd c2fd 793d 5783 71bd
000002f0: f537 023e 71c4 57bd 4011 273e cf98 123d
00000300: fbef 91bd bf79 e6bd af8a bbbb 5437 cbbd
00000310: aa56 4d3e 7d53 2abd 231c 18be 8a58 d8bd
00000320: e018 4c3e da16 803b 3c96 7c3d ed04 123e
00000330: 3f85 0b3e 0047 f63c ccda 023e 9043 1d3e
00000340: 39e5 e0bd 1936 86bb 74bd 053e 3bd9 283e
00000350: a364 233e 40b6 d7bd ae16 2cbe acde 4ebd
00000360: 22c2 c8bd 5966 563d efea 70bd f3d1 00be
00000370: 97f7 75be 8159 09bd 2846 f1bd 51ed 2fbe
00000380: d864 1e3d c2a9 08be a7c6 153e f96a e3bd
00000390: b050 e73d 3729 19be cfb2 d83d d8c0 c0bb
000003a0: 886f b83a af39 0b3e 018e 82bd 0595 45be
000003b0: 5b70 193d d586 22be be2a 683d c3b1 19be
000003c0: 4c45 1bbe 1222 813d 9999 ebbd 0220 eebd
000003d0: feb8 013d 562d d2bd 780c 13be 6592 323e
000003e0: 84d0 c0bd 2bd8 8fbd 10e8 2b3c 9740 d0bd
000003f0: 51d6 2bbe 5c75 da3d 22be 9a3c edb2 fb3b
-0.143432 -0.14422163 0.13635641 0.11358254 0.22629547 -0.034981288 -0.1852255 -0.02048366
0.098634705 0.17541325 -0.13639876 0.13052623 -0.10485119 0.003198461 -0.12759607 0.099226095
-0.07241526 0.048459314 0.11944226 0.13492778 0.13710548 -0.022056472 -0.123222195 0.14667253
-0.009570655 0.07945991 -0.1447575 -0.0793901 -0.13888435 0.073625505 -0.016517391 0.046667475
0.07279386 0.13176137 -0.035374653 -0.03416444 0.061905682 0.10198571 0.022125175 0.14760894
0.11445637 -0.07118928 0.041929916 0.11804488 0.03869687 0.089140706 0.022407915 -0.07041363
-0.048951052 -0.08719104 -0.027894162 0.05205006 0.07172235 -0.03269588 0.13164037 0.07971623
0.12638235 0.23808177 -0.111624606 0.16163234 0.022638438 -0.20793417 -0.018777898 0.13147886
-0.043875776 -0.13430107 0.043456875 0.040999375 0.074651204 0.142195 0.14417844 -0.09963839
0.19370408 -0.017693605 -0.0467886 -0.01905024 -0.030513354 -0.14516252 -0.034728486 0.09713108
0.13382249 0.110608675 0.16756815 -0.14440913 0.16688506 -0.014893157 -0.026605818 0.025392039
-0.054080136 0.087386124 -0.09996093 -0.016137408 0.06711176 -0.028197331 -0.11401665 -0.08822433
-0.045444626 0.034308635 0.16331153 -0.1388546 0.035421062 0.034300413 -0.064220585 0.017805098
-0.13431837 0.027737701 0.15898423 -0.10141076 0.13112694 0.017866135 -0.1551365 -0.021230632
-0.10342203 -0.10238097 0.1261304 -0.03964401 0.16909617 -0.08402099 0.04594941 0.14084685
0.032211635 0.1313247 -0.15775938 0.14191672 0.10408018 0.014192253 0.16924508 0.072396696
-0.03660852 0.08097602 0.16007915 -0.033461653 -0.09984816 0.12221026 -0.12438145 0.051822785
-0.12996855 0.1711524 -0.10995673 0.12472591 0.05567878 0.0058029657 -0.14383368 0.027203644
0.15935074 -0.17434052 -0.1534332 0.0048425 -0.05474906 -0.047784172 0.016564796 0.06941803
-0.03849934 0.091839574 0.022216579 0.13284484 0.0010007012 0.027751643 0.15739946 -0.015876928
-0.008589712 0.077406436 0.008591667 -0.14984381 0.10526943 0.050882597 -0.14002563 -0.12001138
-0.12218082 -0.056092713 0.053820346 -0.0733256 -0.03730076 -0.15741903 -0.10169234 0.13778481
-0.040706247 -0.039862383 -0.06427418 -0.101651855 0.142473 -0.15361865 -0.013705152 0.15712592
-0.06982144 -0.09833709 0.061033018 -0.058963146 0.12716658 -0.052677575 0.16315174 0.03579026
-0.07125851 -0.1125369 -0.0057233195 -0.099226624 0.20052591 -0.041583527 -0.14854483 -0.105637625
0.19931364 0.003908974 0.061666712 0.14259692 0.13625048 0.030063152 0.12778777 0.15357804
-0.10981221 -0.0040958044 0.13060552 0.16489117 0.15956359 -0.10532808 -0.16805527 -0.050505325
-0.09802653 0.0523437 -0.0588178 -0.1258009 -0.2402023 -0.033532623 -0.11780959 -0.17180373
0.03867039 -0.13346007 0.14626561 -0.11104388 0.11294687 -0.14957128 0.1058098 -0.0058823638
0.0014071325 0.13596223 -0.06374741 -0.19295128 0.037460666 -0.15871747 0.056681387 -0.15009217
-0.15163153 0.063053265 -0.11503906 -0.11627199 0.031670563 -0.102625534 -0.14360225 0.17438658
-0.09414771 -0.07023653 0.01049234 -0.101685695 -0.16780974 0.10666916 0.01888949 0.0076812417

linear_list.1.bias f4 [32]
00000000: 7ea5 98bc e6f5 2dbe a9a2 efbd 7ff4 1dbd
00000010: 3fb8 1fbe e246 9fbd 1dbf 873c 9c78 b7bc
00000020: be36 81bc cd37 c2bd fec2 1f3e 49d2 153d
00000030: 542c b5bd 0e00 ef3d d4ff a73d 65e1 b23d
00000040: 3c6f 023e da76 6fbd 0f92 94bd 7dcb 783d
00000050: e539 15bc 1e05 82bd b2e5 f63d ced6 0f3e
00000060: 98b9 1d3e 964f 07be de4d 613d 387c c9bd
00000070: f2dc 16be a806 4cbd 1fed 69bc b263 acbb
-0.0186336 -0.16988334 -0.11700947 -0.038563248 -0.15597628 -0.07777192 0.016570622 -0.022396378
-0.015773173 -0.094832994 0.15601727 0.036577497 -0.088463455 0.11669932 0.08203092 0.08734397
0.12737745 -0.058462955 -0.07254421 0.060740937 -0.009108041 -0.06348632 0.1205553 0.14046785
0.1540283 -0.13213953 0.0550059 -0.09838146 -0.14732721 -0.049811035 -0.0142777255 -0.005260908

linear_list.2.weight f4 [2, 32]
00000000: 658e b2bd b57a 253e c7b2 97bd af45 c7bb
00000010: ca12 85bd 420b d73d ce25 59be 0a93 c93d
00000020: 4137 2f3e 70d4 783d 04d3 263b 2a0f c83e
00000030: 94a1 113e 608a 4abd 6167 223e f8cb 053e
00000040: d9f1 3bbd cd68 0d3e f43e f13d f987 ddbd
00000050: 51ee 6a3c af48 55bd 715e 5dbd 3d88 9fbe
00000060: 7913 19b8 9b6c 25be 23a3 2e3d da7b 74be
00000070: 2df3 b83d 37b7 323d f355 3ebd b8e3 9a3e
00000080: 1771 8fbe c280 633c ed08 a1bd a149 843c
00000090: 4e12 803d ea6f a7bd 6b04 86be 459e df3d
000000a0: 6302 403d 9ef6 76bd bc5f ecbe 9533 0d3e
000000b0: a298 a73d 3f8f ae3e 88c3 7ebe 2614 f13d
000000c0: 293a a53e d800 d03d 187b 023e c719 003e
000000d0: 9927 c3bd 6190 0dbe a7b1 e93e 4026 0abe
000000e0: d900 973e cbd7 42be 3cc9 513e 8be0 01be
000000f0: 9e3c efbb 612c b93e 968a 1e3e b04c 4cbe
-0.08718566 0.1616009 -0.07407146 -0.006081305 -0.06497724 0.10500194 -0.21205828 0.098424986
0.17110921 0.06074947 0.0025455365 0.3907407 0.14221793 -0.04944837 0.15859748 0.13066089
-0.04588494 0.1380951 0.117795855 -0.1081695 0.014339046 -0.05207127 -0.054045144 -0.3115863
-3.6496178e-05 -0.16154711 0.042636048 -0.2387537 0.09030757 0.04363176 -0.046468686 0.3025186
-0.28015968 0.013885679 -0.078630306 0.01614839 0.06253491 -0.08175643 -0.26175246 0.109188594
0.046877276 -0.060293786 -0.4616679 0.13789208 0.08183409 0.34093663 -0.24879277 0.11771421
0.32270935 0.10156411 0.12742269 0.12509833 -0.09529037 -0.13824607 0.4564335 -0.13491154
0.29492834 -0.19027631 0.20486921 -0.12683313 -0.0073009273 0.3616667 0.15482554 -0.19951129

linear_list.2.bias f4 [2]
00000000: d737 0f3d 8004 4f3e
0.034965362 0.2021656
