prep/g0530-235328_DB_new/models/model6600.ckpt (torch, 7653 bytes, 6 tensors)

linear_list.0.weight f4 [32, 4]
0	0xbd0c19d9	-0.034204338
1	0xbedfe289	-0.4372752
2	0xbf806418	-1.0030546
3	0x3e4e9037	0.20172201
4	0x3d6d5320	0.057940602
5	0x3d8f8c3b	0.07009169
6	0xbe9486e0	-0.2900915
7	0xbee8a233	-0.45436248
8	0xbed67909	-0.41889217
9	0x3f0a2c1d	0.5397356
10	0x3ec6e51c	0.38846672
11	0x3e982c9a	0.29721528
12	0x3df5d9a7	0.120044045
13	0xbe0636bd	-0.13106818
14	0x3ebd331d	0.3695306
15	0x3e97eadb	0.29671368
16	0x3f5b22b3	0.8559982
17	0x3e947e6c	0.29002702
18	0xbe84c1cc	-0.25929105
19	0x3e331f55	0.17492421
20	0x3eb3ef16	0.35143346
21	0x3da1d958	0.07902783
22	0xbed2ff71	-0.4121051
23	0xbe829591	-0.25504735
24	0xbf0a9da4	-0.5414679
25	0xbe0999e2	-0.13437608
26	0x3f84aac2	1.0364611
27	0xbdd5871d	-0.104261614
28	0xbedf97ff	-0.4367065
29	0x3ee721dd	0.45143023
30	0x3ed33632	0.41252285
31	0xbf0b0472	-0.5430366
32	0xbd1d41ee	-0.038392954
33	0x3f01109d	0.50415975
34	0x3ef229a6	0.472974
35	0x3cf37ef4	0.029723622
36	0x3e7f7505	0.24946983
37	0x3ebe8059	0.37207296
38	0x3f190946	0.59779775
39	0x3d36ba1d	0.044611085
40	0x3e8cda81	0.27510455
41	0x3e359440	0.17732334
42	0xbeb2d59b	-0.34928593
43	0xbeaa8397	-0.3330352
44	0x3e20893e	0.15677354
45	0xbdc11c6f	-0.094292514
46	0xbeb3f871	-0.35150483
47	0x3e2bcdb4	0.16777688
48	0xbef71b9c	-0.48263252
49	0xbd8cee7a	-0.06881423
50	0xbe3fc47a	-0.18727294
51	0x3da0c9c6	0.07850985
52	0x3d36c57f	0.04462194
53	0x3e29da27	0.16587125
54	0xbed1ba24	-0.40962327
55	0xbefa0d3b	-0.4883822
56	0x3ea5dad7	0.32393524
57	0xbec2f9eb	-0.38081297
58	0x3f22841e	0.63482845
59	0xbd8a0730	-0.06739652
60	0x3d7eed78	0.062238187
61	0xbea36d53	-0.31919345
62	0xbd95bc52	-0.0731131
63	0xbd432c90	-0.04764992
64	0xbcd299c3	-0.025708085
65	0x3f03d796	0.51500833
66	0x3e1dc6a6	0.1540781
67	0xbecab788	-0.39593148
68	0xbd42a022	-0.047515996
69	0x3eb6ff2e	0.35741562
70	0xbea3daca	-0.3200286
71	0xbead6c93	-0.33871898
72	0xbf30e35e	-0.69096935
73	0x3f4a61a3	0.7905523
74	0x3eb8a535	0.36063543
75	0x3db67fcb	0.08911093
76	0xbe87a116	-0.26490086
77	0x3db7633c	0.08954474
78	0x3e98efa4	0.2987033
79	0xbecf32d8	-0.40468478
80	0x3eb1f102	0.34754187
81	0x3f17e0e2	0.5932752
82	0xbf093976	-0.53603303
83	0xbd8b9e02	-0.06817247
84	0xbebed1e3	-0.37269506
85	0xbf1e57cb	-0.6185271
86	0xbeb5ab4d	-0.35482255
87	0xbeab458b	-0.33451495
88	0x3f8f0a76	1.1175067
89	0xbef2be58	-0.47410846
90	0xbecfd158	-0.40589404
91	0x3d6e7327	0.058215287
92	0xbd49f353	-0.049304318
93	0x3cb92f61	0.0226056
94	0x3ddf7443	0.10910847
95	0xbece80ff	-0.4033279
96	0xbee33f7c	-0.44384372
97	0x3ef524b5	0.47879568
98	0xbe42edc7	-0.19036017
99	0xbe7f04e6	-0.24904212
100	0x3f80b808	1.0056162
101	0xbf33fae2	-0.7030469
102	0xbf267300	-0.65019226
103	0xbe4bc689	-0.19899954
104	0xbecbcd7b	-0.39805207
105	0x3e3ac18e	0.18237898
106	0xbdd8b3dd	-0.10581181
107	0xbe9c0dfc	-0.3047942
108	0xbe03fb10	-0.12888741
109	0x3ed46be1	0.41488555
110	0x3e4a25e7	0.19741021
111	0xbef2df0f	-0.47435805
112	0x3f0233e5	0.50860435
113	0xbf25ad50	-0.6471758
114	0xbf6cbe03	-0.92477435
115	0x3e64f6cd	0.22359772
116	0xbf04a444	-0.5181315
117	0x3d8f3c68	0.069939435
118	0xbe9ffb1b	-0.31246266
119	0x3c4ea832	0.012613343
120	0x3ef5f8a7	0.4804127
121	0xbed66fef	-0.41882274
122	0xbe7c74e4	-0.24653965
123	0x3e5d97d8	0.21639955
124	0xbea1edc0	-0.316267
125	0x3de7c6f8	0.11317247
126	0xbe451f94	-0.19250327
127	0xbec30aac	-0.3809408

linear_list.0.bias f4 [32]
0	0x3f163503	0.5867464
1	0x3e2f4e93	0.17119817
2	0xbecdd4ae	-0.40201324
3	0xbea29f45	-0.31762138
4	0xbe920c8c	-0.28525198
5	0x3e040ad9	0.12894763
6	0xbe04bcaf	-0.12962602
7	0x3e979beb	0.29611143
8	0xbe84ca14	-0.25935423
9	0xbeab031c	-0.3340081
10	0xbe327d60	-0.1743064
11	0x3e1f61cc	0.1556465
12	0xbeeb876f	-0.46001765
13	0x3e4794f1	0.1949041
14	0xbdd01b1a	-0.10161419
15	0xbd791ce8	-0.060818583
16	0xbe1dc8d1	-0.15408637
17	0xbe80c5b8	-0.25150847
18	0x3ec18c32	0.37802273
19	0xbe06b221	-0.13153888
20	0xbeaf10e8	-0.34192586
21	0x3eda8603	0.42680368
22	0xbe6af439	-0.22944726
23	0xbea9478c	-0.33062398
24	0xbe60517f	-0.21906088
25	0x3f1bfda7	0.6093392
26	0x3ebea06a	0.3723176
27	0x3e08b556	0.13350424
28	0xbeda009f	-0.425786
29	0x3d693027	0.056930687
30	0x3e7cb405	0.24678047
31	0xbe88fefc	-0.26757038

linear_list.1.weight f4 [32, 32]
0	0xbe0b5092	-0.13604954
1	0xbe1b7e77	-0.15184961
2	0x3e81a6a0	0.25322437
3	0x3e1fa783	0.15591244
4	0x3e8bfab4	0.2733971
5	0xbd34e771	-0.044166032
6	0xbe4cabfd	-0.19987483
7	0xbd396778	-0.04526469
8	0x3e067ea2	0.13134244
9	0x3e51b13f	0.2047777
10	0xbe1ceb4f	-0.15324138
11	0x3e1dce0a	0.15410629
12	0xbdbd3d5c	-0.09240219
13	0xbb790ab3	-0.0038000762
14	0xbe49d5a3	-0.19710402
15	0x3dc88f28	0.0979293
16	0xbdbf792d	-0.09349284
17	0x3d467d14	0.048459128
18	0x3e2d5ee4	0.16930729
19	0x3e0a2a82	0.13492778
20	0x3e2df26d	0.1698701
21	0xbce6db6c	-0.0281808
22	0xbe1e8ad1	-0.15482642
23	0x3e163153	0.14667253
24	0xbc1cce3d	-0.009570655
25	0xba46c04b	-0.00075817545
26	0xbe133f7c	-0.14379686
27	0xbdd1aa2a	-0.10237534
28	0xbe12ef21	-0.14349033
29	0x3da98648	0.08277565
30	0xbd0aaa47	-0.033853795
31	0x3d3f2665	0.046667475
32	0x3e1ec794	0.1550582
33	0x3e055eeb	0.1302449
34	0xbdd5e624	-0.104442865
35	0xbcf8b803	-0.030361181
36	0x3dd2fd6b	0.10302242
37	0x3d8b46f6	0.06800644
38	0xbb99b9f5	-0.0046913573
39	0x3e1c1e29	0.1524588
40	0x3e216850	0.15762448
41	0xbc8aa5f7	-0.016924841
42	0x3d14d3ac	0.03633468
43	0x3dff4b30	0.12465513
44	0x3d550f6f	0.05201667
45	0x3db242f3	0.08704176
46	0x3d8bdb5f	0.06828951
47	0xbd60c9a4	-0.0548798
48	0xbd5a75af	-0.053334888
49	0xbdb2916a	-0.08719142
50	0xbdba7eff	-0.09106254
51	0x3d553272	0.05205006
52	0xbbc6f638	-0.006071832
53	0x3d3dee16	0.046369635
54	0x3e4de60a	0.20107284
55	0x3da34243	0.07971623
56	0x3e016a60	0.12638235
57	0x3e9f4a34	0.311113
58	0xbde5b532	-0.11216201
59	0x3e203f3e	0.15649125
60	0x3dd7ab3e	0.10530709
61	0xbe2acf96	-0.1668075
62	0x3b864613	0.004097709
63	0x3e06a265	0.13147886
64	0xbe8dd84a	-0.27704078
65	0xbe08eb7b	-0.13371079
66	0x3d984667	0.07435303
67	0xbd4d47e1	-0.050117377
68	0x3d713c52	0.058895417
69	0x3e3ab2cb	0.18232267
70	0x3e46bf14	0.19408828
71	0xbdc20408	-0.09473425
72	0x3e69e04d	0.2283947
73	0x3cb7359d	0.022364432
74	0xbd2eaa77	-0.042643037
75	0xbe0e5e94	-0.13903266
76	0xbd493c24	-0.04912962
77	0xbe12fdb8	-0.14354599
78	0xbd4e5be1	-0.05038059
79	0x3ddbe5e7	0.1073721
80	0x3e0a52db	0.1350817
81	0x3de28730	0.11060941
82	0x3e24e46d	0.16102763
83	0xbe10c660	-0.14138174
84	0x3e88f42a	0.26748782
85	0xbd7bff19	-0.061522577
86	0xbd124c89	-0.03571752
87	0x3cd002f7	0.025392039
88	0xbd5d8322	-0.054080136
89	0x3de7d7fc	0.113204926
90	0xbdfdad91	-0.12386621
91	0xbc80502c	-0.015663229
92	0x3d6475ea	0.055776514
93	0xbde0f076	-0.10983364
94	0xbe65ee88	-0.22454274
95	0xbdb4aef5	-0.08822433
96	0xbdc99fb1	-0.09844912
97	0x3d12e3cd	0.03586178
98	0x3e03072b	0.12795703
99	0xbe58ce16	-0.21172366
100	0x3d225fdc	0.0396422
101	0x3d6dd3dc	0.058063373
102	0xbd55ea40	-0.05222535
103	0x3c7e6e18	0.015529178
104	0xbe02e133	-0.12781219
105	0x3d241073	0.04005475
106	0x3e2800f7	0.16406618
107	0xbe124500	-0.14284134
108	0x3e075371	0.13215424
109	0x3ca2ed72	0.019888613
110	0xbe3cd8b7	-0.18442045
111	0xbcadebdd	-0.021230632
112	0xbdc844f9	-0.097787805
113	0xbdd1acec	-0.1023806
114	0x3de43cf1	0.11144436
115	0xbd2261c2	-0.03964401
116	0x3e63da98	0.22251356
117	0xbdac3d6b	-0.08410152
118	0x3d76db60	0.060267806
119	0x3e103a28	0.14084685
120	0x3d03f059	0.032211635
121	0x3e28da03	0.16489415
122	0xbe218a96	-0.15775523
123	0x3e161fbc	0.14660543
124	0x3dc9194f	0.0981928
125	0x3be57095	0.007001946
126	0x3e05ba67	0.13059388
127	0x3d9444b8	0.072396696
128	0xbd3c06fe	-0.045905106
129	0x3daab905	0.08336071
130	0x3e24cca1	0.16093685
131	0xbd4be24f	-0.04977637
132	0xbda0872c	-0.07838282
133	0x3e0a37be	0.13497826
134	0xbe00f9e0	-0.1259532
135	0x3d7efbcc	0.06225185
136	0xbde9edb6	-0.11422293
137	0x3e4072c3	0.18793778
138	0xbdd4773c	-0.10374305
139	0x3df7aa18	0.1209299
140	0x3d640f6f	0.05567878
141	0x3c0721c9	0.008247801
142	0xbe1ad47e	-0.15120122
143	0x3cdd193b	0.02698957
144	0x3e31de9e	0.17370078
145	0xbe328652	-0.17434052
146	0xbe0eb860	-0.13937521
147	0x3b9eadd6	0.0048425
148	0xbd11e1a4	-0.03561558
149	0xbd43bfb7	-0.047790255
150	0x3cb08942	0.021549825
151	0x3d8e2b0a	0.06941803
152	0xbd1db17c	-0.03849934
153	0x3dd561e8	0.10419065
154	0x3cb5ff8b	0.022216579
155	0x3e1633ac	0.14668149
156	0xbb8573a8	-0.004072625
157	0x3ce1f11a	0.027580786
158	0x3e198cf8	0.14995182
159	0xbc821055	-0.015876928
160	0xbc11466f	-0.00886689
161	0x3d9e8744	0.077406436
162	0x3bf30ccd	0.0074172975
163	0xbe19a39c	-0.15003818
164	0x3dcd8fd8	0.10037202
165	0x3d4c838f	0.04993015
166	0xbe0f62e1	-0.14002563
167	0xbdf5c887	-0.12001138
168	0xbdfe62e1	-0.124212034
169	0xbd6ee827	-0.058326866
170	0x3d5c6288	0.053804904
171	0xbd995267	-0.0748642
172	0xbd18c8af	-0.03730076
173	0xbe213274	-0.15741903
174	0xbdd04413	-0.10169234
175	0x3e0d1776	0.13778481
176	0xbd2786f6	-0.040900193
177	0xbd2346bd	-0.039862383
178	0xbd89e36c	-0.067328304
179	0xbdd02ed9	-0.101651855
180	0x3e0ef1e3	0.1395946
181	0xbe1d4e35	-0.15361865
182	0xbc7c8d94	-0.015414614
183	0x3e20e59e	0.15712592
184	0xbd8efe8b	-0.06982144
185	0xbdcce486	-0.10004525
186	0x3d79fdc2	0.061033018
187	0xbd71c018	-0.059021086
188	0x3e0237f5	0.12716658
189	0xbd57c471	-0.052677575
190	0x3e254eea	0.16143385
191	0x3d1298cf	0.03579026
192	0xbe35806d	-0.17724772
193	0xbdee08a3	-0.11622741
194	0x3d864508	0.065561354
195	0xbe0d5b78	-0.13804424
196	0x3e65b564	0.22432476
197	0xbc580212	-0.013184087
198	0xbdf16586	-0.11786942
199	0xbe028448	-0.12745774
200	0x3e769081	0.24078561
201	0x3d8164c7	0.0631805
202	0x3d62fcff	0.055417057
203	0x3de2babd	0.11070774
204	0x3e111006	0.14166269
205	0x3ce0851c	0.027407221
206	0x3d257cf8	0.040402383
207	0x3e1d310c	0.15350741
208	0xbdf69bab	-0.1204141
209	0xbb8633f4	-0.0040955488
210	0x3e4892a1	0.19587184
211	0x3e28d93b	0.16489117
212	0x3e864daa	0.26231128
213	0xbdea53be	-0.11441754
214	0xbe3c17ee	-0.18368503
215	0xbd4edeac	-0.050505325
216	0xbdc8c222	-0.09802653
217	0x3cf6a40b	0.030107519
218	0xbd70dc03	-0.05880357
219	0xbe0c6427	-0.1371008
220	0xbe81b527	-0.2533352
221	0xbd80ef3b	-0.062956296
222	0xbe2c4306	-0.16822442
223	0xbe2fed51	-0.17180373
224	0x3cf9faab	0.030515036
225	0xbe08a9a0	-0.13345957
226	0x3dea1140	0.114290714
227	0xbdfdd81b	-0.123947345
228	0x3e0d9458	0.1382612
229	0xbe180235	-0.14844592
230	0x3daa3fb6	0.08312933
231	0x3b833545	0.004004153
232	0x3cc470a4	0.023979492
233	0x3e34988f	0.17636321
234	0xbd8233cb	-0.06357535
235	0xbe581997	-0.21103512
236	0x3d1527a2	0.03641475
237	0xbe2283f8	-0.15870655
238	0x3db83593	0.089945935
239	0xbe19bafa	-0.15012732
240	0xbe0dc64a	-0.13845173
241	0x3d812212	0.063053265
242	0xbe202afb	-0.15641396
243	0xbdee1b76	-0.116263315
244	0x3cf4254a	0.029802937
245	0xbde07084	-0.10958961
246	0xbdecea66	-0.115681455
247	0x3e329265	0.17438658
248	0xbdc0d084	-0.09414771
249	0xbd386edd	-0.045027602
250	0x3c1f44fb	0.009721036
251	0xbdb9e290	-0.090764165
252	0xbe2bb614	-0.16768676
253	0x3dbb4c72	0.0914544
254	0x3ccc75cd	0.024958516
255	0x3bfbb2ed	0.0076812417

linear_list.1.bias f4 [32]
0	0xbd79ec33	-0.061016273
1	0xbe3b9e14	-0.18322021
2	0xbe96d4f1	-0.29459336
3	0xbda3f622	-0.080059305
4	0xbe169545	-0.1470538
5	0xbda6b69c	-0.08140299
6	0xbcc301c3	-0.023804551
7	0xbd24a9d6	-0.04020103
8	0xbcab2ae0	-0.020894468
9	0xbdeb8bea	-0.11501296
10	0x3da8cd80	0.08242321
11	0xbdd39db1	-0.103328116
12	0xbdf9e082	-0.122010246
13	0x3e36b5ef	0.1784284
14	0x3d0b660f	0.034032878
15	0x3d8ec586	0.06971268
16	0x3e184d6b	0.14873283
17	0xbdab0948	-0.0835138
18	0xbda4f561	-0.08054615
19	0x3d6acac3	0.057322275
20	0xbc812fbc	-0.015769832
21	0xbce5bf19	-0.028045224
22	0x3e73fe20	0.2382741
23	0xbe1515ef	-0.14559148
24	0x3e60544f	0.21907161
25	0xbe803b47	-0.25045225
26	0x3e23a4ab	0.15980785
27	0xbe925f20	-0.285882
28	0xbe13c070	-0.14428878
29	0x3dada888	0.084794104
30	0x3dd028e0	0.10164046
31	0xbdb1cd17	-0.08681696

linear_list.2.weight f4 [2, 32]
0	0xbd354701	-0.044257168
1	0x3e8229c3	0.25422487
2	0xbedf38b6	-0.43597955
3	0xbe7eb74e	-0.24874613
4	0xbda6ca18	-0.08144015
5	0x3dd68550	0.10474646
6	0xbe922325	-0.28542438
7	0x3e287563	0.1645103
8	0x3e2da5cf	0.16957782
9	0x3e17a996	0.14810786
10	0x3c322f9e	0.010875611
11	0x3f57cb88	0.8429494
12	0x3eaecc5d	0.34140292
13	0x3d104177	0.035218682
14	0x3e5ee51b	0.21767084
15	0x3e534eab	0.20635478
16	0x3eb3fa35	0.3515183
17	0x3e556836	0.20840535
18	0x3e86ca64	0.26326287
19	0xbde2e8e7	-0.11079579
20	0x3c6a858d	0.014314068
21	0xbe282c3f	-0.16423129
22	0xbd4e64b4	-0.050389007
23	0xbf240b7a	-0.6408001
24	0xbcc9ddbf	-0.02464187
25	0xbe501629	-0.20320953
26	0xbcee0e8c	-0.02905967
27	0xbf03adb8	-0.5143695
28	0x3dbac1c1	0.09118987
29	0xbd03563b	-0.032064658
30	0xbe532e82	-0.2062321
31	0x3eba9b5d	0.36446658
32	0xbf187593	-0.59554404
33	0x3d08910e	0.03334146
34	0xbd8ef16f	-0.069796436
35	0x3cd3792d	0.025814617
36	0x3db59376	0.088660166
37	0xbda76c19	-0.08174915
38	0xbebe17d9	-0.3712757
39	0x3dc25c66	0.0949028
40	0x3d44c95c	0.048043594
41	0xbda7848a	-0.08179577
42	0xbf2924f7	-0.6607203
43	0x3d8800c3	0.0664077
44	0x3e08122c	0.13288182
45	0x3f15a61b	0.5845658
46	0xbec709c3	-0.38874635
47	0x3e040948	0.12894166
48	0x3efbeb27	0.49202845
49	0x3def6652	0.11689438
50	0x3e25bde0	0.16185713
51	0x3e044e50	0.12920499
52	0xbdc1b556	-0.09458415
53	0xbe3dbe9e	-0.18529746
54	0x3f2f25b8	0.6841693
55	0xbd88f3e2	-0.06687142
56	0x3ee26a52	0.4422174
57	0xbea012f1	-0.3126445
58	0x3ec38844	0.381899
59	0xbde5bb05	-0.11217312
60	0xbbbe6f7d	-0.0058116303
61	0x3f08ba80	0.53409576
62	0x3e826b8c	0.25472677
63	0xbe8e53b3	-0.27798232

linear_list.2.bias f4 [2]
0	0xbdaddac9	-0.084889956
1	0x3ee4d054	0.44690192
