prep/g0530-235328_DB_new/models/model1600.ckpt (torch, 7653 bytes, 6 tensors)

linear_list.0.weight f4 [32, 4]
000000 21 27 0c be 9f 51 fa be eb 68 fe be d3 74 7c 3e
       -0.13686801 -0.48890397 -0.4968942 0.2465394
000010 c7 12 8f 3d fa e3 a7 3d e2 4e 93 be 39 f8 e5 be
       0.06986003 0.0819778 -0.2877112 -0.4491594
000020 c2 1f 0e bd 9e c5 f9 3e 40 92 a0 3e 69 31 56 3e
       -0.034698255 0.48783582 0.3136158 0.20917286
000030 93 08 4b 3e 86 27 a4 be 30 5a a2 3e a1 de a2 3e
       0.1982749 -0.32061404 0.31709433 0.31810477
000040 b4 89 22 3f d5 68 7a 3e be 02 44 be 38 8e a8 3e
       0.6349137 0.24454053 -0.19141671 0.32921004
000050 bc 11 ba 3e f0 98 cc 3d a8 8e ca be 08 d0 38 be
       0.36341655 0.09990108 -0.39561963 -0.18048108
000060 a4 ea 14 be 40 18 7a be 0c 41 27 3f 75 1b 1f be
       -0.14542633 -0.24423313 0.6533363 -0.15537818
000070 af 61 e4 be e1 77 e8 3e 1d 6b eb 3e 6f b0 ea be
       -0.44605777 0.4540396 0.45980158 -0.45837733
000080 64 b0 17 3e 74 6c ec 3e 68 c9 95 3e 35 7e 01 3e
       0.14813381 0.46176493 0.29255223 0.126458
000090 71 37 8c 3e e7 1c c1 3e bd fd fe 3e 6c ef b3 3d
       0.27386048 0.37717363 0.49802962 0.087859005
0000a0 f5 60 90 3e 9d 63 3c 3e d0 36 af be 10 cb ac be
       0.28198972 0.18397374 -0.34221506 -0.33748674
0000b0 5f 15 4c 3e 43 ad 98 bd 24 c7 3e be 64 3a 8e 3e
       0.19930027 -0.07454922 -0.18630654 0.27778924
0000c0 ec e4 ef be 97 44 ce bd 4d c2 78 be c6 41 8a 3d
       -0.4685434 -0.10071676 -0.2429287 0.067508265
0000d0 4e 76 2e 3d 29 d2 27 3e d9 12 d3 be b2 6e f9 be
       0.042593293 0.16388763 -0.41225317 -0.48717266
0000e0 bd ec 98 3e a0 b7 d8 be b9 93 03 3f f0 4c 96 3d
       0.29868117 -0.42327595 0.5139728 0.073388934
0000f0 07 2c 79 3d d8 c3 93 be 6d c7 cc bc 57 d0 c9 3b
       0.060833003 -0.28860354 -0.024997437 0.0061588692
000100 c5 71 46 bc af c0 fc 3e e1 e0 75 3e c8 27 af be
       -0.012112086 0.49365756 0.24011566 -0.34210038
000110 2c a5 42 bd 93 fe b6 3e d2 da a3 be 87 6c ad be
       -0.0475208 0.357411 -0.32002884 -0.33871862
000120 bf 1e dc be 0c af 03 3f 5b b7 8a 3e af d2 75 3c
       -0.42992207 0.51438975 0.27093014 0.015003844
000130 9a 22 91 be a5 a6 93 3d 84 6b 9d 3e 3a de c8 be
       -0.2834671 0.07209519 0.3074609 -0.39232045
000140 9e 5a b9 3e b0 2c ff 3e 0f 49 c8 be c9 2d 0b 3d
       0.36201948 0.4983878 -0.3911824 0.03397921
000150 87 d8 de be 2a 5d 0f bf 38 b1 0b be b3 a1 06 be
       -0.43524572 -0.5600153 -0.13641822 -0.13147621
000160 c0 f8 37 3f a3 f4 3d be 52 7d ae be 9c 3c 9b 3e
       0.7186394 -0.18550353 -0.34079987 0.3031968
000170 53 f3 49 bd 61 2f b9 3c 43 74 df 3d ff 80 ce be
       -0.049304318 0.0226056 0.10910847 -0.4033279
000180 7c 3f e3 be b5 24 f5 3e c7 ed 42 be e6 04 7f be
       -0.44384372 0.47879568 -0.19036017 -0.24904212
000190 ac a7 1d 3f 53 70 4b be 3d d0 dc be 11 f8 3f bd
       0.6158397 -0.19867067 -0.43127623 -0.046867434
0001a0 e8 98 dc be 28 7d e1 3d 14 ba 05 be 0c 73 8a be
       -0.43085408 0.110102 -0.13059264 -0.270409
0001b0 bb f5 01 be 2d 12 dc 3e cc d9 4a 3e 89 44 ce be
       -0.12691395 0.42982617 0.19809645 -0.40286663
0001c0 8d ac f6 3e 02 c2 6a be cf 3d e6 be 41 9e c9 3e
       0.4817852 -0.2292557 -0.4496903 0.3937855
0001d0 b3 a5 0a bf 61 4a 36 3d dd 01 62 be 0b 2e 1f 3e
       -0.54159087 0.044504527 -0.22071023 0.15544908
0001e0 04 0b c8 3e d2 31 b8 be d0 e8 a3 bd 76 be 11 3e
       0.39070904 -0.3597551 -0.0800339 0.14232811
0001f0 c0 ed a1 be f8 c6 e7 3d 94 1f 45 be ac 0a c3 be
       -0.316267 0.11317247 -0.19250327 -0.3809408

linear_list.0.bias f4 [32]
000000 45 3b df 3e de 23 38 3e e3 89 c7 be f0 fd 04 be
       0.43599907 0.17982432 -0.38972387 -0.12987494
000010 75 ec 30 be a6 48 1a 3e 44 50 a0 3d e0 78 a4 3e
       -0.17277701 0.15066776 0.078278095 0.3212347
000020 c8 1a 1a be ad 43 92 be b0 6b 2f be fa 5a 95 3e
       -0.15049279 -0.28567258 -0.17130923 0.29170972
000030 b3 0c d8 be 0c aa 46 3e a2 ef b1 bd c1 74 c7 bd
       -0.4219719 0.19400805 -0.086882845 -0.09739066
000040 d0 bd 17 be cd c5 80 be ba 1e e6 3e 27 32 f8 bd
       -0.14818501 -0.2515091 0.44945318 -0.12118941
000050 2a 4a ad be fd 7f cd 3e 02 18 3e be 8c 47 a9 be
       -0.33845645 0.4013671 -0.18563846 -0.33062398
000060 7f 51 60 be ec 7b fd 3e f0 0c bb 3e 4d 87 1a 3e
       -0.21906088 0.49508607 0.36533308 0.15090676
000070 dc 02 d5 be e8 d9 ce 3d 60 e0 7e 3e fc fe 88 be
       -0.41603744 0.10100156 0.2489028 -0.26757038

linear_list.1.weight f4 [32, 32]
000000 4d 96 23 be c6 d6 14 be 03 9d 16 3e 98 93 ef 3d
       -0.15975304 -0.14535055 0.14708333 0.11698073
000010 d3 c2 78 3e e4 f5 18 bd 8b ef 45 be 1b cd e5 bc
       0.2429307 -0.037343875 -0.1932966 -0.028051903
000020 92 39 db 3d 76 45 40 3e c0 10 10 be 42 7a 06 3e
       0.1070434 0.18776497 -0.1406889 0.13132575
000030 67 19 d8 bd 96 4f 08 3b 91 b9 05 be 37 5b c9 3d
       -0.1055172 0.002079939 -0.13059069 0.09831851
000040 b1 4d a1 bd e2 7c 46 3d 99 cb e4 3d 82 2a 0a 3e
       -0.078761466 0.04845894 0.11171646 0.13492778
000050 b8 44 10 3e 3e ca f5 bc 3a b3 ea bd 53 31 16 3e
       0.14088714 -0.030003663 -0.11459966 0.14667253
000060 3d ce 1c bc cc 34 8c 3d fb 5d 14 be 4e 9f af bd
       -0.009570655 0.06846008 -0.14488976 -0.08575307
000070 c5 f2 06 be 27 19 64 3d cc 5e 72 bc 65 26 3f 3d
       -0.13178547 0.05568805 -0.014793109 0.046667475
000080 d1 9f 9d 3d 82 c3 06 3e 42 e9 24 bd b0 1a 31 bd
       0.07696498 0.13160518 -0.040261514 -0.04323834
000090 5c 1e 89 3d 26 fe cb 3d 3a 74 32 3c 9c 4c 17 3e
       0.06695244 0.09960584 0.010891968 0.14775318
0000a0 83 7e eb 3d 2e 87 94 bd a2 09 29 3d 4e 51 f5 3d
       0.114987396 -0.07252346 0.041268952 0.11978398
0000b0 18 bf 1d 3d 65 2b b6 3d 77 f5 76 3c d3 13 93 bd
       0.03851232 0.088949956 0.015073172 -0.071815155
0000c0 ce e4 47 bd 37 91 b2 bd 08 8c 0e bd 72 32 55 3d
       -0.04880219 -0.08719104 -0.034801513 0.05205006
0000d0 ba 78 8a 3d f8 25 03 bd 27 8c 0b 3e 43 42 a3 3d
       0.06761308 -0.03201863 0.13627683 0.07971623
0000e0 60 6a 01 3e 10 52 81 3e 71 9b e4 bd 04 df 24 3e
       0.12638235 0.2525792 -0.111624606 0.16100699
0000f0 57 85 bf 3c 51 63 51 be 98 29 99 bc 65 a2 06 3e
       0.023379011 -0.20448042 -0.018696591 0.13147886
000100 a0 df 70 bd a0 b8 09 be 7d 99 49 3d 50 fc 2a 3d
       -0.058807015 -0.13449335 0.049218643 0.04174453
000110 9d 45 96 3d 90 0d 12 3e df b6 1a 3e dc 67 cd bd
       0.073374964 0.14262986 0.15108822 -0.10029575
000120 31 92 48 3e 50 11 46 bc 24 97 42 bd 4f 8f e0 bc
       0.19587018 -0.012089089 -0.04750742 -0.027412085
000130 b7 34 ff bc bd d3 14 be 7d 4d 06 bd dc 73 c8 3d
       -0.031153066 -0.14533897 -0.032788742 0.097877234
000140 71 62 07 3e cd 86 e2 3d 8b 35 2c 3e 37 eb 13 be
       0.13221146 0.110608675 0.168173 -0.14445196
000150 65 62 2d 3e 9b f1 8b bc 44 b1 f4 bc f7 02 d0 3c
       0.16932066 -0.01708298 -0.029869683 0.025392039
000160 22 83 5d bd 55 f3 a2 3d 59 f4 ce bd 81 8e 8e bc
       -0.054080136 0.07956568 -0.10105199 -0.017401936
000170 53 33 84 3d 0d d2 17 bd 14 4b f3 bd f5 ae b4 bd
       0.06455102 -0.037065554 -0.118795544 -0.08822433
000180 c6 69 3c bd 53 ef 0c 3d 11 63 26 3e 76 de 10 be
       -0.04599931 0.034407925 0.16248728 -0.14147362
000190 17 67 05 3d e7 58 0e 3d d4 55 84 bd 43 5c 95 3c
       0.032569017 0.034752753 -0.06461683 0.01823247
0001a0 ca 0e 0b be 29 d6 d3 3c 92 30 23 3e b9 dd d3 bd
       -0.1357986 0.025858955 0.15936497 -0.103450246
0001b0 d0 46 06 3e 3a 33 93 3c 89 20 21 be dd eb ad bc
       0.1311295 0.017968763 -0.15735067 -0.021230632
0001c0 da 09 d3 bd 1d ad d1 bd 47 2d 01 3e c2 61 22 bd
       -0.103046134 -0.10238097 0.12614928 -0.03964401
0001d0 6e 55 2d 3e 80 12 ac bd b1 e9 31 3d 28 3a 10 3e
       0.1692712 -0.08401966 0.043435756 0.14084685
0001e0 59 f0 03 3d cd 2f 05 3e ad 8b 21 be ca d2 11 3e
       0.032211635 0.13006516 -0.15775938 0.14240566
0001f0 98 93 d2 3d 8d 6d 70 3c 00 0d 2b 3e b8 44 94 3d
       0.102820575 0.014674556 0.16704178 0.072396696
000200 d1 f2 15 bd 8a 9b a6 3d d7 49 24 3e 8e 7e 10 bd
       -0.03660852 0.081351355 0.16043793 -0.035276942
000210 82 fc c9 bd db 5b fe 3d 5d 67 ff bd ba 35 5b 3d
       -0.09862615 0.12419864 -0.12470887 0.053518035
000220 ba f2 03 be cb 29 30 3e b6 34 de bd 26 4c ff 3d
       -0.12885562 0.17203443 -0.108498976 0.12465696
000230 6f 0f 64 3d 4c fb ca 3b ec c5 14 be 2d da de 3c
       0.05567878 0.0061945077 -0.14528626 0.027203644
000240 9a 49 25 3e 52 86 32 be 3a 0c 1c be d6 ad 9e 3b
       0.16141358 -0.17434052 -0.15239039 0.0048425
000250 28 02 57 bd 56 b9 43 bd d0 22 89 3c 0a 2b 8e 3d
       -0.05249229 -0.047784172 0.016740233 0.06941803
000260 7c b1 1d bd e2 64 bf 3d 8b ff b5 3c bf 38 0a 3e
       -0.03849934 0.09345414 0.022216579 0.1349821
000270 80 2f 84 3a 6a 57 e3 3c a8 c0 20 3e 55 10 82 bc
       0.0010084957 0.027751643 0.15698493 -0.015876928
000280 dd bb 0c bc 44 87 9e 3d 10 c4 0c 3c a8 70 19 be
       -0.008589712 0.077406436 0.008591667 -0.14984381
000290 80 97 d7 3d 45 6a 50 3d e1 62 0f be 87 c8 f5 bd
       0.10526943 0.050882597 -0.14002563 -0.12001138
0002a0 f0 39 fa bd 79 c1 65 bd b9 72 5c 3d bb 2b 96 bd
       -0.12218082 -0.056092713 0.053820346 -0.0733256
0002b0 af c8 18 bd 74 32 21 be 13 44 d0 bd 76 17 0d 3e
       -0.03730076 -0.15741903 -0.10169234 0.13778481
0002c0 98 bb 26 bd bd 46 23 bd 2e a2 83 bd d9 2e d0 bd
       -0.040706247 -0.039862383 -0.06427418 -0.101651855
0002d0 71 e4 11 3e 35 4e 1d be 93 8b 60 bc 9e e5 20 3e
       0.142473 -0.15361865 -0.013705152 0.15712592
0002e0 8b fe 8e bd f5 64 c9 bd c2 fd 79 3d 57 83 71 bd
       -0.06982144 -0.09833709 0.061033018 -0.058963146
0002f0 f5 37 02 3e 71 c4 57 bd 40 11 27 3e cf 98 12 3d
       0.12716658 -0.052677575 0.16315174 0.03579026
000300 4c de bf bd a6 1b e8 bd 3f db 21 3c 7a 8b cd bd
       -0.09368572 -0.113333985 0.0098789325 -0.10036369
000310 75 5d 52 3e 32 d0 29 bd 5c 5d 18 be b3 9b e4 bd
       0.20543464 -0.041458316 -0.14879364 -0.1116251
000320 cc a4 55 3e 57 d8 8e 3c b8 51 70 3d b1 03 0d 3e
       0.20863646 0.017437143 0.058671683 0.1377094
000330 d5 e5 0a 3e 3d 0b f0 3c 6a bc f5 3d f6 39 1d 3e
       0.13564236 0.029302234 0.11998828 0.15354142
000340 fe e8 eb bd 0f 39 86 bb e6 fe 0d 3e 3b d9 28 3e
       -0.11519049 -0.0040961574 0.13866767 0.16489117
000350 78 72 2a 3e 9b ea e2 bd d2 83 30 be ac de 4e bd
       0.16645229 -0.11079904 -0.17237785 -0.050505325
000360 22 c2 c8 bd c1 95 14 3d 5b 19 71 bd 01 a8 05 be
       -0.09802653 0.03627563 -0.05886207 -0.1305237
000370 5f 55 7a be 23 7b 45 bd 80 7f 00 be 51 ed 2f be
       -0.24446629 -0.048213135 -0.12548637 -0.17180373
000380 d8 64 1e 3d c2 a9 08 be da eb 15 3e 8e e4 e2 bd
       0.03867039 -0.13346007 0.14640751 -0.110787496
000390 52 0b e9 3d 18 1b 19 be 88 f6 d8 3d 98 dc c2 bb
       0.11379112 -0.14951742 0.10593897 -0.005946707
0003a0 4f 96 fd 3a c5 f4 0b 3e 01 8e 82 bd f3 4f 45 be
       0.0019347164 0.13667591 -0.06374741 -0.1926878
0003b0 5b 70 19 3d d5 86 22 be 06 62 6a 3d c3 b1 19 be
       0.037460666 -0.15871747 0.05722239 -0.15009217
0003c0 55 16 1b be 12 22 81 3d 58 db eb bd 02 20 ee bd
       -0.15145238 0.063053265 -0.11516446 -0.11627199
0003d0 99 60 03 3d 56 2d d2 bd db 55 12 be 65 92 32 3e
       0.032074545 -0.102625534 -0.14290564 0.17438658
0003e0 84 d0 c0 bd b4 15 8e bd 10 e8 2b 3c b3 24 d0 bd
       -0.09414771 -0.06937733 0.01049234 -0.1016325
0003f0 f9 b8 2b be 5c 75 da 3d e9 91 9e 3c ed b2 fb 3b
       -0.1676978 0.10666916 0.019356685 0.0076812417

linear_list.1.bias f4 [32]
000000 00 1a ff bc 35 de 2a be 65 60 01 be 6e da 24 bd
       -0.031140327 -0.16686328 -0.12634428 -0.040247373
000010 1c 8b 1e be e2 46 9f bd a5 e3 e9 3b 13 20 b4 bc
       -0.15482754 -0.07777192 0.007137733 -0.02198795
000020 be 36 81 bc 28 a3 c1 bd e5 2b 13 3e 7b b3 52 3d
       -0.015773173 -0.09454948 0.14372213 0.051440697
000030 4b a5 b0 bd 88 c5 f7 3d 10 2e a8 3d 75 53 b0 3d
       -0.08625277 0.12098223 0.08211911 0.08609668
000040 c8 23 03 3e 08 23 78 bd 33 35 8a bd ef a9 6b 3d
       0.12806618 -0.060580283 -0.06748428 0.05753511
000050 78 d5 45 bc 14 33 8d bd ce 38 f1 3d 35 5c f0 3d
       -0.012074821 -0.06894508 0.11778413 0.11736337
000060 6c 4c 1b 3e 5c a0 0d be 14 0f 94 3d fa 90 e7 bd
       0.15165871 -0.13830703 0.072294384 -0.11306949
000070 e1 dd 16 be 73 84 24 bd 33 d2 88 bc a3 95 dd ba
       -0.14733078 -0.040165376 -0.016701793 -0.0016905557

linear_list.2.weight f4 [2, 32]
000000 50 4a ba bd 20 93 27 3e 48 5c dd bd 12 2f d7 bc
       -0.09096205 0.16364717 -0.10808617 -0.026267562
000010 cd 42 8a bd 42 0b d7 3d a4 9b 61 be 08 32 c9 3d
       -0.067510225 0.10500194 -0.22032028 0.09823996
000020 41 37 2f 3e 02 91 83 3d 24 9c f8 bb f5 7c db 3e
       0.17110921 0.064241424 -0.007586973 0.42868772
000030 2f 8e 1b 3e d7 76 e9 bc 73 3c 1f 3e 91 78 07 3e
       0.15190957 -0.02849905 0.15550403 0.13229586
000040 1a e0 30 bc b6 59 0f 3e 32 7d f5 3d 36 ca db bd
       -0.0107956175 0.13999066 0.1198677 -0.10731928
000050 3d 45 6a 3c c9 d8 9f bd 02 8c 9a bd f5 03 b8 be
       0.014298734 -0.0780502 -0.075462356 -0.3594052
000060 18 67 4a bc 7c e0 33 be 1f 78 15 3d 4d 33 8b be
       -0.012353681 -0.17566103 0.03649151 -0.27187577
000070 2d f3 b8 3d e4 81 01 3d d9 4e a7 bd 8e 78 a1 3e
       0.09030757 0.031618014 -0.08169336 0.31537288
000080 90 75 a9 be a5 49 d9 3c e4 aa aa bd 60 19 9b 3c
       -0.33097506 0.026524374 -0.08333376 0.018932998
000090 97 79 90 3d ea 6f a7 bd 8a 29 90 be c3 b8 df 3d
       0.070544414 -0.08175643 -0.28156692 0.109239124
0000a0 63 02 40 3d d1 18 7a bd a8 0b 04 bf a5 22 0a 3e
       0.046877276 -0.061058823 -0.51580286 0.13489778
0000b0 86 f5 c0 3d c4 6a cc 3e 45 e6 92 be 45 c0 f6 3d
       0.0942183 0.39925206 -0.28691307 0.12048391
0000c0 5e 0b c8 3e ef cd d3 3d 82 cc 0f 3e b4 a0 00 3e
       0.39071172 0.10342013 0.14042857 0.12561303
0000d0 01 05 c2 bd 02 e0 0f be 1f d2 03 3f fd 83 fc bd
       -0.09473611 -0.14050296 0.51492494 -0.12329862
0000e0 3e 16 a6 3e e0 00 61 be cc 1a 62 3e 72 34 ff bd
       0.32438844 -0.2197299 0.22080535 -0.12461175
0000f0 da 37 ef bb 2f 06 c9 3e 3c b8 44 3e 2d d1 66 be
       -0.007300359 0.3926253 0.19210905 -0.22540732

linear_list.2.bias f4 [2]
000000 03 dd 0f 3d 46 c0 81 3e
       0.035122883 0.25342005
