prep/g0530-235328_DB_new/models/model7300.ckpt (torch, 7653 bytes, 6 tensors)

linear_list.0.weight f4 [32, 4]
0.016366476 -0.46943763 -1.0428675 0.2219 0.038969487 0.051546115 -0.29513922 -0.45892334
-0.48481342 0.60557115 0.37983674 0.30065343 0.14087385 -0.10646121 0.39016742 0.27313384
0.8833538 0.28938466 -0.24021038 0.17017217 0.3610033 0.08515643 -0.4237562 -0.26800507
-0.6446442 -0.09097405 1.0769359 -0.15758215 -0.42252094 0.46470892 0.41671675 -0.5497893
-0.11621482 0.52945566 0.5006339 0.0041665356 0.21953022 0.3756481 0.63415635 0.044557594
0.28592122 0.18724637 -0.3506951 -0.3287989 0.14848724 -0.121017456 -0.3797305 0.15873389
-0.49205202 -0.062482078 -0.1849733 0.102354996 0.037285335 0.15853035 -0.41088387 -0.49106732
0.3273417 -0.37643683 0.666865 -0.06099001 0.07904523 -0.33977854 -0.099241056 -0.03893013
-0.02653283 0.5147384 0.12894778 -0.40380004 -0.04603835 0.35890895 -0.3198659 -0.33831528
-0.7538095 0.8761707 0.3691498 0.10571431 -0.26381966 0.090920806 0.29753974 -0.40564775
0.35642835 0.60754997 -0.59044486 -0.099744484 -0.35184684 -0.6439713 -0.42530936 -0.33171222
1.1563102 -0.5900442 -0.38369808 0.050121732 -0.049304318 0.0226056 0.10910847 -0.4033279
-0.44384372 0.47879568 -0.19036017 -0.24904212 1.0968564 -0.80866235 -0.66041696 -0.22000548
-0.39541718 0.1836181 -0.11140951 -0.3049882 -0.123305276 0.41827267 0.20636736 -0.48182216
0.54310536 -0.78080744 -1.0591552 0.19599514 -0.5055633 0.06594406 -0.33006334 0.0043995436
0.5032842 -0.43493184 -0.24391723 0.20673618 -0.316267 0.11317247 -0.19250327 -0.3809408
00000000: fd12 863c 215a f0be af7c 85bf c139 633e
00000010: 789e 1f3d 0522 533d 7d1c 97be 00f8 eabe
00000020: 7739 f8be b606 1b3f f679 c23e 3fef 993e
00000030: 3c41 103e 5608 dabd 06c4 c73e 33d8 8b3e
00000040: 7a23 623f 3a2a 943e b6f9 75be 9d41 2e3e
00000050: 6dd5 b83e 7f66 ae3d 93f6 d8be f637 89be
00000060: 6707 25bf 9a50 babd 09d9 893f 375d 21be
00000070: aa54 d8be 54ee ed3e e65b d53e febe 0cbf
00000080: 0902 eebd 688a 073f 8b29 003f 6f87 883b
00000090: 88cc 603e f354 c03e 1258 223f 0682 363d
000000a0: 4464 923e 83bd 3f3e 4f8e b3be 5458 a8be
000000b0: 0a0d 183e 00d8 f7bd 096c c2be 238b 223e
000000c0: 3eee fbbe 35ed 7fbd a469 3dbe 7f9f d13d
000000d0: 82b8 183d c855 223e 5f5f d2be 2d6d fbbe
000000e0: 5599 a73e 54bc c0be aab7 2a3f a9d0 79bd
000000f0: 77e2 a13d 74f7 adbe e53e cbbd 3375 1fbd
00000100: 615b d9bc e5c5 033f e30a 043e e1be cebe
00000110: b592 3cbd eac2 b73e 77c5 a3be a937 adbe
00000120: a9f9 40bf b94c 603f 3401 bd3e bf80 d83d
00000130: 5f13 87be b034 ba3d 2157 983e 10b1 cfbe
00000140: c77d b63e 6588 1b3f 6527 17bf d646 ccbd
00000150: 4525 b4be 4edb 24bf 26c2 d9be 2fd6 a9be
00000160: f901 943f 230d 17bf 1374 c4be 724c 4d3d
00000170: 53f3 49bd 612f b93c 4374 df3d ff80 cebe
00000180: 7c3f e3be b524 f53e c7ed 42be e604 7fbe
00000190: ca65 8c3f 7f04 4fbf 1611 29bf 1e49 61be
000001a0: 1f74 cabe 6206 3c3e ab2a e4bd 6a27 9cbe
000001b0: 7a87 fcbd d627 d63e f751 533e 65b1 f6be
000001c0: f408 0b3f ffe2 47bf 6692 87bf f3b2 483e
000001d0: 996c 01bf ae0d 873d 10fe a8be 0c2a 903b
000001e0: 3cd7 003f 63af debe 70c5 79be a6b2 533e
000001f0: c0ed a1be f8c6 e73d 941f 45be ac0a c3be

linear_list.0.bias f4 [32]
0.6181242 0.15892203 -0.41325957 -0.31410912 -0.29318798 0.13114996 -0.17262307 0.30323237
-0.3093458 -0.34171432 -0.16744104 0.14376515 -0.4615575 0.1899634 -0.07062363 -0.06294559
-0.1560309 -0.25053602 0.3856216 -0.13189796 -0.342087 0.4211649 -0.24765179 -0.33062398
-0.21906088 0.5985444 0.37433827 0.13497987 -0.4548692 0.051631257 0.26649934 -0.26757038
00000000: 633d 1e3f 75bc 223e c296 d3be e9d2 a0be
00000010: bc1c 96be 2d4c 063e 1ac4 30be 4641 9b3e
00000020: 9362 9ebe 2ef5 aebe aa75 2bbe 2c37 133e
00000030: 4451 ecbe c485 423e 1fa3 90bd 9ee9 80bd
00000040: 90c6 1fbe 4246 80be 3270 c53e 4210 07be
00000050: 0726 afbe eda2 d73e 6e98 7dbe 8c47 a9be
00000060: 7f51 60be 353a 193f 44a9 bf3e 2a38 0a3e
00000070: 9ee4 e8be 4c7b 533d 9a72 883e fcfe 88be

linear_list.1.weight f4 [32, 32]
-0.11824832 -0.15207025 0.2585946 0.15859126 0.28082654 -0.043393895 -0.21508545 -0.047940873
0.13255447 0.20751469 -0.15440248 0.16423589 -0.088563524 -0.0042494265 -0.20428553 0.097981445
-0.095236324 0.048444502 0.17052244 0.13492778 0.17534815 -0.028211927 -0.16151027 0.14667253
-0.009570655 -0.006370416 -0.14382777 -0.104590125 -0.1430115 0.08533223 -0.023857282 0.046667475
0.14269242 0.12951127 -0.10784675 -0.031175558 0.114121504 0.057386577 -0.011279544 0.15921748
0.17866558 0.0057351515 0.029932074 0.12042097 0.05742761 0.08372961 0.07926712 -0.051366765
-0.053252175 -0.087322436 -0.095923014 0.05205006 -0.020327369 0.05059659 0.21224816 0.07971623
0.12638235 0.3126689 -0.11279539 0.15809418 0.12912798 -0.16454543 -0.010370065 0.13147886
-0.31193483 -0.13240488 0.089067236 -0.06632976 0.055239134 0.20096289 0.21305692 -0.10470721
0.2453065 0.030153798 -0.031278294 -0.15220192 -0.033860963 -0.13765049 -0.04847991 0.1116632
0.13501263 0.11084579 0.15978979 -0.14024563 0.28784624 -0.057460118 -0.021919899 0.025392039
-0.054080136 0.14013827 -0.12553333 -0.018443309 0.055776514 -0.097090416 -0.26022372 -0.08822433
-0.10529241 0.036669564 0.12298684 -0.22892258 0.03287644 0.069220416 -0.0428386 0.009824707
-0.12968472 0.032855358 0.17099597 -0.15355735 0.13689701 0.023475368 -0.1919811 -0.021230632
-0.09619326 -0.102235645 0.10685497 -0.03964401 0.2347523 -0.08410718 0.0711172 0.14084685
0.032211635 0.18179193 -0.15775277 0.14665323 0.0981928 0.017522229 0.111695856 0.072396696
-0.051077034 0.08365415 0.1595344 -0.055430356 -0.06979983 0.1390994 -0.12725632 0.062104736
-0.112455726 0.1915232 -0.101353765 0.11891329 0.055677146 0.009475788 -0.15451181 0.026533429
0.17569377 -0.17429249 -0.13615695 0.0048425 -0.02932664 -0.047791343 0.023605514 0.06941803
-0.03849934 0.10818945 0.022216579 0.14834245 -0.0071476977 0.02754123 0.14661874 -0.015876928
-0.00895367 0.07739735 0.007161785 -0.14997528 0.0982119 0.04920668 -0.14002563 -0.120038226
-0.12496947 -0.05927114 0.05350641 -0.07537321 -0.03730076 -0.15752578 -0.10169234 0.13778481
-0.041353483 -0.03987128 -0.06849701 -0.101651855 0.13809483 -0.15361865 -0.016201857 0.15712592
-0.06982144 -0.10097226 0.061033018 -0.059357416 0.12716658 -0.052677575 0.16086595 0.03579026
-0.19067134 -0.11560387 0.07200841 -0.14522065 0.2285213 -0.002011435 -0.11987032 -0.13578059
0.25257105 0.078856945 0.06128446 0.104266115 0.15005356 0.030526979 0.03751383 0.15350741
-0.121412344 -0.003970232 0.19603729 0.16489117 0.27707067 -0.11538277 -0.17578696 -0.050505325
-0.09802653 0.04304589 -0.058923308 -0.13991654 -0.2533352 -0.05263004 -0.17867981 -0.17180373
0.03050751 -0.13346882 0.10979075 -0.13245948 0.1557601 -0.1459024 0.072604984 0.011797768
0.03350883 0.18752311 -0.0632079 -0.21109894 0.03552922 -0.1588088 0.08952462 -0.15012732
-0.13101211 0.063053265 -0.15288024 -0.116263315 0.037711423 -0.10981796 -0.11171072 0.17438658
-0.09414771 -0.040464036 0.0097201 -0.08286386 -0.16768676 0.09052817 0.021539371 0.0076812417
00000000: 2d2c f2bd 4eb8 1bbe 8366 843e bf65 223e
00000010: 7fc8 8f3e ccbd 31bd 5c3f 5cbe a65d 44bd
00000020: 5cbc 073e bb7e 543e af1b 1ebe 742d 283e
00000030: cb60 b5bd c63e 8bbb 3a30 51be 7faa c83d
00000040: 430b c3bd be6d 463d 6f9d 2e3e 822a 0a3e
00000050: 778e 333e b31c e7bc f362 25be 5331 163e
00000060: 3dce 1cbc ecbe d0bb 9647 13be 5933 d6bd
00000070: 9b71 12be aac2 ae3d 5970 c3bc 6526 3f3d
00000080: f61d 123e 9a9e 043e c2de dcbd e263 ffbc
00000090: 89b8 e93d 300e 6b3d d6cd 38bc e809 233e
000000a0: 1cf4 363e f0ed bb3b 1c34 f53c 459f f63d
000000b0: 3739 6b3d 6e7a ab3d cd56 a23d f565 52bd
000000c0: f41e 5abd 1bd6 b2bd 4973 c4bd 7232 553d
000000d0: 9585 a6bc 5f3e 4f3d 9557 593e 4342 a33d
000000e0: 606a 013e 2316 a03e 4501 e7bd 71e3 213e
000000f0: 203a 043e 997e 28be 35e7 29bc 65a2 063e
00000100: ecb5 9fbe 2595 07be e268 b63d e6d7 87bd
00000110: 6e42 623d 37c9 4d3e 982b 5a3e bc70 d6bd
00000120: a131 7b3e 1905 f73c ab1d 00bd d2da 1bbe
00000130: cbb1 0abd 40f4 0cbe df92 46bd adaf e43d
00000140: c040 0a3e 1e03 e33d ef9f 233e 8d9c 0fbe
00000150: 9560 933e 4d5b 6bbd 5c91 b3bc f702 d03c
00000160: 2283 5dbd 6880 0f3e cf8b 00be 6c16 97bc
00000170: ea75 643d 57d7 c6bd 0b3c 85be f5ae b4bd
00000180: 8ca3 d7bd d332 163d 86e0 fb3d ae6a 6abe
00000190: 72a9 063d 6fc3 8d3d 8777 2fbd cff7 203c
000001a0: 12cc 04be 5793 063d 9119 2f3e 233e 1dbe
000001b0: bb2e 0c3e 6a4f c03c b296 44be ddeb adbc
000001c0: f900 c5bd ec60 d1bd c7d6 da3d c261 22bd
000001d0: e862 703e 6340 acbd e5a5 913d 283a 103e
000001e0: 59f0 033d aa27 3a3e f189 21be 442c 163e
000001f0: 4f19 c93d c78a 8f3c ccc0 e43d b844 943d
00000200: 2736 51bd de52 ab3d fc5c 233e f10a 63bd
00000210: 37f3 8ebd 1370 0e3e 7b4f 02be 8961 7e3d
00000220: 304f e6bd a81e 443e 9092 cfbd d088 f33d
00000230: b80d 643d 5640 1b3c 5838 1ebe a25c d93c
00000240: 11e9 333e bb79 32be ba6c 0bbe d6ad 9e3b
00000250: 6c3e f0bc dbc0 43bd 5a60 c13c 0a2b 8e3d
00000260: 7cb1 1dbd 6e92 dd3d 8bff b53c 15e7 173e
00000270: 3c37 eabb 259e e13c 3923 163e 5510 82bc
00000280: 6ab2 12bc 8082 9e3d 68ad ea3b 1f93 19be
00000290: 5223 c93d f28c 493d e162 0fbe 9ad6 f5bd
000002a0: feef ffbd 4bc6 72bd 8a29 5b3d 455d 9abd
000002b0: afc8 18bd 704e 21be 1344 d0bd 7617 0d3e
000002c0: 4562 29bd 1150 23bd 2948 8cbd d92e d0bd
000002d0: bb68 0d3e 354e 1dbe c2b9 84bc 9ee5 203e
000002e0: 8bfe 8ebd 8bca cebd c2fd 793d c320 73bd
000002f0: f537 023e 71c4 57bd 0bba 243e cf98 123d
00000300: 593f 43be b9c1 ecbd 2579 933d b9b4 14be
00000310: 7d01 6a3e 48d2 03bb 927e f5bd 110a 0bbe
00000320: fe50 813e c07f a13d 6a05 7b3d 7989 d53d
00000330: a4a7 193e b713 fa3c 1aa8 193d 0c31 1d3e
00000340: 09a7 f8bd b818 82bb 00be 483e 3bd9 283e
00000350: 35dc 8d3e cd4d ecbd 7f01 34be acde 4ebd
00000360: 22c2 c8bd e350 303d 9159 71bd 4846 0fbe
00000370: 27b5 81be 9992 57bd d7f7 36be 51ed 2fbe
00000380: e3ea f93c 0dac 08be f9d9 e03d 75a3 07be
00000390: 937f 1f3e 7067 15be ecb1 943d 6d4b 413c
000003a0: 8e40 093d 0f06 403e 2573 81bd 522a 58be
000003b0: 1687 113d c69e 22be af58 b73d faba 19be
000003c0: 0a28 06be 1222 813d a38c 1cbe 761b eebd
000003d0: 4b77 1a3d 3de8 e0bd 97c8 e4bd 6592 323e
000003e0: 84d0 c0bd 9ebd 25bd 0e41 1f3c 87b4 a9bd
000003f0: 14b6 2bbe d566 b93d 5673 b03c edb2 fb3b

linear_list.1.bias f4 [32]
-0.05793107 -0.2065839 -0.33362103 -0.097014256 -0.14536642 -0.08284394 -0.037127886 -0.036819573
-0.022906257 -0.11882703 0.07635236 -0.20881325 -0.15358904 0.18655138 0.024849491 0.06578908
0.16812436 -0.094668336 -0.099340454 0.064811155 -0.015769629 -0.022726921 0.25197238 -0.21863525
0.22005443 -0.26850772 0.16125774 -0.33653834 -0.14189705 0.0880247 0.11816991 -0.11884686
00000000: 2149 6dbd bb8a 53be 60d0 aabe 69af c6bd
00000010: efda 14be 15aa a9bd 6913 18bd 1fd0 16bd
00000020: e7a5 bbbc 965b f3bd a05e 9c3d 24d3 55be
00000030: 7246 1dbe 5307 3f3e 2991 cb3c 6dbc 863d
00000040: cb28 2c3e 79e1 c1bd 0273 cbbd b6bb 843d
00000050: 4f2f 81bc cf2d babc 8602 813e ebe1 5fbe
00000060: f355 613e d879 89be c020 253e c14e acbe
00000070: 764d 11be 4b46 b43d 1103 f23d fc65 f3bd

linear_list.2.weight f4 [2, 32]
-0.049643893 0.2673483 -0.4880412 -0.29394668 -0.086155966 0.10419964 -0.3003056 0.17324898
0.17119661 0.16187385 0.0141565185 0.8828553 0.3920515 0.05108223 0.2234391 0.2211676
0.37616813 0.21874197 0.28906444 -0.11200106 0.014314831 -0.16580434 -0.06924541 -0.6996469
-0.029590467 -0.21538827 -0.05464317 -0.57529426 0.096905924 -0.025881283 -0.22220889 0.3465344
-0.62468237 0.036708727 -0.06081622 0.02582285 0.09080918 -0.082115054 -0.38418385 0.09127322
0.048758842 -0.0848028 -0.68040466 0.076376475 0.1369333 0.59819233 -0.40089685 0.1310407
0.49934205 0.12133215 0.16650717 0.12998182 -0.09458415 -0.18898049 0.6975774 -0.05700593
0.4526732 -0.31265354 0.39802927 -0.106860004 -0.0053324127 0.5542034 0.2678849 -0.27955848
00000000: 6557 4bbd e0e1 883e 89e0 f9be 2e80 96be
00000010: 8a72 b0bd 9f66 d53d a8c1 99be 2e68 313e
00000020: 2a4e 2f3e 42c2 253e bef0 673c ce02 623f
00000030: f9ba c83e 9a3b 513d 38cd 643e c279 623e
00000040: 1c99 c03e e5fd 5f3e 4100 943e d060 e5bd
00000050: c188 6a3c 9dc8 29be 8ad0 8dbd 0f1c 33bf
00000060: b567 f2bc be8e 5cbe 84d1 5fbd 7c46 13bf
00000070: 9d76 c63d fc04 d4bc ba8a 63be f56c b13e
00000080: 2feb 1fbf e45b 163d 6e1a 79bd 718a d33c
00000090: 2afa b93d f02b a8bd bfb3 c4be 74ed ba3d
000000a0: 5ab7 473d 17ad adbd 002f 2ebf 456b 9c3d
000000b0: 3e38 0c3e 2223 193f 5a42 cdbe 892f 063e
000000c0: c3a9 ff3e fe7c f83d db80 2a3e f419 053e
000000d0: 56b5 c1bd 1a84 41be 6f94 323f 0d7f 69bd
000000e0: c8c4 e73e 2014 a0be 7eca cb3e 6bd9 dabd
000000f0: 85bb aebb 46e0 0d3f 3628 893e 4a22 8fbe

linear_list.2.bias f4 [2]
-0.09639141 0.43927813
00000000: dc68 c5bd 10e9 e03e
