prep/g0530-235328_DB_new/models/model6800.ckpt (torch, 7653 bytes, 6 tensors)

linear_list.0.weight f4 [32, 4]
00000000: baf1 adbc 6fb2 e4be 0e75 82bf 4174 563e
00000010: 371a 5c3d 551e 873d 4732 95be 3831 e9be
00000020: 9e66 debe 874e 0f3f 26de c63e f25d 993e
00000030: 795a fd3d 5e6f 00be 7fa5 bf3e 85f9 963e
00000040: c315 5d3f becf 943e 9cde 81be 921f 2f3e
00000050: d20c b43e 5920 a23d b004 d5be 06d9 83be
00000060: ff18 11bf e20d fcbd 2578 863f 4748 d9bd
00000070: 118d ddbe 48c9 e83e 8f6e d33e b28c 0bbf
00000080: d93e 77bd 76cc 023f 5450 f73e a590 af3c
00000090: 74fb 7a3e 15d4 c03e d8da 1b3f 81eb 2c3d
000000a0: a4aa 8e3e 7f39 393e 40bf b2be a185 a9be
000000b0: 5624 1d3e ac74 d2bd f810 b8be 66a1 2b3e
000000c0: bf75 f8be 3ccd 89bd 2637 3ebe f89d ae3d
000000d0: 59f2 303d 3c57 283e e6d2 d1be 7568 fabe
000000e0: 9c0a a63e be0b c3be 5241 243f 8be7 8dbd
000000f0: e4be 873d 1164 a6be b60e a5bd 2f27 39bd
00000100: 590c d4bc 4c05 043f df02 163e a880 cbbe
00000110: 97a1 42bd fcfe b63e c1da a3be a46c adbe
00000120: 016b 35bf 0857 503f 6af8 b93e cc29 c23d
00000130: 0881 87be f400 b83d a0cd 983e 4450 cfbe
00000140: d742 b13e 449a 183f 1287 0dbf d4a2 9bbd
00000150: a1ba bbbe 0950 20bf 4938 c0be 1e7e abbe
00000160: 35c5 903f b437 00bf ccaf cbbe 72b8 5a3d
00000170: 53f3 49bd 612f b93c 4374 df3d ff80 cebe
00000180: 7c3f e3be b524 f53e c7ed 42be e604 7fbe
00000190: a0b3 833f 43ff 3bbf 64d2 26bf 6c8b 52be
000001a0: de2f cbbe 8e6b 3b3e b15f dbbd 1b53 9cbe
000001b0: 93f3 00be 9096 d53e 1543 4d3e b169 f3be
000001c0: 2410 033f 1536 30bf b195 75bf bf2b 5f3e
000001d0: 72be 03bf 60d4 8b3d e6bf a2be 09b9 253c
000001e0: fdd5 f73e bab7 dabe 76b9 7dbe 9f1c 5d3e
000001f0: c0ed a1be f8c6 e73d 941f 45be ac0a c3be
-0.021233428 -0.44667384 -1.0191972 0.20942785 0.053735938 0.06597582 -0.2913992 -0.45545363
-0.43437666 0.559792 0.3884136 0.29954487 0.12370772 -0.12542483 0.3743095 0.29487243
0.8636133 0.29064745 -0.2536515 0.17101887 0.3516603 0.07916326 -0.4160514 -0.25751513
-0.56678766 -0.123073354 1.0505415 -0.10609489 -0.43271688 0.45466065 0.41295287 -0.5451156
-0.06036267 0.5109323 0.48303473 0.021431277 0.24509984 0.37661806 0.60880804 0.04221678
0.27864563 0.1808834 -0.34911537 -0.33109763 0.15345892 -0.1027616 -0.35950446 0.16760787
-0.48527333 -0.067285985 -0.18575725 0.08526224 0.04319987 0.16439527 -0.40981215 -0.4890782
0.3242997 -0.38094896 0.6416217 -0.06928929 0.06628206 -0.3249822 -0.080594465 -0.045203384
-0.025884794 0.5157058 0.14649533 -0.39746594 -0.047517385 0.35741413 -0.32002833 -0.3387195
-0.708664 0.813828 0.36322337 0.09480628 -0.2646563 0.08984557 0.2984438 -0.40490925
0.34621307 0.5961039 -0.55284226 -0.075994164 -0.36665824 -0.62622124 -0.37542942 -0.33494657
1.1310183 -0.50084996 -0.3978256 0.053398557 -0.049304318 0.0226056 0.10910847 -0.4033279
-0.44384372 0.47879568 -0.19036017 -0.24904212 1.0289192 -0.73436373 -0.6516478 -0.20560998
-0.39684957 0.18302748 -0.10711611 -0.30532154 -0.12592916 0.41716433 0.20045121 -0.47541574
0.51196504 -0.6883252 -0.95931536 0.21794032 -0.5146247 0.06827617 -0.31787032 0.010114917
0.48405448 -0.42718297 -0.24777779 0.2159295 -0.316267 0.11317247 -0.19250327 -0.3809408

linear_list.0.bias f4 [32]
00000000: d199 183f b181 2c3e 8ed1 cebe 37e9 a2be
00000010: 3c4d 93be 0197 033e f09e 0ebe c537 983e
00000020: 4aaf 8abe dc2a abbe fdfa 2fbe c841 1b3e
00000030: 5987 ebbe 9a8e 463e 8cb8 c3bd 5239 7abd
00000040: fcf6 1dbe ddc5 80be 1d5f c13e 44c2 06be
00000050: 30cb afbe 0ba4 d93e e281 6dbe 8c47 a9be
00000060: 7f51 60be 4a51 1c3f cabe be3e a127 0a3e
00000070: 0a6c dcbe 5ed3 633d a652 7f3e fcfe 88be
0.59609705 0.16846348 -0.40394253 -0.31818554 -0.28769863 0.12850572 -0.13927817 0.2973005
-0.2708686 -0.33431137 -0.17185588 0.15161812 -0.460017 0.19390336 -0.09556684 -0.06108982
-0.15426248 -0.25150958 0.37767878 -0.13160044 -0.34334707 0.42507967 -0.23194078 -0.33062398
-0.21906088 0.6106154 0.37254936 0.1349168 -0.43051177 0.055621497 0.24933872 -0.26757038

linear_list.1.weight f4 [32, 32]
00000000: 2ce7 06be 8090 1bbe aedb 823e 494a 213e
00000010: 2ca9 8c3e ec97 35bd 8969 50be 93f2 3cbd
00000020: e39e 063e 6021 523e 8c66 1dbe a86f 203e
00000030: 71aa babd 1c1e 82bb 54c4 4bbe 8792 c83d
00000040: ddf9 c0bd 1f7f 463d 192f 2e3e 822a 0a3e
00000050: 15bd 2e3e 41ef e6bc d9a6 20be 5331 163e
00000060: 3dce 1cbc 05e4 3dbb 3140 13be 2a67 d3bd
00000070: d2fc 12be 7e4e ab3d c3c7 febc 6526 3f3d
00000080: c857 1c3e 6442 053e 0fb1 d9bd d22f 00bd
00000090: 8a40 d93d 19c6 853d 811d b6bb 22fa 1d3e
000000a0: e561 273e fea2 2dbc af01 103d ec4b fc3d
000000b0: 3d54 5c3d 0348 b13d 5bf0 913d a4ea 5bbd
000000c0: fd34 59bd 0193 b2bd 0830 bebd 7232 553d
000000d0: a396 20bc d4d0 453d 2151 513e 4342 a33d
000000e0: 606a 013e e6e1 9f3e f40b e6bd b7f1 203e
000000f0: dd17 e63d 9905 2abe 1f23 97b9 65a2 063e
00000100: 1b3d 93be 84ba 08be 3eb2 a23d f0ae 63bd
00000110: 9cc3 683d 4d79 3f3e 7a93 4a3e 0621 c7bd
00000120: e3b1 6e3e 71e9 c33c ad5c 26bd c8ea 11be
00000130: 7548 3cbd a225 12be c7d7 53bd 1eeb dd3d
00000140: 7ecf 093e f389 e23d 9a89 263e f27b 10be
00000150: 1df1 8b3e 423c 7abd d1f3 08bd f702 d03c
00000160: 2283 5dbd fb53 f43d ca6c febd 4fe8 89bc
00000170: ea75 643d 1015 dbbd dc9a 70be f5ae b4bd
00000180: c690 cebd 575e 133d 22d0 013e d3c4 5dbe
00000190: f640 1d3d d915 793d cdd7 4bbd c44c 663c
000001a0: 8a0a 03be 99e3 1e3d 8145 293e 1b32 15be
000001b0: 8b4b 083e 7308 a73c 1e03 3fbe ddeb adbc
000001c0: 34e4 c7bd 6aab d1bd 4141 e33d c261 22bd
000001d0: e577 673e 8c3e acbd fd55 803d 283a 103e
000001e0: 59f0 033d 5bcf 2c3e 5c8a 21be 71e5 153e
000001f0: 4f19 c93d f1fc 1c3c 6b6c 003e b844 943d
00000200: 7371 41bd f5d2 aa3d 19a2 243e dd85 51bd
00000210: 3bce 9bbd a12e 0b3e 9870 01be 6e5e 7f3d
00000220: fd4e e8bd 2ec2 413e 5c87 d3bd da9e f63d
00000230: 550f 643d e64e 0a3c c07c 1bbe 9e0a dc3c
00000240: 7b7a 323e 2886 32be 818e 0dbe d6ad 9e3b
00000250: eea9 0bbd 1bc0 43bd 2497 b43c 0a2b 8e3d
00000260: 7cb1 1dbd cf0d d73d 8bff b53c b0b9 163e
00000270: 8489 a3bb 7dd4 e13c 75a7 183e 5510 82bc
00000280: 2bbf 12bc 4487 9e3d 36f0 e93b b6a8 19be
00000290: 0a84 ca3d a7f4 4a3d e162 0fbe 87c8 f5bd
000002a0: f676 ffbd 019e 71bd 6d2c 5c3d 9c21 9abd
000002b0: afc8 18bd 3133 21be 1344 d0bd 7617 0d3e
000002c0: 9a1d 28bd bd46 23bd acb8 8bbd d92e d0bd
000002d0: 5502 0e3e 354e 1dbe db65 82bc 9ee5 203e
000002e0: 8bfe 8ebd 5106 cebd c2fd 793d 5713 72bd
000002f0: f537 023e 71c4 57bd 83d1 243e cf98 123d
00000300: 1eb7 39be bfe2 edbd 50f5 8c3d 317e 0ebe
00000310: 5c08 663e ee53 2cbc f50c eebd 6ae6 04be
00000320: bdba 793e 74ff 883d b2d2 663d b84f df3d
00000330: fc47 133e 53bb e33c 2951 213d 0c31 1d3e
00000340: b307 f8bd e110 86bb fab6 4a3e 3bd9 283e
00000350: 9346 883e 8c97 eabd 3a8c 3abe acde 4ebd
00000360: 22c2 c8bd 949d 063d 7ee8 70bd c392 0dbe
00000370: 27b5 81be 5cf1 75bd 9505 2fbe 51ed 2fbe
00000380: 0cec f93c 13a7 08be e39e e73d a60b 01be
00000390: 90db 123e a053 17be f37c a43d b2b6 c73b
000003a0: 22b9 de3c 15b3 383e 23f0 81bd 6b70 58be
000003b0: 2a46 143d 1e7d 22be ad47 b93d faba 19be
000003c0: 8782 0bbe 1222 813d 0011 1fbe 761b eebd
000003d0: ec6b 023d ff9c e0bd 0a8c e9bd 6592 323e
000003e0: 84d0 c0bd b06b 32bd fb44 1f3c 124b b5bd
000003f0: 14b6 2bbe 46b0 ba3d e5ad c53c edb2 fb3b
-0.13174123 -0.15191841 0.25558227 0.15750994 0.27472818 -0.044334337 -0.20352758 -0.046129774
0.13146548 0.20520544 -0.1537115 0.15667593 -0.0911454 -0.0039708745 -0.19899112 0.09793573
-0.09422658 0.048461076 0.17010154 0.13492778 0.17064317 -0.028190257 -0.15688647 0.14667253
-0.009570655 -0.0028975022 -0.14379956 -0.10322411 -0.14354256 0.083645806 -0.031101113 0.046667475
0.15267861 0.13013607 -0.10629474 -0.031295605 0.10608013 0.06531925 -0.0055577164 0.1542745
0.16345938 -0.010597942 0.035157856 0.123191684 0.053791273 0.08656313 0.07125922 -0.053690568
-0.05302905 -0.08719445 -0.09286505 0.05205006 -0.00980154 0.048294857 0.20441104 0.07971623
0.12638235 0.31227034 -0.11232749 0.15717207 0.1123502 -0.16603698 -0.00028827132 0.13147886
-0.28757557 -0.133524 0.07944153 -0.055586755 0.056827173 0.18698616 0.1978282 -0.097230956
0.23310046 0.023915024 -0.040615726 -0.14249718 -0.045967538 -0.14272168 -0.051719453 0.10835861
0.13458058 0.11061468 0.16263428 -0.14109781 0.27332392 -0.061092623 -0.033435646 0.025392039
-0.054080136 0.119300805 -0.124230936 -0.016834406 0.055776514 -0.10697377 -0.23496574 -0.08822433
-0.10086207 0.03597864 0.12677053 -0.21657114 0.03839203 0.06081185 -0.04976635 0.014056388
-0.12796989 0.038791273 0.1653042 -0.14569895 0.13310067 0.020389771 -0.18653533 -0.021230632
-0.09760323 -0.10237773 0.110964306 -0.03964401 0.2260433 -0.08410367 0.06266401 0.14084685
0.032211635 0.16875975 -0.15775436 0.14638306 0.0981928 0.00958179 0.12541358 0.072396696
-0.047227334 0.08341018 0.1607746 -0.051153053 -0.07607695 0.13592006 -0.12640607 0.062345915
-0.11343191 0.1892173 -0.10328552 0.12042017 0.055678684 0.008441662 -0.15184307 0.026860531
0.17429535 -0.17433989 -0.13823892 0.0048425 -0.034097604 -0.047790628 0.022044726 0.06941803
-0.03849934 0.10500681 0.022216579 0.14719272 -0.0049907584 0.027567143 0.1490763 -0.015876928
-0.008956711 0.077406436 0.007139231 -0.15005764 0.09888466 0.049549725 -0.14002563 -0.12001138
-0.12473862 -0.058988575 0.053753305 -0.07525942 -0.03730076 -0.15742184 -0.10169234 0.13778481
-0.041043855 -0.039862383 -0.06822333 -0.101651855 0.13868077 -0.15361865 -0.01591771 0.15712592
-0.06982144 -0.100597985 0.061033018 -0.059100475 0.12716658 -0.052677575 0.16095547 0.03579026
-0.1813626 -0.11615514 0.06882727 -0.13915326 0.22464126 -0.010518057 -0.11623565 -0.12978521
0.24387641 0.06689349 0.05635328 0.10903877 0.14382929 0.027799284 0.03938404 0.15350741
-0.121108435 -0.0040913676 0.19796363 0.16489117 0.26616344 -0.114546865 -0.18217555 -0.050505325
-0.09802653 0.032865122 -0.05881547 -0.13825516 -0.2533352 -0.06004463 -0.17091973 -0.17180373
0.030508064 -0.13344984 0.11309602 -0.126021 0.14341569 -0.14777994 0.08031645 0.006094777
0.027187888 0.18037064 -0.063446306 -0.21136634 0.036199726 -0.15868041 0.09046874 -0.15012732
-0.13624011 0.063053265 -0.15533829 -0.116263315 0.031841204 -0.10967445 -0.114036635 0.17438658
-0.09414771 -0.04355973 0.009721036 -0.08852209 -0.16768676 0.09115653 0.024130771 0.0076812417

linear_list.1.bias f4 [32]
00000000: ad22 77bd 1bd0 41be 036f 9cbe 0c8a acbd
00000010: 1cf7 15be a0e5 a8bd ce1b d9bc 245d 1fbd
00000020: 7d5b adbc b3ab edbd c228 a53d 577c 05be
00000030: 34c6 06be 708a 383e 4c21 043d f192 8e3d
00000040: 667d 1e3e 0332 b0bd 1730 aebd 9576 6f3d
00000050: bc2f 81bc 17e9 dabc c91b 773e 1e34 29be
00000060: f9d6 603e 599c 82be aa77 243e 4780 98be
00000070: 7e98 12be 5ce1 b33d 0293 d93d 9b32 c2bd
-0.060335804 -0.18927042 -0.30553445 -0.08424768 -0.14645046 -0.082469225 -0.026502516 -0.038907185
-0.02116179 -0.11605015 0.080644146 -0.13035713 -0.13161546 0.1802156 0.032258317 0.069616206
0.15477523 -0.08603289 -0.08505266 0.058462698 -0.015769832 -0.026722474 0.24131693 -0.16523787
0.21957006 -0.2550991 0.16061273 -0.29785368 -0.14315984 0.08783218 0.10623743 -0.094823085

linear_list.2.weight f4 [2, 32]
00000000: f7c8 3fbd 29df 843e 8d2d e7be 0765 85be
00000010: e31a a8bd 7732 d63d df8c 94be d297 2b3e
00000020: 00b1 2d3e f1c9 1c3e 330a 4b3c 0842 5b3f
00000030: 539c b43e a233 1c3d 2e13 623e d81d 583e
00000040: baa3 b53e 3bfb 583e fc10 8a3e 9d45 e3bd
00000050: 8d85 6a3c f951 28be 073f 5cbd aa85 28bf
00000060: 8c69 d4bc e7db 53be 43d0 12bd 3a44 08bf
00000070: ffe8 bc3d 743b ffbc 0a79 57be 37ce b83e
00000080: d393 1abf e2c6 0e3d 6671 89bd 2d42 d73c
00000090: 6aae b63d e66e a7bd fd9b bfbe 0535 c03d
000000a0: cfc8 453d ea32 a9bd 6391 2abf 3ad6 8e3d
000000b0: 2c15 0a3e 89b8 163f 0ab3 c8be 35b8 043e
000000c0: 2ac6 fc3e 37fb f13d a9e3 263e 6488 043e
000000d0: 56b5 c1bd a16b 3ebe 492d 303f fb2a 82bd
000000e0: aa15 e43e 3712 a0be 0b12 c63e e467 e2bd
000000f0: 72b0 b7bb bd53 0a3f 289f 843e 1feb 8dbe
-0.046822514 0.25951508 -0.4515194 -0.2605364 -0.08208253 0.10458844 -0.29013726 0.16757134
0.16962051 0.1531141 0.012392568 0.8564763 0.35275516 0.03813518 0.22077629 0.21105134
0.35476476 0.21189587 0.26966083 -0.11097262 0.014314068 -0.1643752 -0.053771045 -0.65828955
-0.025929235 -0.20689355 -0.035843145 -0.53229105 0.09224128 -0.03115628 -0.21042266 0.3609483
-0.6038181 0.03485764 -0.06711082 0.026276672 0.089199856 -0.08175449 -0.37423697 0.09385113
0.04828721 -0.08261664 -0.6662809 0.06974454 0.13484639 0.5887533 -0.39199096 0.12960894
0.49369937 0.118154936 0.16297783 0.12942654 -0.09458415 -0.18595745 0.688191 -0.06355854
0.44547778 -0.31263897 0.3868564 -0.11054972 -0.0056057507 0.54034024 0.25902677 -0.27718446

linear_list.2.bias f4 [2]
00000000: 2060 acbd 66b0 e33e
-0.08416772 0.4447052
