prep/g0530-235328_DB_new/models/model700.ckpt (torch, 7653 bytes, 6 tensors)

linear_list.0.weight f4 [32, 4]
000000 b5 64 1d be 8c 44 01 bf 96 1b f5 be 7b e0 82 3e
       -0.15370448 -0.5049522 -0.4787261 0.2556189
000010 93 56 88 3d 6d 4f a1 3d 13 4e 94 be fe 25 e6 be
       0.06657138 0.078764774 -0.28965816 -0.4495086
000020 f8 b9 04 3d 82 54 ec 3e 22 7c 93 3e 60 04 39 3e
       0.032403916 0.46158224 0.28805643 0.18068075
000030 a8 0f 60 3e 59 66 9f be c9 77 a1 3e 43 ed ab 3e
       0.21880972 -0.31132773 0.315367 0.33579454
000040 b2 98 18 3f e2 ba 46 3e d2 8b 01 be 0c 18 bf 3e
       0.59607995 0.19407228 -0.12650993 0.37323034
000050 ab 81 b7 3e 5a 6e e1 3d f2 f5 cc be bf 9d 15 be
       0.35841116 0.11007376 -0.4003139 -0.14610957
000060 60 50 a0 bd ef c3 39 be 60 ef 19 3f d0 89 12 be
       -0.0782783 -0.18141149 0.6013088 -0.14310384
000070 2c a0 df be 66 51 e8 3e 7a c8 e5 3e 47 1f f0 be
       -0.4367689 0.45374602 0.44879514 -0.46898863
000080 a1 c2 31 3e 96 bf de 3e ac 14 84 3e 40 c2 fd 3d
       0.17359401 0.43505543 0.2579702 0.12390566
000090 af 76 92 3e 63 c2 bf 3e e5 6f f3 3e 25 3d 90 3d
       0.28606173 0.37452993 0.47546306 0.070429124
0000a0 4e 0f 9b 3e 10 e8 51 3e 4b 62 aa be 6a 10 ab be
       0.30285114 0.20498681 -0.33278117 -0.3341096
0000b0 27 e0 4c 3e 6f f6 c8 bd f6 7f 31 be 19 5c a3 3e
       0.20007382 -0.098126285 -0.1733397 0.31906202
0000c0 0f ef ef be e5 5d c8 bd 94 f5 7c be bb 7e 93 3d
       -0.46862075 -0.09783534 -0.24703056 0.07201906
0000d0 d3 64 34 3d c6 4b 29 3e af d7 d2 be 4c 31 f9 be
       0.044041466 0.16532812 -0.4118018 -0.48670423
0000e0 8d 94 98 3e df 33 c6 be 75 ff fc 3e bf db 01 3e
       0.29800835 -0.3871145 0.49413648 0.12681483
0000f0 3f 93 b8 3c d7 f0 8d be 6e 62 1b bd 9f 78 18 3b
       0.02253115 -0.2772281 -0.037935667 0.0023265255
000100 6c 86 c6 3b 47 8b fd 3e bb cc 86 3e 37 e4 9e be
       0.006058505 0.49520323 0.26328072 -0.3103349
000110 0c 00 43 bd 36 f2 b6 3e ac df a3 be 30 6e ad be
       -0.047607467 0.35731667 -0.32006586 -0.3387313
000120 46 f2 be be e9 9e e7 3e 4d f5 6a 3e 22 52 30 3c
       -0.37294215 0.45238426 0.22945137 0.0107617695
000130 50 77 92 be b6 b3 8d 3d 30 b6 9c 3e 07 81 c8 be
       -0.28606653 0.06919043 0.30607748 -0.3916094
000140 02 02 be 3e ee 39 00 3f 4a 19 c5 be a0 5d 4b 3d
       0.37110907 0.50088394 -0.38495857 0.049649835
000150 70 34 eb be 92 c9 0d bf d2 e3 1a be f3 95 f3 bd
       -0.45938444 -0.55385697 -0.15125969 -0.11893835
000160 97 50 29 3f a5 a7 48 be 3e 65 8f be 22 ca a7 3e
       0.66138595 -0.19595201 -0.2800693 0.32771403
000170 53 f3 49 bd 61 2f b9 3c 43 74 df 3d ff 80 ce be
       -0.049304318 0.0226056 0.10910847 -0.4033279
000180 7c 3f e3 be b5 24 f5 3e c7 ed 42 be e6 04 7f be
       -0.44384372 0.47879568 -0.19036017 -0.24904212
000190 ad d6 0c 3f 38 e9 51 be 3f e0 bd be 5a 66 46 bd
       0.5501507 -0.20499122 -0.3708515 -0.048437454
0001a0 9d 88 db be a7 75 dd 3d c6 7d 0d be 67 d8 8c be
       -0.42877665 0.10813456 -0.1381751 -0.27508852
0001b0 d3 a5 ff bd 6d 4d e0 3e 78 6e 50 3e 32 1a b7 be
       -0.124828 0.4380907 0.2035464 -0.35762173
0001c0 6a 90 de 3e d1 a3 79 be da e1 c6 be 29 60 d1 3e
       0.43469554 -0.24378897 -0.38844186 0.40893677
0001d0 e1 98 06 bf 31 86 16 3d b9 22 77 be 04 a1 30 3e
       -0.52577025 0.03674907 -0.2413434 0.17248923
0001e0 23 76 b3 3e 17 8f b0 be e4 a2 c0 bc 13 9b 3b 3e
       0.3505107 -0.3448417 -0.023515172 0.18320875
0001f0 c0 ed a1 be f8 c6 e7 3d 94 1f 45 be ac 0a c3 be
       -0.316267 0.11317247 -0.19250327 -0.3809408

linear_list.0.bias f4 [32]
000000 4d 2c d0 3e a0 30 36 3e f5 2a c0 be f6 36 c2 bd
       0.406588 0.17791986 -0.37532774 -0.09483139
000010 ad 77 1e be d1 03 21 3e bd 9c fc 3d 00 09 a1 3e
       -0.1547534 0.15724112 0.12334583 0.3145218
000020 f9 d2 03 be a4 16 91 be cd 79 22 be 35 b3 a1 3e
       -0.12873448 -0.28337586 -0.15866776 0.31582037
000030 7c d8 d4 be 57 9e 47 3e 63 16 7c bd 17 5e d3 bd
       -0.41571414 0.19493996 -0.061544787 -0.103206806
000040 cd 67 0c be 9b cc 80 be 0e 6d f6 3e bc d0 f5 bd
       -0.13711472 -0.25156102 0.48130077 -0.120027035
000050 fa fd a9 be 37 49 c5 3e 0b 87 4f be 8c 47 a9 be
       -0.3320158 0.3853242 -0.20266359 -0.33062398
000060 7f 51 60 be 29 19 e9 3e 30 35 b8 3e 36 e4 25 3e
       -0.21906088 0.45527008 0.3597808 0.16200337
000070 04 ab de be ca e2 d8 3d e1 7c 80 3e fc fe 88 be
       -0.4348985 0.105901316 0.25095275 -0.26757038

linear_list.1.weight f4 [32, 32]
000000 e2 14 04 be 38 38 13 be 2e ec 02 3e 0b 13 e6 3d
       -0.12898591 -0.14376915 0.12785408 0.11234101
000010 a7 54 5a 3e 84 5f 04 bd 4b 96 37 be 6a dd 82 bc
       0.21321355 -0.032317653 -0.17928426 -0.01597472
000020 d6 39 ba 3d 41 ad 29 3e b4 87 08 be 1c d8 05 3e
       0.090930626 0.16569997 -0.13333017 0.1307072
000030 34 3c d5 bd 29 0e 77 3b 89 4e 02 be 29 b2 cc 3d
       -0.104118735 0.003769765 -0.12725271 0.09994919
000040 a6 c0 8b bd dc 7d 46 3d 18 0a ff 3d 82 2a 0a 3e
       -0.06823854 0.048459873 0.12453097 0.13492778
000050 cb 0b 0c 3e 7a 3c 5a bc 2d eb 05 be 53 31 16 3e
       0.13676374 -0.013320083 -0.13077994 0.14667253
000060 3d ce 1c bc b4 58 b0 3d c6 22 14 be a0 2d 9a bd
       -0.009570655 0.08610669 -0.1446639 -0.075282335
000070 a3 80 13 be 22 79 b3 3d 99 52 8e bc 65 26 3f 3d
       -0.1440454 0.087633386 -0.01737337 0.046667475
000080 18 19 9b 3d 20 fc 06 3e 3a e3 0e bd 1f e7 c7 bc
       0.07573146 0.13182116 -0.03488467 -0.0244022
000090 a0 c6 67 3d 03 58 d1 3d 6c 79 fe 3c 3a cf 16 3e
       0.056585908 0.10221865 0.031063758 0.14727488
0000a0 00 06 e4 3d d5 3e 94 bd 6d 02 2d 3d b4 c7 f2 3d
       0.11133957 -0.07238547 0.04223864 0.118544966
0000b0 12 1f 1f 3d 3d c1 b6 3d 7b f8 01 3d 6f c2 8c bd
       0.03884799 0.08923576 0.03173111 -0.06873023
0000c0 52 8f 4b bd 37 91 b2 bd 08 81 d6 bc 72 32 55 3d
       -0.049697228 -0.08719104 -0.026184574 0.05205006
0000d0 8c e9 93 3d 4d 74 f0 bc 00 28 04 3e 43 42 a3 3d
       0.0722228 -0.029352332 0.12905884 0.07971623
0000e0 60 6a 01 3e b8 84 69 3e 71 9b e4 bd 08 7b 25 3e
       0.12638235 0.22804534 -0.111624606 0.16160214
0000f0 21 da c3 3c 3d 33 55 be bd 51 7e bc 65 a2 06 3e
       0.023907723 -0.20820327 -0.015522418 0.13147886
000100 ef ed e8 bc fe 67 09 be 72 37 20 3d 1a c9 3f 3d
       -0.028433768 -0.13418576 0.039115377 0.046822645
000110 a5 d8 97 3d 26 5f 12 3e d0 f6 16 3e eb 4d ca bd
       0.074143685 0.14294109 0.14742589 -0.09878143
000120 c5 bc 43 3e 72 19 af bc 20 4e 3c bd da fd 45 bc
       0.19114979 -0.021374438 -0.045972943 -0.012084449
000130 74 49 f0 bc 1d 80 14 be e6 82 f8 bc 18 1a c9 3d
       -0.0293319 -0.14501996 -0.030335855 0.0981943
000140 7d 78 0a 3e cd 86 e2 3d 59 7f 2e 3e 92 f0 13 be
       0.13522525 0.110608675 0.17040767 -0.14447239
000150 b5 b0 2a 3e f3 65 9a bb 77 90 d0 bc f7 02 d0 3c
       0.16668971 -0.0047118603 -0.025459511 0.025392039
000160 22 83 5d bd f7 37 bb 3d 25 02 ca bd 09 6f 74 bc
       -0.054080136 0.09141534 -0.0986369 -0.014919051
000170 72 5c 8c 3d 7b 44 9d bc 6a 90 dd bd f5 ae b4 bd
       0.0685357 -0.019197693 -0.108185604 -0.08822433
000180 65 4e 3a bd c1 6a 0c 3d c7 93 27 3e f4 5c 0d be
       -0.04548492 0.034281496 0.16364966 -0.1380499
000190 b1 50 15 3d 33 f4 0b 3d d4 55 83 bd a8 1e 90 3c
       0.036453906 0.034168433 -0.06412855 0.017592743
0001a0 4e fd 08 be 16 a3 e8 3c 73 9e 22 3e 46 4c ce bd
       -0.13377878 0.028398078 0.15880756 -0.10073142
0001b0 96 45 06 3e 60 13 92 3c dc 2e 1e be dd eb ad bc
       0.13112482 0.017831504 -0.15447563 -0.021230632
0001c0 b7 2a d4 bd 1d ad d1 bd bd 35 01 3e c2 61 22 bd
       -0.1035971 -0.10238097 0.12618156 -0.03964401
0001d0 45 37 2d 3e 3b 13 ac bd ed a9 3f 3d 28 3a 10 3e
       0.16915615 -0.084021054 0.046792913 0.14084685
0001e0 59 f0 03 3d ac d4 06 3e ad 8b 21 be 81 1d 11 3e
       0.032211635 0.13167065 -0.15775938 0.14171411
0001f0 bb ec d5 3d 69 ae 62 3c e5 06 2e 3e b8 44 94 3d
       0.104455434 0.013835528 0.16994818 0.072396696
000200 d1 f2 15 bd fb 8b a5 3d e2 b4 23 3e ca d4 04 bd
       -0.03660852 0.0808334 0.1598697 -0.032429494
000210 db 85 cd bd 04 24 f8 3d f0 2e fe bd 04 dd 50 3d
       -0.100352965 0.121162444 -0.12411296 0.050992027
000220 1b a2 05 be e5 e0 2e 3e bc 0d e3 bd 53 9e ff 3d
       -0.1305012 0.17077978 -0.11086604 0.1248137
000230 6f 0f 64 3d 53 eb b7 3b b3 5d 12 be 2d da de 3c
       0.05567878 0.0056127696 -0.14293556 0.027203644
000240 2a 1f 22 3e 52 86 32 be 4d a9 1d be d6 ad 9e 3b
       0.158322 -0.17434052 -0.15396614 0.0048425
000250 83 5a 65 bd 56 b9 43 bd 4a b5 87 3c 0a 2b 8e 3d
       -0.05599452 -0.047784172 0.016565938 0.06941803
000260 7c b1 1d bd 4f 94 ba 3d 8b ff b5 3c 6d f0 06 3e
       -0.03849934 0.09110319 0.022216579 0.13177653
000270 95 0a 87 3a 6a 57 e3 3c 49 84 21 3e 55 10 82 bc
       0.0010302836 0.027751643 0.15773119 -0.015876928
000280 dd bb 0c bc 44 87 9e 3d 10 c4 0c 3c a8 70 19 be
       -0.008589712 0.077406436 0.008591667 -0.14984381
000290 80 97 d7 3d 45 6a 50 3d e1 62 0f be 87 c8 f5 bd
       0.10526943 0.050882597 -0.14002563 -0.12001138
0002a0 f0 39 fa bd 79 c1 65 bd b9 72 5c 3d bb 2b 96 bd
       -0.12218082 -0.056092713 0.053820346 -0.0733256
0002b0 af c8 18 bd 74 32 21 be 13 44 d0 bd 76 17 0d 3e
       -0.03730076 -0.15741903 -0.10169234 0.13778481
0002c0 98 bb 26 bd bd 46 23 bd 2e a2 83 bd d9 2e d0 bd
       -0.040706247 -0.039862383 -0.06427418 -0.101651855
0002d0 71 e4 11 3e 35 4e 1d be 93 8b 60 bc 9e e5 20 3e
       0.142473 -0.15361865 -0.013705152 0.15712592
0002e0 8b fe 8e bd f5 64 c9 bd c2 fd 79 3d 57 83 71 bd
       -0.06982144 -0.09833709 0.061033018 -0.058963146
0002f0 f5 37 02 3e 71 c4 57 bd 40 11 27 3e cf 98 12 3d
       0.12716658 -0.052677575 0.16315174 0.03579026
000300 db 4e 55 bd 7f b4 e5 bd 52 90 af bc 5e e2 c9 bd
       -0.052077156 -0.112160675 -0.021431122 -0.09857629
000310 21 e1 4a 3e fd e6 20 bd 62 5d 1a be ec ef cf bd
       0.19812442 -0.039282788 -0.15074685 -0.10153183
000320 c4 39 41 3e 7b 32 15 bc d2 b4 83 3d 04 b6 16 3e
       0.18869692 -0.009106274 0.06430973 0.14717871
000330 e9 2a 0b 3e 8d 0c fa 3c 7e 93 06 3e 0b 49 1d 3e
       0.13590588 0.030523563 0.13142201 0.15359895
000340 df a7 d7 bd 6d 32 86 bb 15 09 f2 3d 3b d9 28 3e
       -0.10530066 -0.0040953667 0.118181385 0.16489117
000350 e1 0f 22 3e a7 2c ce bd c3 7f 26 be ac de 4e bd
       0.1582637 -0.100671105 -0.16259675 -0.050505325
000360 22 c2 c8 bd 51 e9 84 3d 7a df 70 bd b8 b3 f9 bd
       -0.09802653 0.06489814 -0.058806874 -0.12192482
000370 5e 46 6f be 75 32 e1 bc 13 2a e0 bd 51 ed 2f be
       -0.23366687 -0.02748988 -0.10945525 -0.17180373
000380 d8 64 1e 3d c2 a9 08 be d3 af 16 3e 63 ab e1 bd
       0.03867039 -0.13346007 0.14715509 -0.110190175
000390 e5 5b e9 3d 69 2f 19 be db 6a d9 3d d0 a5 bd bb
       0.113944806 -0.14959492 0.10616084 -0.0057875887
0003a0 d5 28 1d 3b 1a 4b 0c 3e 01 8e 82 bd 53 ce 44 be
       0.0023980637 0.13700524 -0.06374741 -0.19219331
0003b0 5b 70 19 3d d5 86 22 be 0f bc 6a 3d c3 b1 19 be
       0.037460666 -0.15871747 0.057308253 -0.15009217
0003c0 67 3b 1b be 12 22 81 3d 29 86 e9 bd 02 20 ee bd
       -0.15159379 0.063053265 -0.11402542 -0.11627199
0003d0 5e aa 01 3d 56 2d d2 bd 5b b2 12 be 65 92 32 3e
       0.031656615 -0.102625534 -0.1432585 0.17438658
0003e0 84 d0 c0 bd 0b ef 8f bd 10 e8 2b 3c 55 24 d0 bd
       -0.09414771 -0.07028016 0.01049234 -0.1016318
0003f0 b4 cf 2b be 5c 75 da 3d f7 73 9e 3c ed b2 fb 3b
       -0.16778451 0.10666916 0.019342406 0.0076812417

linear_list.1.bias f4 [32]
000000 41 06 2c bc bd 29 2f be 7a 61 da bd 74 ca 1b bd
       -0.010499538 -0.17105766 -0.106631234 -0.03803487
000010 48 43 20 be e2 46 9f bd a1 91 b0 3c f7 c1 af bc
       -0.15650666 -0.07777192 0.021553816 -0.021454794
000020 be 36 81 bc e6 e3 c1 bd c4 99 27 3e 77 0b 04 3d
       -0.015773173 -0.09467296 0.1636725 0.032237496
000030 83 4a b8 bd 2d 58 ec 3d 26 aa a4 3d 03 9f b4 3d
       -0.08998587 0.11540256 0.08040266 0.088193916
000040 a7 95 05 3e 17 3e 6a bd d0 1d 99 bd e4 4f 7d 3d
       0.13045369 -0.05718812 -0.074763894 0.061843768
000050 ce 7a ce bb fd ba 7b bd 30 26 fe 3d 6c 5d 1d 3e
       -0.0063012606 -0.061457623 0.124096274 0.15367669
000060 04 b7 1b 3e b3 78 05 be e6 b2 4c 3d 0e f7 b6 bd
       0.15206534 -0.13034324 0.0499753 -0.08933841
000070 41 dc 16 be fc 98 5d bd 6c 54 34 bc d2 64 1d bc
       -0.14732458 -0.054100975 -0.011006456 -0.009606557

linear_list.2.weight f4 [2, 32]
000000 49 0b 93 bd 3f fa 21 3e 8b d0 27 bd 8b 87 61 3b
       -0.07179887 0.15818118 -0.040970366 0.0034413065
000010 f4 83 84 bd 42 0b d7 3d ac 29 49 be 65 68 ca 3d
       -0.064704806 0.10500194 -0.19644803 0.09883193
000020 41 37 2f 3e c5 c7 73 3d 34 b0 46 3c 06 ed bc 3e
       0.17110921 0.059516687 0.012126971 0.36899585
000030 77 2d 09 3e 13 6d 74 bd ea 15 20 3e 6c 1e 05 3e
       0.1339625 -0.059674334 0.1563336 0.12999886
000040 64 1b 86 bd e2 9e 0b 3e 6b 1b f3 3d aa 61 de bd
       -0.06548193 0.13634828 0.11870464 -0.10858472
000050 e3 fb 6b 3c 8b 74 16 bd 36 96 36 bd 2e 7a 87 be
       0.014403316 -0.036732238 -0.044576846 -0.26460403
000060 9e 8e 69 3c 24 5b 18 be df b4 4d 3d 3e 94 49 be
       0.014255194 -0.14878517 0.05022132 -0.19685456
000070 de f1 b8 3d 41 c2 6d 3d 39 e0 9d bc a8 18 96 3e
       0.090305075 0.058046583 -0.019271957 0.29315686
000080 9f f5 7e be 0f 79 5d 3b f9 a4 9f bd 5a 87 34 3c
       -0.24898385 0.003379408 -0.07795138 0.011018598
000090 0a c0 6a 3d ea 6f a7 bd 60 ad 7f be 26 80 df 3d
       0.05731205 -0.08175643 -0.24968481 0.10913114
0000a0 63 02 40 3d c5 1c 77 bd 25 75 d6 be cd e2 0a 3e
       0.046877276 -0.06033017 -0.4188625 0.1356308
0000b0 a0 fe 95 3d da c7 99 3e 64 55 60 be 8c 8d ed 3d
       0.073239565 0.30035287 -0.21907574 0.115992635
0000c0 cc 92 8b 3e 94 02 cc 3d 5d b4 f2 3d ca 2f ff 3d
       0.27260435 0.09961429 0.11850808 0.12460287
0000d0 df f5 c4 bd 79 57 0d be 5d 6f d2 3e 42 9e 0d be
       -0.09617209 -0.138029 0.41100588 -0.13829902
0000e0 8c ba 8a 3e be 73 2d be 6a fe 48 3e 10 b4 02 be
       0.2709545 -0.16938683 0.19628301 -0.12764001
0000f0 2d 8c f0 bb 9e f7 ab 3e 7e 7b 00 3e 00 f1 3b be
       -0.007340929 0.33587354 0.12547109 -0.18353653

linear_list.2.bias f4 [2]
000000 f6 e3 48 3c 58 42 2f 3e
       0.012261381 0.17115152
