prep/g0530-235328_DB_new/models/model1700.ckpt (torch, 7653 bytes, 6 tensors)

linear_list.0.weight f4 [32, 4]
000000 9a 51 0b be f1 95 f9 be 85 3c 00 bf f4 e6 78 3e
       -0.13605347 -0.4874721 -0.50092345 0.24306852
000010 a8 78 8f 3d 87 48 a8 3d 56 3a 93 be 4f f9 e5 be
       0.07005435 0.082169585 -0.28755444 -0.4491677
000020 d2 fa 23 bd c4 d9 fa 3e 14 39 a1 3e 7f 21 57 3e
       -0.040034123 0.48994267 0.3148886 0.21008871
000030 f5 bf 49 3e fd 1c a4 be 3b ba a2 3e 31 4c a2 3e
       0.19702132 -0.32053366 0.31782708 0.31698754
000040 4a 19 23 3f 3c 92 7d 3e 29 b9 4a be 92 e2 a6 3e
       0.63710463 0.24762815 -0.19797195 0.32594734
000050 71 d1 b9 3e 8c e6 c8 3d aa 65 ca be 78 c8 3c be
       0.36292604 0.09809598 -0.3953069 -0.18435848
000060 ce 17 1b be 35 30 80 be 73 97 28 3f 4f fa 20 be
       -0.151458 -0.2503678 0.65856093 -0.15720485
000070 4d dc e4 be 2b 7f e8 3e 75 d1 eb 3e c2 55 ea be
       -0.44699326 0.4540952 0.4605824 -0.45768553
000080 01 52 15 3e b0 2a ed 3e 89 09 97 3e 73 31 01 3e
       0.14582063 0.4632163 0.29499462 0.1261652
000090 3a b8 8b 3e 4c fc c0 3e e7 95 ff 3e 60 cb b1 3d
       0.2728899 0.37692487 0.49919054 0.08681369
0000a0 d4 ad 8f 3e 9d fd 3a 3e 1b 8f af be 40 e0 ac be
       0.28062308 0.18260808 -0.34288868 -0.3376484
0000b0 bc 7f 4b 3e bb 96 94 bd 3f b4 40 be c8 99 8c 3e
       0.19872946 -0.07255312 -0.18818758 0.27461076
0000c0 36 a7 ef be 45 6f ce bd e8 ca 78 be 04 41 88 3d
       -0.4680726 -0.10079817 -0.24296153 0.06653026
0000d0 29 92 2e 3d 5c d9 27 3e cc 0e d3 be 42 70 f9 be
       0.042619858 0.1639151 -0.41222227 -0.48718458
0000e0 49 59 99 3e 34 59 da be ec 25 04 3f c0 ba 8a 3d
       0.29950932 -0.42646182 0.51620364 0.06773901
0000f0 2b a1 80 3d 00 0d 94 be d4 eb c0 bc 91 10 c6 3b
       0.0628074 -0.28916168 -0.023549952 0.0060444553
000100 d1 8c 5c bc d2 a5 fc 3e 8f d7 73 3e 67 ad b0 be
       -0.013461308 0.4934526 0.23812698 -0.34507295
000110 a3 a3 42 bd c5 fe b6 3e ca da a3 be 87 6c ad be
       -0.047519337 0.3574125 -0.3200286 -0.33871862
000120 62 0c df be ad 4f 05 3f d1 0e 8c 3e 32 0c 3f 3c
       -0.43564135 0.520747 0.27355054 0.011660622
000130 25 c7 90 be d2 fe 94 3d 09 51 9d 3e 7e 17 c9 be
       -0.28276935 0.072751656 0.30725887 -0.39275736
000140 95 fb b8 3e 00 33 ff 3e 18 99 c8 be 04 0f 07 3d
       0.36129442 0.49843597 -0.391793 0.032973304
000150 a6 e3 dd be 1a 40 0f bf 50 dc 0a be a5 37 09 be
       -0.43337744 -0.55957186 -0.13560605 -0.13400133
000160 71 40 39 3f 0a 9d 3f be 59 95 b1 be 43 47 99 3e
       0.72363955 -0.1871225 -0.34684256 0.2993718
000170 53 f3 49 bd 61 2f b9 3c 43 74 df 3d ff 80 ce be
       -0.049304318 0.0226056 0.10910847 -0.4033279
000180 7c 3f e3 be b5 24 f5 3e c7 ed 42 be e6 04 7f be
       -0.44384372 0.47879568 -0.19036017 -0.24904212
000190 ab f0 1e 3f 8b 31 4d be 70 28 e0 be ac 37 48 bd
       0.6208598 -0.2003843 -0.4378085 -0.048881218
0001a0 68 d7 dc be 16 c0 e1 3d c7 e2 04 be 7e 13 8a be
       -0.43133092 0.110229656 -0.12977134 -0.26967996
0001b0 58 46 02 be d2 9c db 3e 39 bc 4a 3e e4 35 d0 be
       -0.12722147 0.42893082 0.19798364 -0.40666115
0001c0 0d 67 f8 3e 89 fb 69 be 8a 6b e9 be 0c bf c8 3e
       0.48516122 -0.2284986 -0.45589858 0.39208257
0001d0 44 e3 0a bf b9 57 3b 3d c3 db 60 be dd 7b 1c 3e
       -0.5425303 0.045737956 -0.21958832 0.15281625
0001e0 76 f6 c9 3e 55 d1 b8 be 65 57 ae bd c8 22 0e 3e
       0.39445847 -0.36097208 -0.08512763 0.13880455
0001f0 c0 ed a1 be f8 c6 e7 3d 94 1f 45 be ac 0a c3 be
       -0.316267 0.11317247 -0.19250327 -0.3809408

linear_list.0.bias f4 [32]
000000 af 79 e0 3e aa 3f 38 3e ef 7a c8 be b2 a7 08 be
       0.43842837 0.17993036 -0.3915629 -0.1334522
000010 eb e7 32 be 95 fe 18 3e 62 1c 97 3d bf b3 a4 3e
       -0.17471282 0.14940865 0.073784605 0.32168385
000020 e6 74 1c be 5d 00 93 be de 44 30 be 30 0e 94 3e
       -0.15278968 -0.28711215 -0.17213771 0.28917074
000030 ca 92 d8 be 02 ad 46 3e c2 e0 b6 bd 30 29 c5 bd
       -0.4229949 0.19401935 -0.08929588 -0.096269965
000040 a0 b2 18 be a4 c5 80 be 5e 34 e4 3e 01 01 f9 bd
       -0.1491189 -0.25150788 0.44571203 -0.121583946
000050 da 84 ad be 9c 37 ce 3e c3 31 3d be 8c 47 a9 be
       -0.3389042 0.40276802 -0.18476014 -0.33062398
000060 7f 51 60 be 52 17 ff 3e 7e 95 bb 3e e9 82 19 3e
       -0.21906088 0.4982248 0.3663749 0.14991345
000070 ed 4a d4 be 95 0f cd 3d 7c 4f 7e 3e fc fe 88 be
       -0.41463414 0.10012738 0.24835008 -0.26757038

linear_list.1.weight f4 [32, 32]
000000 90 8b 25 be cc 07 15 be d7 28 18 3e f8 84 f0 3d
       -0.1616652 -0.14553756 0.14859329 0.11744112
000010 35 ba 7a 3e 1c 8c 19 bd 76 c4 46 be 9c 38 ee bc
       0.24485095 -0.037487134 -0.19410881 -0.029079728
000020 8d 37 dd 3d 0a c8 41 3e aa 99 10 be cd 88 06 3e
       0.10801611 0.18923965 -0.14121118 0.13138123
000030 e6 29 d8 bd 56 90 fa 3a f1 9d 06 be 98 2c c9 3d
       -0.105548665 0.0019116502 -0.13146187 0.09822959
000040 94 fd a2 bd e2 7c 46 3d 6e 15 e3 3d 82 2a 0a 3e
       -0.079585224 0.04845894 0.11088072 0.13492778
000050 30 23 11 3e 81 1c fc bc 5e 21 e9 bd 53 31 16 3e
       0.14173579 -0.03077531 -0.113833174 0.14667253
000060 3d ce 1c bc 98 02 89 3d 4f 62 14 be 86 54 b1 bd
       -0.009570655 0.06689948 -0.14490627 -0.086587
000070 ad 27 06 be b2 f7 5b 3d bf 12 73 bc 65 26 3f 3d
       -0.13101073 0.053703018 -0.014836012 0.046667475
000080 48 b5 9f 3d 28 bc 06 3e 8d 49 28 bd 83 fa 34 bd
       0.077982485 0.13157713 -0.04108577 -0.04418422
000090 b2 3d 8a 3d f0 f5 ca 3d df f0 17 3c 6e 4b 17 3e
       0.06750049 0.0991019 0.009273737 0.14774868
0000a0 61 61 eb 3d f1 04 95 bd e9 9e 28 3d 21 0e f6 3d
       0.11493183 -0.07276333 0.041167174 0.120144136
0000b0 93 a7 1d 3d 2f 1b b6 3d 73 16 6c 3c a9 6e 93 bd
       0.03848989 0.088919036 0.014409649 -0.07198841
0000c0 1b 1b 48 bd 37 91 b2 bd c2 8c 13 bd 72 32 55 3d
       -0.048853975 -0.08719104 -0.03602291 0.05205006
0000d0 72 a9 88 3d e3 84 01 bd e7 32 0c 3e 43 42 a3 3d
       0.06672944 -0.03162087 0.13691293 0.07971623
0000e0 60 6a 01 3e c0 49 82 3e 71 9b e4 bd 23 ba 24 3e
       0.12638235 0.25446892 -0.111624606 0.1608663
0000f0 22 28 c1 3c a0 ad 50 be ae e5 96 bc 65 a2 06 3e
       0.023578707 -0.20378733 -0.018420067 0.13147886
000100 76 c4 79 bd 8a be 09 be 58 6c 4c 3d 22 ec 2b 3d
       -0.060978375 -0.13451591 0.049908012 0.04197324
000110 fc 8e 95 3d 04 4d 12 3e 83 52 1c 3e b0 5b cd bd
       0.07302663 0.14287192 0.1526585 -0.10027254
000120 08 b1 48 3e d0 88 3a bc 96 cb 42 bd ab eb eb bc
       0.19598782 -0.011385158 -0.047557436 -0.028798899
000130 ef 24 00 bd 2f d8 14 be 00 a2 04 bd 91 dc c8 3d
       -0.031285223 -0.14535592 -0.032381058 0.09807695
000140 97 3a 07 3e cd 86 e2 3d a4 50 2c 3e 16 ec 13 be
       0.13205944 0.110608675 0.16827637 -0.14445528
000150 d2 01 2e 3e c0 1f 8c bc 94 80 f9 bc f7 02 d0 3c
       0.16992882 -0.017104983 -0.030456819 0.025392039
000160 22 83 5d bd 12 98 a0 3d 5b 53 cf bd bc 63 8f bc
       -0.054080136 0.07841505 -0.10123321 -0.017503612
000170 1f 6f 83 3d ca 5c 1d bd 40 cf f4 bd f5 ae b4 bd
       0.06417679 -0.03841857 -0.11953592 -0.08822433
000180 3e 34 3d bd 30 04 0d 3d a5 3e 26 3e b5 63 11 be
       -0.0461924 0.03442782 0.16234834 -0.14198191
000190 89 99 03 3d a4 cd 0e 3d a6 75 84 bd af e2 95 3c
       0.032128844 0.034864083 -0.06467752 0.018296568
0001a0 c6 4d 0b be b1 63 d1 3c 5a 40 23 3e 3b 9c d4 bd
       -0.13603887 0.025560232 0.15942517 -0.10381361
0001b0 c2 46 06 3e 53 5b 93 3c c2 8c 21 be dd eb ad bc
       0.1311293 0.017987883 -0.15776351 -0.021230632
0001c0 d3 e7 d2 bd 1d ad d1 bd 80 2d 01 3e c2 61 22 bd
       -0.10298123 -0.10238097 0.12615013 -0.03964401
0001d0 25 70 2d 3e 8e 12 ac bd 2d 44 30 3d 28 3a 10 3e
       0.16937311 -0.084019765 0.043033767 0.14084685
0001e0 59 f0 03 3d 1e ff 04 3e ad 8b 21 be 59 e9 11 3e
       0.032211635 0.12987944 -0.15775938 0.14249171
0001f0 18 20 d2 3d db 3e 70 3c e4 a8 2a 3e b8 44 94 3d
       0.10260028 0.014663423 0.16665989 0.072396696
000200 d1 f2 15 bd 15 bd a6 3d 11 54 24 3e 83 8f 11 bd
       -0.03660852 0.08141533 0.16047694 -0.035537254
000210 ab 9c c9 bd 03 f2 fe 3d 47 73 ff bd 66 37 5c 3d
       -0.09844335 0.12448504 -0.12473159 0.05376377
000220 0b cb 03 be c5 48 30 3e 5d d0 dd bd 33 49 ff 3d
       -0.12870423 0.1721526 -0.10830758 0.124651335
000230 6f 0f 64 3d 44 f9 cc 3b 39 fb 14 be 2d da de 3c
       0.05567878 0.0062553007 -0.14548959 0.027203644
000240 be 97 25 3e 52 86 32 be 18 e5 1b be d6 ad 9e 3b
       0.16171166 -0.17434052 -0.15224111 0.0048425
000250 f5 b4 55 bd 56 b9 43 bd f9 67 89 3c 0a 2b 8e 3d
       -0.052174527 -0.047784172 0.01677321 0.06941803
000260 7c b1 1d bd 5c e4 bf 3d 8b ff b5 3c 53 8a 0a 3e
       -0.03849934 0.09369728 0.022216579 0.13529329
000270 53 21 85 3a 6a 57 e3 3c 3a b3 20 3e 55 10 82 bc
       0.0010157026 0.027751643 0.1569337 -0.015876928
000280 dd bb 0c bc 44 87 9e 3d 10 c4 0c 3c a8 70 19 be
       -0.008589712 0.077406436 0.008591667 -0.14984381
000290 80 97 d7 3d 45 6a 50 3d e1 62 0f be 87 c8 f5 bd
       0.10526943 0.050882597 -0.14002563 -0.12001138
0002a0 f0 39 fa bd 79 c1 65 bd b9 72 5c 3d bb 2b 96 bd
       -0.12218082 -0.056092713 0.053820346 -0.0733256
0002b0 af c8 18 bd 74 32 21 be 13 44 d0 bd 76 17 0d 3e
       -0.03730076 -0.15741903 -0.10169234 0.13778481
0002c0 98 bb 26 bd bd 46 23 bd 2e a2 83 bd d9 2e d0 bd
       -0.040706247 -0.039862383 -0.06427418 -0.101651855
0002d0 71 e4 11 3e 35 4e 1d be 93 8b 60 bc 9e e5 20 3e
       0.142473 -0.15361865 -0.013705152 0.15712592
0002e0 8b fe 8e bd f5 64 c9 bd c2 fd 79 3d 57 83 71 bd
       -0.06982144 -0.09833709 0.061033018 -0.058963146
0002f0 f5 37 02 3e 71 c4 57 bd 40 11 27 3e cf 98 12 3d
       0.12716658 -0.052677575 0.16315174 0.03579026
000300 b8 06 c5 bd e3 59 e8 bd e5 ad 3f 3c aa 39 ce bd
       -0.09620422 -0.113452695 0.0116991745 -0.10069592
000310 c1 ce 52 3e 4a 5d 28 bd 47 46 18 be c8 18 e6 bd
       0.20586683 -0.041104592 -0.14870559 -0.112351954
000320 f3 89 56 3e 7c 83 99 3c 36 0d 6f 3d 7a 72 0c 3e
       0.20951061 0.018739454 0.05836221 0.13715544
000330 c0 cb 0a 3e ad 36 ef 3c 5d 48 f2 3d c8 38 1d 3e
       0.13554287 0.029200876 0.118302085 0.15353692
000340 0c 1d ed bd 0f 39 86 bb 9b 1e 0f 3e 3b d9 28 3e
       -0.11577806 -0.0040961574 0.13976519 0.16489117
000350 44 f1 2b 3e ca ef e3 bd 99 4f 31 be ac de 4e bd
       0.16791254 -0.111297205 -0.1731552 -0.050505325
000360 22 c2 c8 bd f5 27 0c 3d 63 1f 71 bd a7 2e 06 be
       -0.09802653 0.034217793 -0.058867823 -0.13103734
000370 6c de 7a be ba 06 4d bd 2d a5 01 be 51 ed 2f be
       -0.2449891 -0.050055243 -0.12660666 -0.17180373
000380 d8 64 1e 3d c2 a9 08 be 19 20 16 3e 37 78 e2 bd
       0.03867039 -0.13346007 0.14660682 -0.110580854
000390 50 e4 e9 3d f2 17 19 be 45 1b d9 3d c9 c3 c2 bb
       0.114205 -0.1495054 0.106009044 -0.0059437496
0003a0 7e b4 14 3b 3f 5d 0c 3e 01 8e 82 bd 00 1c 45 be
       0.002269059 0.13707446 -0.06374741 -0.19248962
0003b0 5b 70 19 3d d5 86 22 be 70 62 6b 3d c3 b1 19 be
       0.037460666 -0.15871747 0.057466924 -0.15009217
0003c0 19 0a 1b be 12 22 81 3d 8b 8e eb bd 02 20 ee bd
       -0.1514057 0.063053265 -0.11501797 -0.11627199
0003d0 7d d8 03 3d 56 2d d2 bd 4c 11 12 be 65 92 32 3e
       0.03218888 -0.102625534 -0.1426441 0.17438658
0003e0 84 d0 c0 bd a1 90 8d bd 10 e8 2b 3c c3 19 d0 bd
       -0.09414771 -0.069123514 0.01049234 -0.10161164
0003f0 3e b0 2b be 5c 75 da 3d bf 34 a0 3c ed b2 fb 3b
       -0.1676645 0.10666916 0.019556401 0.0076812417

linear_list.1.bias f4 [32]
000000 c6 34 07 bd 00 57 2a be 8c d7 02 be 5f 19 26 bd
       -0.033009313 -0.1663475 -0.12777537 -0.04055154
000010 f4 5f 1e be e2 46 9f bd 12 84 c1 3b 20 bf b1 bc
       -0.1546629 -0.07777192 0.0059056366 -0.02169758
000020 be 36 81 bc 51 90 c1 bd 26 2d 11 3e 7c e5 5d 3d
       -0.015773173 -0.09451354 0.14177379 0.05417393
000030 3d 46 b0 bd 43 b4 f9 3d 02 bb a7 3d 0b fb af 3d
       -0.08607147 0.12192585 0.08189966 0.085928045
000040 9b a0 03 3e 57 94 79 bd 29 72 88 bd d8 0a 6a 3d
       0.12854235 -0.060932484 -0.06662399 0.057139248
000050 43 3c 4a bc cf 96 8f bd 1f 03 f2 3d 96 42 ea 3d
       -0.012343469 -0.07011186 0.118170016 0.114384815
000060 82 3d 1b 3e df c0 0e be eb 32 99 3d 11 d8 eb bd
       0.15160182 -0.13940762 0.07480415 -0.11515821
000070 e1 dd 16 be 34 91 1b bd 15 26 89 bc d4 6c 92 ba
       -0.14733078 -0.037980273 -0.016741792 -0.0011171349

linear_list.2.weight f4 [2, 32]
000000 0b 89 b9 bd ea 63 27 3e 1e 70 e6 bd 7f 0b f5 bc
       -0.09059342 0.16346708 -0.112518534 -0.029912708
000010 22 41 8b bd 42 0b d7 3d d0 1b 62 be 5c 4c c9 3d
       -0.067995325 0.10500194 -0.22080922 0.098290175
000020 41 37 2f 3e da 14 85 3d 94 92 0c bc 2c 8f de 3e
       0.17110921 0.06498118 -0.008579869 0.43468606
000030 f7 af 1c 3e d5 da cc bc e9 d6 1e 3e 78 e4 07 3e
       0.153015 -0.025006691 0.15511669 0.13270748
000040 7c 5a 94 bb 19 c1 0f 3e 49 4e f7 3d 88 a7 db bd
       -0.004527388 0.14038505 0.120754786 -0.107253134
000050 0d 4c 6a 3c a4 4c a7 bd 55 ad 9e bd 95 03 bb be
       0.0143003585 -0.08168915 -0.07747904 -0.3652617
000060 c8 3d 5b bc c1 40 35 be 24 ad 16 3d 4e ea 8c be
       -0.013381429 -0.17700483 0.036786214 -0.2752251
000070 2d f3 b8 3d 59 c3 fb 3c d8 32 b1 bd 2d 4d a2 3e
       0.09030757 0.030732797 -0.08652276 0.31699505
000080 f0 24 ad be 13 ac e0 3c ea c1 ac bd 57 31 9b 3c
       -0.33817244 0.027425801 -0.08435424 0.018944426
000090 f6 87 92 3d ea 6f a7 bd 43 9e 91 be 61 b7 df 3d
       0.07154839 -0.08175643 -0.28441057 0.109236486
0000a0 63 02 40 3d 2c c9 7a bd af c4 05 bf 7b 1d 08 3e
       0.046877276 -0.06122701 -0.5225324 0.13292496
0000b0 7d 53 c3 3d 0d 71 d0 3e 38 7b 95 be e6 7c f7 3d
       0.095374085 0.4071125 -0.2919557 0.12084369
0000c0 d6 6b cc 3e 80 37 d4 3d e5 7a 11 3e b1 a9 00 3e
       0.39926022 0.10362148 0.14207037 0.12564732
0000d0 59 f6 c1 bd 38 73 10 be 29 c5 05 3f 65 4b f9 bd
       -0.09470815 -0.14106452 0.5225397 -0.121725835
0000e0 90 10 a8 3e 37 03 65 be 9b 93 65 3e 24 13 ff bd
       0.32825136 -0.22364508 0.22419588 -0.12454823
0000f0 da 37 ef bb 1a 08 cb 3e 53 a2 48 3e e4 35 6b be
       -0.007300359 0.39654619 0.19593172 -0.22969776

linear_list.2.bias f4 [2]
000000 a5 47 08 3d c3 0b 86 3e
       0.03327145 0.26180848
