prep/g0530-235328_DB_new/models/model800.ckpt (torch, 7653 bytes, 6 tensors)

linear_list.0.weight f4 [32, 4]
000000 25 ed 1a be 8e c4 00 bf 8f 63 f5 be d6 9f 82 3e
       -0.15129526 -0.5029992 -0.4792752 0.2551257
000010 84 8d 89 3d e1 7c a2 3d a1 27 94 be ef 18 e6 be
       0.06716445 0.07933975 -0.28936484 -0.44940898
000020 67 0e ad 3c ab 42 ee 3e 54 26 96 3e 47 1f 41 3e
       0.021125032 0.4653524 0.29326117 0.18859588
000030 a7 91 5d 3e e7 39 a0 be 97 20 a1 3e 1e e1 a9 3e
       0.21637593 -0.31294176 0.31470177 0.33179563
000040 ac 62 1a 3f dd de 50 3e 40 70 09 be e3 63 bb 3e
       0.6030681 0.20397516 -0.13421726 0.36599645
000050 ec 86 b8 3e 7e 4e e1 3d 36 76 cc be 5b 11 19 be
       0.36040437 0.11001299 -0.39933938 -0.14948027
000060 b9 c5 b1 bd ae ac 41 be 97 81 1b 3f bc a8 13 be
       -0.08680291 -0.18913528 0.60744613 -0.14419836
000070 b5 20 e0 be 2d 3c e8 3e ca 8b e6 3e 76 6d ef be
       -0.43774953 0.4535841 0.45028526 -0.467632
000080 de 0b 2d 3e a1 8b e1 3e 5a f9 86 3e 46 25 00 3e
       0.16899058 0.4405184 0.26362115 0.12514219
000090 d1 b9 91 3e e3 7c c0 3e c7 6c f5 3e 63 9e 9b 3d
       0.2846208 0.3759528 0.47934553 0.07598569
0000a0 1b 7f 99 3e 3d b4 4e 3e 14 09 ab be 50 68 ab be
       0.29979786 0.20185943 -0.33405364 -0.33478022
0000b0 f0 5b 4c 3e c6 58 c2 bd 23 c5 31 be e3 77 a0 3e
       0.19956946 -0.094895884 -0.17360358 0.31341466
0000c0 7b 65 f0 be 65 ed c9 bd 05 76 7b be 30 e2 95 3d
       -0.46952423 -0.098597325 -0.2455674 0.073185325
0000d0 97 6c 33 3d 7c 0d 29 3e e5 e0 d2 be a0 3b f9 be
       0.04380473 0.1650905 -0.41187206 -0.48678303
0000e0 51 09 98 3e 54 8f c8 be 92 ef fd 3e 58 ee f5 3d
       0.29694608 -0.3917185 0.4959684 0.12008351
0000f0 ce e0 ea 3c d4 ea 8e be 74 37 18 bd 3d cf 2d 3b
       0.028671648 -0.27913535 -0.03716226 0.0026521229
000100 3a 23 66 3b 71 b4 fd 3e c6 50 85 3e 9e 6c a0 be
       0.0035116212 0.49551728 0.26038188 -0.31332868
000110 15 ee 42 bd ad f4 b6 3e d0 de a3 be c6 6d ad be
       -0.047590334 0.35733548 -0.3200593 -0.33872813
000120 17 01 c3 be 35 15 ec 3e 61 cf 71 3e 57 48 6b 3c
       -0.3808677 0.4610993 0.23614265 0.014360509
000130 5f a5 92 be 9c 46 8d 3d 8e 09 9d 3e de 44 c8 be
       -0.28641793 0.06898233 0.30671352 -0.39115041
000140 71 85 bd 3e a2 34 00 3f 21 75 c5 be 06 15 44 3d
       0.3701587 0.5008031 -0.38565925 0.047871612
000150 b7 76 e9 be 9c 77 0e bf 6d 87 18 be 78 48 f1 bd
       -0.45598385 -0.5565126 -0.14895411 -0.117814004
000160 2d 96 2b 3f b6 b2 42 be 97 55 93 be 2f 93 a6 3e
       0.67026025 -0.19013485 -0.28776237 0.32534167
000170 53 f3 49 bd 61 2f b9 3c 43 74 df 3d ff 80 ce be
       -0.049304318 0.0226056 0.10910847 -0.4033279
000180 7c 3f e3 be b5 24 f5 3e c7 ed 42 be e6 04 7f be
       -0.44384372 0.47879568 -0.19036017 -0.24904212
000190 62 9e 0f 3f 01 6f 4b be e0 6e c1 be e7 ce 3e bd
       0.5610105 -0.19866563 -0.37779903 -0.046584036
0001a0 11 ef db be 8e 1a dd 3d 9e f7 0b be 87 27 8c be
       -0.4295583 0.107960805 -0.13668677 -0.27373907
0001b0 50 ae ff bd ad 09 e0 3e 79 45 4f 3e 46 03 ba be
       -0.12484419 0.43757382 0.20241345 -0.36330622
0001c0 bb 59 e2 3e c3 61 76 be 5f 8c ca be 67 d5 d1 3e
       0.44209084 -0.2406073 -0.3956022 0.40983126
0001d0 e6 5a 07 bf 18 39 15 3d 0a f3 73 be c8 e6 2e 3e
       -0.52873075 0.036431402 -0.23823181 0.17080224
0001e0 11 cb b6 3e 6b d6 b1 be ec 36 ff bc bd 3e 35 3e
       0.35701802 -0.347339 -0.031154118 0.17699714
0001f0 c0 ed a1 be f8 c6 e7 3d 94 1f 45 be ac 0a c3 be
       -0.316267 0.11317247 -0.19250327 -0.3809408

linear_list.0.bias f4 [32]
000000 77 f9 d1 3e 0d 8b 36 3e e0 69 c0 be 93 57 cc bd
       0.4101064 0.17826481 -0.37580776 -0.09977641
000010 6b e9 20 be 83 0d 21 3e 17 e7 f0 3d cc 91 a1 3e
       -0.15714042 0.1572781 0.11762827 0.31556547
000020 2e 3e 06 be 46 6a 90 be bb 61 24 be 2f 3b a0 3e
       -0.13109657 -0.2820608 -0.16052906 0.31295153
000030 87 df d4 be d6 76 47 3e 42 30 85 bd d9 8a d3 bd
       -0.41576788 0.19478926 -0.06503345 -0.103292175
000040 5a 92 0d be 4d cb 80 be 76 6a f4 3e 1e 3b f5 bd
       -0.1382536 -0.25155106 0.47737473 -0.11974166
000050 bb 4f aa be 3f 9b c6 3e 35 74 4c be 8c 47 a9 be
       -0.33263955 0.38790318 -0.19966204 -0.33062398
000060 7f 51 60 be c9 2c ec 3e d7 92 b8 3e 44 a1 24 3e
       -0.21906088 0.46127918 0.3604953 0.16077143
000070 d3 cd dc be ff 3c d8 3d c4 64 80 3e fc fe 88 be
       -0.4312578 0.10558509 0.25076878 -0.26757038

linear_list.1.weight f4 [32, 32]
000000 af 15 0a be ee 5a 13 be e9 45 06 3e b7 09 e6 3d
       -0.13484834 -0.14390156 0.13112606 0.11232322
000010 3f fc 5e 3e a7 c7 08 bd c8 cd 39 be af c4 8f bc
       0.21775912 -0.03339353 -0.18144906 -0.01754984
000020 b1 34 c0 3d b3 38 2d 3e 7e a9 09 be d9 5c 05 3e
       0.0938505 0.1691616 -0.13443562 0.130237
000030 6e d2 d5 bd 40 0f 6b 3b 27 af 02 be 30 14 cc 3d
       -0.10440527 0.0035867244 -0.12762128 0.09964788
000040 66 e9 8e bd aa 7d 46 3d 84 86 fb 3d 82 2a 0a 3e
       -0.06978111 0.048459686 0.12281516 0.13492778
000050 aa ec 0b 3e 7b 0f 8b bc a3 58 03 be 53 31 16 3e
       0.13664499 -0.016975155 -0.12826781 0.14667253
000060 3d ce 1c bc ee 58 ab 3d 23 2d 14 be 74 42 9d bd
       -0.009570655 0.08366571 -0.14470343 -0.076786906
000070 27 d9 11 be 59 1d a9 3d 7b cc 8f bc 65 26 3f 3d
       -0.14242993 0.08257551 -0.017553559 0.046667475
000080 a5 15 97 3d 81 f7 06 3e aa d4 0d bd f1 22 e8 bc
       0.07377175 0.13180353 -0.03462664 -0.028336974
000090 43 58 71 3d 00 6e d1 3d f6 39 e2 3c 7d f5 16 3e
       0.058922064 0.10226059 0.027615529 0.14742084
0000a0 e9 4f e7 3d ae 9d 92 bd 40 a2 2c 3d 0a 18 f2 3d
       0.112945385 -0.07158981 0.04214692 0.11820991
0000b0 14 be 1e 3d f6 b0 b6 3d f7 90 e4 3c f3 64 8e bd
       0.03875549 0.08920471 0.027901156 -0.06952848
0000c0 5d 29 4a bd 37 91 b2 bd 82 af d7 bc 72 32 55 3d
       -0.049355853 -0.08719104 -0.026328806 0.05205006
0000d0 97 f5 93 3d 5d 17 00 bd aa 0e 05 3e 43 42 a3 3d
       0.07224577 -0.03127228 0.12993875 0.07971623
0000e0 60 6a 01 3e b6 34 6d 3e 71 9b e4 bd 98 89 25 3e
       0.12638235 0.23164639 -0.111624606 0.16165769
0000f0 69 f5 bd 3c ca 66 55 be 60 1c 8c bc 65 a2 06 3e
       0.02318831 -0.20839992 -0.017103374 0.13147886
000100 a6 3d 17 bd c5 71 09 be d3 5c 26 3d a0 bf 2c 3d
       -0.036924027 -0.13422306 0.040615868 0.042174935
000110 58 87 98 3d 3a 04 12 3e 20 3e 13 3e e5 4d cb bd
       0.0744769 0.14259425 0.14379168 -0.099269666
000120 35 b7 44 3e 44 13 a5 bc 46 9f 3d bd 76 40 82 bc
       0.19210513 -0.020150788 -0.046294473 -0.015899878
000130 8c 1a f8 bc 65 8d 14 be 6a 7a 0b bd ac 5b c7 3d
       -0.030286096 -0.14507063 -0.03405229 0.09734282
000140 28 ec 09 3e cd 86 e2 3d 07 75 2b 3e c5 e9 13 be
       0.13468993 0.110608675 0.16743861 -0.14444645
000150 d8 a4 2a 3e 84 86 42 bc 45 e3 d2 bc f7 02 d0 3c
       0.16664445 -0.011872891 -0.025743136 0.025392039
000160 22 83 5d bd 4e 8a b8 3d a4 d8 cb bd 4e 3c 7c bc
       -0.054080136 0.090107545 -0.0995343 -0.015395237
000170 9c 7d 8b 3d 23 dd c8 bc 6d 68 e4 bd f5 ae b4 bd
       0.068110675 -0.024519509 -0.1115273 -0.08822433
000180 78 3a 3a bd bc 71 0c 3d 70 77 27 3e e9 91 0d be
       -0.045465916 0.034288153 0.16354156 -0.13825192
000190 83 40 14 3d 53 22 0c 3d b5 5c 83 bd 6a b0 90 3c
       0.036194336 0.03421242 -0.06414167 0.017662246
0001a0 39 23 09 be 58 56 e7 3c b0 ac 22 3e ea ac ce bd
       -0.13392343 0.028239414 0.15886188 -0.100915745
0001b0 9c 45 06 3e ca 26 92 3c c4 54 1e be dd eb ad bc
       0.13112491 0.017840762 -0.15462023 -0.021230632
0001c0 18 0a d4 bd 1d ad d1 bd 7e 27 01 3e c2 61 22 bd
       -0.10353488 -0.10238097 0.12612721 -0.03964401
0001d0 b8 32 2d 3e 3b 13 ac bd 0e e0 3e 3d 28 3a 10 3e
       0.16913879 -0.084021054 0.046600394 0.14084685
0001e0 59 f0 03 3d 94 c6 06 3e ad 8b 21 be cb 2e 11 3e
       0.032211635 0.13161689 -0.15775938 0.14178006
0001f0 a5 c1 d5 3d f8 f5 63 3c a4 dc 2d 3e b8 44 94 3d
       0.104373254 0.013913624 0.16978699 0.072396696
000200 d1 f2 15 bd 81 a1 a5 3d f0 ca 23 3e c6 3a 06 bd
       -0.03660852 0.08087445 0.15995383 -0.032770894
000210 c3 2c cd bd 63 da f8 3d c7 60 fe bd f9 f6 51 3d
       -0.10018303 0.12151029 -0.124208026 0.051260922
000220 5c 71 05 be b9 02 2f 3e 7a 6a e2 bd 76 92 ff 3d
       -0.13031524 0.17090882 -0.11055465 0.12479107
000230 6f 0f 64 3d b8 e4 b9 3b a4 ad 12 be 2d da de 3c
       0.05567878 0.0056730174 -0.14324051 0.027203644
000240 a4 77 22 3e 52 86 32 be d3 77 1d be d6 ad 9e 3b
       0.15865952 -0.17434052 -0.1537774 0.0048425
000250 11 9d 63 bd 56 b9 43 bd a9 af 87 3c 0a 2b 8e 3d
       -0.055569712 -0.047784172 0.016563253 0.06941803
000260 7c b1 1d bd 3f 10 bb 3d 8b ff b5 3c 22 4c 07 3e
       -0.03849934 0.09133958 0.022216579 0.13212636
000270 2e 6e 85 3a 6a 57 e3 3c 03 66 21 3e 55 10 82 bc
       0.0010179931 0.027751643 0.1576157 -0.015876928
000280 dd bb 0c bc 44 87 9e 3d 10 c4 0c 3c a8 70 19 be
       -0.008589712 0.077406436 0.008591667 -0.14984381
000290 80 97 d7 3d 45 6a 50 3d e1 62 0f be 87 c8 f5 bd
       0.10526943 0.050882597 -0.14002563 -0.12001138
0002a0 f0 39 fa bd 79 c1 65 bd b9 72 5c 3d bb 2b 96 bd
       -0.12218082 -0.056092713 0.053820346 -0.0733256
0002b0 af c8 18 bd 74 32 21 be 13 44 d0 bd 76 17 0d 3e
       -0.03730076 -0.15741903 -0.10169234 0.13778481
0002c0 98 bb 26 bd bd 46 23 bd 2e a2 83 bd d9 2e d0 bd
       -0.040706247 -0.039862383 -0.06427418 -0.101651855
0002d0 71 e4 11 3e 35 4e 1d be 93 8b 60 bc 9e e5 20 3e
       0.142473 -0.15361865 -0.013705152 0.15712592
0002e0 8b fe 8e bd f5 64 c9 bd c2 fd 79 3d 57 83 71 bd
       -0.06982144 -0.09833709 0.061033018 -0.058963146
0002f0 f5 37 02 3e 71 c4 57 bd 40 11 27 3e cf 98 12 3d
       0.12716658 -0.052677575 0.16315174 0.03579026
000300 8c f8 72 bd ca f0 e5 bd 13 91 76 bc 4c 61 ca bd
       -0.059319064 -0.112275675 -0.015049237 -0.09881839
000310 1d 72 4b 3e a4 4a 25 bd d7 2c 19 be 74 fe d2 bd
       0.1986775 -0.040354386 -0.14958511 -0.10302439
000320 54 aa 45 3e ef 04 89 bb 56 a6 81 3d cc f5 14 3e
       0.19303256 -0.0041814963 0.06330554 0.14546889
000330 eb 5e 0b 3e 4f ca f8 3c b0 18 05 3e 8f 46 1d 3e
       0.13610427 0.030369906 0.12997699 0.15358947
000340 76 44 db bd d1 33 86 bb d7 b6 fd 3d 3b d9 28 3e
       -0.10706417 -0.0040955325 0.123883896 0.16489117
000350 46 34 22 3e 8a bf d1 bd f4 2c 29 be ac de 4e bd
       0.15840253 -0.10241611 -0.16521055 -0.050505325
000360 22 c2 c8 bd 1e f9 75 3d f8 df 70 bd 50 c7 fc bd
       -0.09802653 0.06005203 -0.058807343 -0.12342703
000370 59 4f 72 be de ef eb bc e9 72 e7 bd 51 ed 2f be
       -0.23663081 -0.028800901 -0.11301214 -0.17180373
000380 d8 64 1e 3d c2 a9 08 be 64 41 16 3e 88 89 e2 bd
       0.03867039 -0.13346007 0.14673382 -0.11061388
000390 86 4e e8 3d 09 2d 19 be be 0b d9 3d 04 f9 be bb
       0.11343102 -0.14958586 0.10597943 -0.005828025
0003a0 af 4d fa 3a f0 c2 0b 3e 01 8e 82 bd 81 30 45 be
       0.0019096638 0.13648582 -0.06374741 -0.19256784
0003b0 5b 70 19 3d d5 86 22 be 03 60 69 3d c3 b1 19 be
       0.037460666 -0.15871747 0.05697633 -0.15009217
0003c0 a7 43 1b be 12 22 81 3d 41 7a ea bd 02 20 ee bd
       -0.15162526 0.063053265 -0.11449099 -0.11627199
0003d0 d9 9c 01 3d 56 2d d2 bd 71 e5 12 be 65 92 32 3e
       0.031643722 -0.102625534 -0.14345337 0.17438658
0003e0 84 d0 c0 bd 84 f6 8f bd 10 e8 2b 3c a0 34 d0 bd
       -0.09414771 -0.07029441 0.01049234 -0.101662874
0003f0 4b d4 2b be 5c 75 da 3d 80 74 9c 3c ed b2 fb 3b
       -0.16780202 0.10666916 0.01909852 0.0076812417

linear_list.1.bias f4 [32]
000000 83 66 61 bc a6 bc 2e be 67 37 e7 bd 54 5c 1c bd
       -0.013757351 -0.17064151 -0.11289864 -0.03817399
000010 ad 13 20 be e2 46 9f bd 9e 1e a4 3c c1 89 b3 bc
       -0.15632506 -0.07777192 0.02003413 -0.021916272
000020 be 36 81 bc 9d 31 c2 bd a3 79 24 3e 4c 4d 08 3d
       -0.015773173 -0.09482119 0.16062026 0.03327684
000030 d9 19 b7 bd 1e 2f ed 3d ac c7 a5 3d a2 f9 b3 3d
       -0.08940477 0.115812525 0.08094725 0.08787848
000040 d8 5a 04 3e 91 07 6c bd 00 9d 97 bd 4e 3c 7c 3d
       0.12925279 -0.057624403 -0.07402992 0.06158095
000050 cc 3d f2 bb d4 4e 7e bd ab 0f fc 3d 6d 50 19 3e
       -0.0073926207 -0.062086895 0.12307676 0.14972086
000060 d2 a1 1c 3e ee c1 05 be 91 10 54 3d 05 70 bc bd
       0.15296105 -0.1306226 0.05177361 -0.092010535
000070 67 d9 16 be 21 e4 56 bd 9f 37 4b bc f6 fe ec bb
       -0.1473137 -0.052463654 -0.012403398 -0.007232542

linear_list.2.weight f4 [2, 32]
000000 79 ba a2 bd 9b 47 23 3e aa 02 5d bd ab 09 45 39
       -0.07945723 0.15945284 -0.05395762 0.00018790986
000010 bd 6c 84 bd 42 0b d7 3d 3e 50 50 be c9 0c ca 3d
       -0.06466053 0.10500194 -0.2034311 0.0986572
000020 41 37 2f 3e 76 5f 75 3d 03 a2 04 3c e6 bd c0 3e
       0.17110921 0.05990549 0.008095267 0.3764488
000030 98 5c 0c 3e 40 27 66 bd 8a bd 21 3e 64 5c 05 3e
       0.13707197 -0.056189775 0.1579496 0.13023525
000040 a2 6c 6f bd fc 66 0c 3e d2 44 f2 3d a9 3b de bd
       -0.05845321 0.1371116 0.11829533 -0.10851223
000050 61 9b 6b 3c 0d 88 2c bd e7 e8 3d bd 4d 23 91 be
       0.014380307 -0.042121936 -0.04636469 -0.28347245
000060 7e 70 0c 3c 4d 41 1d be d4 0f 45 3d 91 84 5b be
       0.008571742 -0.15356942 0.048110798 -0.21437289
000070 27 f3 b8 3d d8 40 56 3d c5 06 f5 bc c6 13 98 3e
       0.09030753 0.052307934 -0.029910455 0.29702586
000080 58 f9 84 be 3c 03 e8 3b 5b 9b 9f bd 0a f9 59 3c
       -0.25971484 0.0070804637 -0.077933036 0.013304004
000090 ef 51 72 3d ea 6f a7 bd 38 0a 82 be d4 89 df 3d
       0.05916017 -0.08175643 -0.2539842 0.109149605
0000a0 63 02 40 3d 51 c2 76 bd 46 77 de be ba 85 0b 3e
       0.046877276 -0.06024391 -0.43450373 0.13625231
0000b0 31 a1 9b 3d 0f 4a a1 3e aa 90 6b be 3f ce ee 3d
       0.07599104 0.31501815 -0.23004404 0.11660432
0000c0 6d cf 94 3e 5a d0 cd 3d 83 6d f9 3d 57 85 ff 3d
       0.29064503 0.100495055 0.12179091 0.124766044
0000d0 07 2d c4 bd d6 55 0d be aa 1d db 3e 84 55 0d be
       -0.09578901 -0.13802275 0.4279607 -0.13802153
0000e0 31 59 8f 3e e3 32 35 be 45 61 4c 3e a5 0f 03 be
       0.27997735 -0.17695193 0.1995898 -0.12798937
0000f0 7f 99 ef bb 51 06 b1 3e 89 44 0b 3e 96 d3 41 be
       -0.0073119993 0.34575132 0.13600363 -0.1892837

linear_list.2.bias f4 [2]
000000 91 ea ba 3c 56 0b 3b 3e
       0.022816928 0.18266043
