prep/g0530-235328_DB_new/models/model5000.ckpt (torch, 7653 bytes, 6 tensors)

linear_list.0.weight f4 [32, 4]
000000 4d fd 9a bd 5f 61 ca be bf df 50 bf a2 19 11 3e
       -0.075678445 -0.39527413 -0.8159141 0.14169934
000010 3b 03 8f 3d 46 c5 a7 3d a8 5d 92 be 24 e1 e6 be
       0.06983038 0.08191924 -0.2858708 -0.45093644
000020 91 ba 95 be 0f b2 ef 3e 9c 3c c6 3e e7 69 8b 3e
       -0.292439 0.46815535 0.38718116 0.27229235
000030 19 ff 01 3e e1 73 4f be a8 97 bd 3e de ad 91 3e
       0.12694968 -0.20259048 0.37029767 0.28452963
000040 0e 6d 45 3f 3c 2e 8b 3e 2b 52 96 be c1 ed 6d 3e
       0.7711953 0.27183712 -0.29359564 0.23235227
000050 f2 e6 ad 3e 8d 84 80 3d 13 ee cd be d2 4c 82 be
       0.3396526 0.06275282 -0.402207 -0.25449234
000060 3f 1c c7 be 78 00 6b be 76 74 6c 3f d2 d9 06 be
       -0.38888738 -0.22949398 0.92365205 -0.1316903
000070 22 f6 e1 be 05 b4 e7 3e 28 8f dd 3e 2d ed 03 bf
       -0.44133097 0.45254532 0.43273282 -0.51533777
000080 76 7a a1 3d a3 b7 f5 3e eb 09 bc 3e cb a8 6c 3d
       0.07884686 0.47991666 0.36726317 0.05777816
000090 e6 8e 86 3e eb 44 ba 3e 7f 7a 08 3f 5e 79 66 3d
       0.26280898 0.36380705 0.53311914 0.05626809
0000a0 50 dc 87 3e 92 67 2b 3e 8f 05 b4 be 47 01 ad be
       0.26535273 0.16738728 -0.3516049 -0.33790037
0000b0 17 30 2b 3e 00 6f 80 bd b4 41 94 be 1d d7 3f 3e
       0.16717564 -0.062711716 -0.28956378 0.18734403
0000c0 cd 0c ec be fc 12 9d bd ec 52 5b be c4 89 0f 3d
       -0.46103516 -0.076696366 -0.21418351 0.035043493
0000d0 43 5f 3c 3d b6 50 2b 3e f1 d7 d1 be 02 7c f9 be
       0.045989286 0.16730008 -0.40985063 -0.48727423
0000e0 b7 39 9e 3e ba ca cf be 61 bc 19 3f 34 9e e1 bc
       0.30903408 -0.40584356 0.6005307 -0.027541257
0000f0 9e 0e 6d 3d 31 de 8f be ae 51 16 bd 43 03 90 bd
       0.05787527 -0.28099206 -0.03669899 -0.07031872
000100 31 ce ee bc 6d fe ff 3e ae c5 46 3e f2 7a c7 be
       -0.029151054 0.499988 0.19411346 -0.38960987
000110 5d 9f 42 bd 5d ff b6 3e ca da a3 be 87 6c ad be
       -0.047515262 0.35741702 -0.3200286 -0.33871862
000120 c3 12 18 bf 1a f2 2d 3f ea 44 af 3e e4 51 78 3b
       -0.5940363 0.6794754 0.34232265 0.0037890607
000130 71 2b 88 be fb 34 b4 3d 57 84 99 3e a2 9e ce be
       -0.26595643 0.08799168 0.2998378 -0.40355402
000140 9c 30 b4 3e ae 49 0b 3f fc d6 e4 be 2d 3a 9a bc
       0.35193336 0.544093 -0.4469527 -0.018826568
000150 99 ca c6 be ba 44 0d bf 93 10 6d be 5e 07 98 be
       -0.38826445 -0.55182993 -0.23150854 -0.2969312
000160 11 23 76 3f e1 1e ae be 3d 33 ea be e6 1e 0f 3e
       0.9614726 -0.34007934 -0.45742217 0.1397663
000170 53 f3 49 bd 61 2f b9 3c 43 74 df 3d ff 80 ce be
       -0.049304318 0.0226056 0.10910847 -0.4033279
000180 7c 3f e3 be b5 24 f5 3e c7 ed 42 be e6 04 7f be
       -0.44384372 0.47879568 -0.19036017 -0.24904212
000190 c8 30 51 3f 6e 88 fe be 45 84 26 bf ea 2d 12 be
       0.8171506 -0.49713463 -0.6504558 -0.14275327
0001a0 ac fc d3 be 99 8d 29 3e 8a f1 c8 bd e9 9f 94 be
       -0.4140371 0.16557921 -0.09811695 -0.29028252
0001b0 ba 8a 0c be 25 72 d1 3e c7 68 47 3e 97 0e ef be
       -0.13724795 0.40907398 0.19473563 -0.4669082
0001c0 0e 42 09 3f c8 4f bf be ef e4 3c bf 1f fa 82 3e
       0.53616416 -0.37365556 -0.73786825 0.25581452
0001d0 f0 6e 09 bf 5b b9 ad 3d e5 a5 87 be 33 5a 1f 3d
       -0.536849 0.084826194 -0.26493755 0.03890438
0001e0 ab eb ee 3e 12 33 c8 be f9 fd 5a be 43 4c 1a 3e
       0.46664175 -0.39101464 -0.21385945 0.15068154
0001f0 c0 ed a1 be f8 c6 e7 3d 94 1f 45 be ac 0a c3 be
       -0.316267 0.11317247 -0.19250327 -0.3809408

linear_list.0.bias f4 [32]
000000 33 c7 03 3f be 73 37 3e aa 1f c8 be 2f f1 8f be
       0.5147583 0.17915246 -0.39086658 -0.28113696
000010 12 ad 80 be 7f bc f7 3d 78 24 67 bd f0 cf 9c 3e
       -0.25132042 0.120965 -0.056431264 0.30627394
000020 01 3e 66 be 2c 29 a7 be d1 7d 39 be 15 c3 41 3e
       -0.2248459 -0.326486 -0.18114401 0.18922074
000030 d7 83 ed be 33 ae 48 3e 54 15 00 be 5c 0f 97 bd
       -0.46389648 0.19597702 -0.12508136 -0.073759764
000040 1a 4a 22 be a4 c5 80 be 5a 0a c6 3e fb 55 06 be
       -0.1584858 -0.25150788 0.38679773 -0.13118736
000050 5f cc af be 5e 91 d8 3e f7 3f 50 be 8c 47 a9 be
       -0.3433561 0.42298406 -0.203369 -0.33062398
000060 7f 51 60 be 29 a2 14 3f 4b 95 c0 3e 4f e6 05 3e
       -0.21906088 0.58059937 0.37613901 0.13076137
000070 61 9d da be 66 f2 81 3d 14 69 71 3e fc fe 88 be
       -0.42698196 0.06345062 0.2357524 -0.26757038

linear_list.1.weight f4 [32, 32]
000000 b7 fa 2a be 7c 01 1a be 55 b2 63 3e e8 1e 15 3e
       -0.16697203 -0.15039629 0.22235997 0.14562571
000010 26 85 88 3e 60 ff 28 bd af 22 41 be 30 a5 31 bd
       0.26664084 -0.04125917 -0.18860887 -0.043370426
000020 da 73 06 3e a1 a7 57 3e 0e 86 19 be 85 f2 10 3e
       0.13130131 0.21060039 -0.14992544 0.14155014
000030 25 fe d0 bd 16 88 0b bb 3d bf 32 be 81 8c c8 3d
       -0.10204724 -0.002129083 -0.17455764 0.09792424
000040 6a 87 bb bd e2 7c 46 3d f1 44 15 3e 82 2a 0a 3e
       -0.091566876 0.04845894 0.1457708 0.13492778
000050 1d 31 29 3e 1a 6c ff bc d3 44 0a be 53 31 16 3e
       0.16522641 -0.031179477 -0.13502817 0.14667253
000060 3d ce 1c bc e4 c6 ae 3c 88 8a 13 be ec 29 cc bd
       -0.009570655 0.021335073 -0.14408314 -0.099689335
000070 ce 0b 0e be 03 5a 82 3d 5a f0 1a bd 65 26 3f 3d
       -0.1387169 0.063648246 -0.037826873 0.046667475
000080 01 06 0f 3e 4d f2 05 3e e6 b4 9f bd f2 0b f6 bc
       0.13967134 0.13080712 -0.077981755 -0.030034993
000090 95 b3 b1 3d 16 5c ab 3d 46 99 76 bc 1c d1 17 3e
       0.08676831 0.083671734 -0.015051192 0.14825863
0000a0 e9 52 03 3e 2c ed 54 bd 1d 85 20 3d 49 24 09 3e
       0.12824596 -0.051983997 0.039189447 0.13392748
0000b0 2f 53 24 3d d9 8d b4 3d c2 75 33 3d 88 e4 88 bd
       0.040118393 0.08816118 0.043813474 -0.06684214
0000c0 d8 86 54 bd 37 91 b2 bd 4d 20 8d bd 72 32 55 3d
       -0.05188641 -0.08719104 -0.068909265 0.05205006
0000d0 b6 5a c2 3c aa 32 fc 3b 4b 7c 36 3e 43 42 a3 3d
       0.023724895 0.0076964693 0.17820852 0.07971623
0000e0 60 6a 01 3e ab 2a 9a 3e df a0 e4 bd 76 b7 20 3e
       0.12638235 0.30110678 -0.11163496 0.15694985
0000f0 99 c9 7d 3d 5e 85 39 be 71 aa 91 3c 65 a2 06 3e
       0.061959837 -0.18117282 0.017781468 0.13147886
000100 93 cb 38 be 2e ba 09 be 6a 46 2a 3d 14 d3 9c bb
       -0.18046407 -0.13449928 0.04157106 -0.0047859047
000110 25 98 6f 3d 8c a8 21 3e 9e a8 47 3e a2 d3 ba bd
       0.058494706 0.15786952 0.19497916 -0.09122397
000120 96 13 43 3e 36 b0 23 bb 26 b2 40 bd 74 c1 e0 bd
       0.1905044 -0.0024976856 -0.047044896 -0.10974398
000130 ce 01 3a bd 40 b9 14 be 8e 0b 14 bd ab 86 d5 3d
       -0.045411877 -0.14523792 -0.036143832 0.104260765
000140 aa 37 08 3e cd 86 e2 3d 8c 4c 1a 3e 76 18 12 be
       0.13302484 0.110608675 0.15068263 -0.14267144
000150 fe a3 5e 3e fb 92 0b bd 77 58 2c bd f7 02 d0 3c
       0.21742246 -0.03407572 -0.042076554 0.025392039
000160 22 83 5d bd 8f c9 a4 3d 29 bf ec bd 05 8f 82 bc
       -0.054080136 0.08046257 -0.115598984 -0.015937338
000170 2a 9b 64 3d db 63 cd bd 85 99 2a be f5 ae b4 bd
       0.05581204 -0.100288115 -0.16660126 -0.08822433
000180 b1 79 92 bd 46 4f 10 3d 83 02 16 3e 6e a7 33 be
       -0.07152117 0.03523185 0.14649396 -0.17544338
000190 dc e2 19 3d e4 11 33 3d e9 b0 82 bd f2 36 9b 3c
       0.037569866 0.043718234 -0.06381399 0.018947098
0001a0 b6 c4 07 be 9b d3 07 3d 7c 01 25 3e a7 35 fa bd
       -0.13258633 0.033160787 0.16113847 -0.122172646
0001b0 65 12 06 3e d3 4e 99 3c f5 05 31 be dd eb ad bc
       0.13092954 0.018714344 -0.17287429 -0.021230632
0001c0 d8 6f cd bd 1d ad d1 bd 80 22 f9 3d c2 61 22 bd
       -0.10031098 -0.10238097 0.121647835 -0.03964401
0001d0 4b b8 46 3e f9 35 ac bd 1c 8b 42 3d 28 3a 10 3e
       0.1940624 -0.08408732 0.047495946 0.14084685
0001e0 59 f0 03 3d b2 1e 13 3e 10 8b 21 be 9a 09 15 3e
       0.032211635 0.14367178 -0.15775704 0.14554444
0001f0 86 2d c9 3d 7c 1a 1e 3b 57 15 20 3e b8 44 94 3d
       0.09823136 0.0024124673 0.1563314 0.072396696
000200 34 40 1e bd 50 c7 a9 3d 4c 04 25 3e a0 a3 2e bd
       -0.038635448 0.08289969 0.1611492 -0.042636514
000210 77 0e b9 bd 2a d6 05 3e 67 f4 ff bd 5b a7 71 3d
       -0.09035962 0.13069978 -0.12497788 0.058997493
000220 bc f1 f9 bd da ad 36 3e 5c a9 d7 bd b0 15 fe 3d
       -0.1220431 0.17839757 -0.105303496 0.1240648
000230 6f 0f 64 3d c2 74 f7 3b e3 6e 19 be 2d da de 3c
       0.05567878 0.0075517604 -0.14983706 0.027203644
000240 dd 92 2c 3e 52 86 32 be fd a9 15 be d6 ad 9e 3b
       0.16852899 -0.17434052 -0.14615627 0.0048425
000250 ed bf 31 bd 70 be 43 bd f8 5f 9c 3c 0a 2b 8e 3d
       -0.043395925 -0.047789037 0.01908873 0.06941803
000260 7c b1 1d bd 63 b9 cd 3d 8b ff b5 3c 5e 77 11 3e
       -0.03849934 0.10045125 0.022216579 0.14205691
000270 c2 f6 fb b8 0d d4 e2 3c 37 da 1e 3e 55 10 82 bc
       -0.00012014575 0.027689004 0.1551293 -0.015876928
000280 dd bb 0c bc 44 87 9e 3d 10 c4 0c 3c a8 70 19 be
       -0.008589712 0.077406436 0.008591667 -0.14984381
000290 80 97 d7 3d 45 6a 50 3d e1 62 0f be 87 c8 f5 bd
       0.10526943 0.050882597 -0.14002563 -0.12001138
0002a0 f0 39 fa bd 79 c1 65 bd b9 72 5c 3d bb 2b 96 bd
       -0.12218082 -0.056092713 0.053820346 -0.0733256
0002b0 af c8 18 bd 74 32 21 be 13 44 d0 bd 76 17 0d 3e
       -0.03730076 -0.15741903 -0.10169234 0.13778481
0002c0 98 bb 26 bd bd 46 23 bd 2e a2 83 bd d9 2e d0 bd
       -0.040706247 -0.039862383 -0.06427418 -0.101651855
0002d0 71 e4 11 3e 35 4e 1d be 93 8b 60 bc 9e e5 20 3e
       0.142473 -0.15361865 -0.013705152 0.15712592
0002e0 8b fe 8e bd f5 64 c9 bd c2 fd 79 3d 57 83 71 bd
       -0.06982144 -0.09833709 0.061033018 -0.058963146
0002f0 f5 37 02 3e 71 c4 57 bd 40 11 27 3e cf 98 12 3d
       0.12716658 -0.052677575 0.16315174 0.03579026
000300 60 03 15 be 85 74 ed bd 5c 97 31 3d 95 ff 00 be
       -0.14552069 -0.1159449 0.04335724 -0.12597497
000310 50 fa 60 3e 8e 1a e2 bc 12 67 12 be 43 ce f9 bd
       0.21970487 -0.027600553 -0.1429713 -0.121975444
000320 40 aa 63 3e eb ce 23 3d 5f f2 5e 3d a4 54 00 3e
       0.22232914 0.039992254 0.05443036 0.12532288
000330 87 86 0a 3e 3e 29 df 3c 74 e8 62 3d 0c 31 1d 3e
       0.1352788 0.027241345 0.055397466 0.15350741
000340 97 a1 f7 bd 0f 39 86 bb c8 12 2e 3e 3b d9 28 3e
       -0.12091368 -0.0040961574 0.16999352 0.16489117
000350 6e a7 69 3e 16 76 ea bd d1 f4 3e be ac de 4e bd
       0.22817776 -0.11448304 -0.18648078 -0.050505325
000360 22 c2 c8 bd c4 5f 95 3c f9 fa 70 bd 90 48 0b be
       -0.09802653 0.018234141 -0.058833096 -0.13601899
000370 45 92 81 be 0b 9b a2 bd 1a 0c 1a be 51 ed 2f be
       -0.25306907 -0.07939728 -0.15043679 -0.17180373
000380 de f2 03 3d c2 a9 08 be 08 37 01 3e 3b f7 f2 bd
       0.032214038 -0.13346007 0.12618649 -0.11863562
000390 9e e7 01 3e 6a 53 19 be 5e de b7 3d 62 98 39 bb
       0.12686011 -0.14973226 0.0897796 -0.0028319587
0003a0 fc 12 52 3c 6d c0 22 3e 01 8e 82 bd ad 69 4f be
       0.012821909 0.15893717 -0.06374741 -0.20255156
0003b0 ce ce 16 3d d5 86 22 be 23 6e 9d 3d fa ba 19 be
       0.036818318 -0.15871747 0.076870225 -0.15012732
0003c0 38 49 16 be 12 22 81 3d a9 4d 15 be 76 1b ee bd
       -0.14676368 0.063053265 -0.14580406 -0.116263315
0003d0 1f 43 f6 3c 41 da de bd df ac 01 be 65 92 32 3e
       0.030061303 -0.108814724 -0.12663601 0.17438658
0003e0 84 d0 c0 bd 4f 2e 5a bd 39 66 1f 3c 4c cd c8 bd
       -0.09414771 -0.05326682 0.009728962 -0.09804782
0003f0 25 b7 2b be be c0 be 3d 4f 88 ed 3c ed b2 fb 3b
       -0.16769083 0.093141064 0.028995661 0.0076812417

linear_list.1.bias f4 [32]
000000 b0 c5 74 bd 8a 49 22 be 9e b8 64 be 9d fe 63 bd
       -0.059758842 -0.15848365 -0.22336051 -0.05566274
000010 bd a4 19 be e2 46 9f bd d5 ab 78 bc a8 bb 12 bd
       -0.15004249 -0.07777192 -0.015177687 -0.035823494
000020 c7 8b 9a bc 7b 04 d5 bd 20 2a d0 3d 8f ce 12 3d
       -0.01886548 -0.10401245 0.10164285 0.03584152
000030 90 bf ca bd d8 86 2a 3e eb 25 5e 3d 01 ad 90 3d
       -0.09899819 0.16653001 0.05423538 0.07064248
000040 74 d7 fe 3d ae b3 93 bd dc 3f 62 bd 88 f5 54 3d
       0.12443438 -0.072120056 -0.055236682 0.05199197
000050 0a 19 7f bc 08 00 53 bd 71 bf 57 3e ca 6d ab bc
       -0.015569935 -0.0515137 0.21069123 -0.020926375
000060 15 a5 45 3e 4c b7 51 be 3b 43 13 3e 58 66 4f be
       0.19301255 -0.20480078 0.14381115 -0.20253885
000070 2a 10 17 be ee 3c 57 3d 2f 72 49 3d 0e 70 f3 bc
       -0.1475226 0.05254834 0.04918116 -0.029716518

linear_list.2.weight f4 [2, 32]
000000 ad 3f 2d bd 5e fe 5f 3e 54 62 9b be a6 03 2c be
       -0.042297054 0.21874377 -0.30348456 -0.16798267
000010 54 af a1 bd 42 0b d7 3d 6c 31 80 be e4 ab 0c 3e
       -0.07894769 0.10500194 -0.25037706 0.13737446
000020 68 c8 2e 3e a4 9f e5 3d 63 5c 68 3c a6 8c 32 3f
       0.17068636 0.1121209 0.014182183 0.6974586
000030 69 ae 89 3e 17 2f 93 3c e7 16 4a 3e d8 4d 32 3e
       0.26890877 0.01796679 0.19735299 0.17412508
000040 90 db a6 3e 21 80 3a 3e c6 15 52 3e f6 ff de bd
       0.32589388 0.1821294 0.20516118 -0.108886644
000050 12 85 6a 3c 1f 66 28 be e7 2a 82 bd 7a 95 01 bf
       0.014313953 -0.16445206 -0.06355839 -0.5061871
000060 f2 60 2e bc a5 b7 34 be 2c 44 1c 3c e1 79 c5 be
       -0.010643231 -0.1764818 0.009537738 -0.3856955
000070 dd e2 b8 3d 3b d0 22 bd ee 87 31 be 6f be c6 3e
       0.09027646 -0.039749365 -0.1733701 0.38817164
000080 dd 8b 06 bf 88 89 df 3c a0 84 b1 bd e5 e7 ae 3c
       -0.52557164 0.02728726 -0.08667874 0.02135081
000090 70 1d af 3d ea 6f a7 bd 1b 14 b3 be db df cf 3d
       0.08550537 -0.08175643 -0.34976277 0.10150119
0000a0 b2 f5 40 3d 2f d5 96 bd 39 c3 21 bf 84 8a 7d 3d
       0.047109313 -0.0736488 -0.6318851 0.061899677
0000b0 0f e7 ea 3d 20 e2 0c 3f 48 e6 bd be b8 d1 00 3e
       0.11469852 0.5503254 -0.37089753 0.12580001
0000c0 13 52 f7 3e 5e 4e e1 3d 0b 4b 23 3e 6d 5e 03 3e
       0.48304805 0.110012755 0.15946595 0.1282899
0000d0 01 b7 c1 bd 9a 19 31 be 52 08 26 3f b4 aa c1 bd
       -0.09458733 -0.17294922 0.64856446 -0.09456387
0000e0 88 c4 d3 3e bd 1e 9e be 1f 67 ac 3e 06 1e fa bd
       0.4136088 -0.30882826 0.33672425 -0.12212758
0000f0 71 24 e7 bb b6 64 fc 3e 02 83 6e 3e c2 76 95 be
       -0.0070539047 0.49295586 0.23292163 -0.29192168

linear_list.2.bias f4 [2]
000000 69 96 83 bd 9b ff db 3e
       -0.06425173 0.4296845
